model_v2.pth (torch, 281162 bytes, 108 tensors)

weight f4 [65, 32]
1.0511508 0.02694221 0.039234415 -1.3415606 0.33367273 1.0861855 -0.57922196 -0.23521966
-0.1700221 -0.18860845 -0.81899285 -1.7689378 -0.28313997 -0.5878309 -0.25029576 0.5737452
0.9760596 -0.7555869 -0.7138712 0.5014714 -1.9161924 1.0421052 1.694032 -0.42601356
0.2514042 -0.61281556 -0.83074784 -0.34543487 1.0964546 -0.71647495 1.4988997 2.0300214
-0.32127672 -0.1398022 0.7852436 -0.2835624 -0.093428686 1.1727787 -0.7240267 -0.3561512
-0.9784262 -0.7670266 0.48731193 -3.538405 -0.85524404 0.45407373 -0.0143174315 -0.62315416
1.2903204 -0.31416863 1.3645868 0.08692416 -1.4110048 1.9136144 2.2017813 -0.9177799
0.9088519 -1.2066875 0.06808034 0.39739385 0.7998058 0.8823726 0.7841329 -0.44577292
0.532093 0.04947983 1.5021544 1.8405099 0.8203963 -0.56061256 0.08634603 0.07362804
0.31850997 -0.5168371 1.3631957 0.25012013 -0.23579891 -0.9137601 1.13999 -0.07068561
1.6469811 -1.1676215 0.01729587 0.7977706 -1.1326798 -0.88615525 -0.01880048 -0.7223502
1.0690262 0.2935299 -1.3974962 -0.8456828 -0.19141611 -0.41006622 -0.51482135 -1.784555
-1.0109392 -0.8279124 -0.10038458 0.5835717 0.019133292 -0.44993713 -0.18059906 0.0104103815
-0.107480004 -0.08092036 0.17827494 0.8399267 0.07332939 1.5415052 -0.3884164 -1.1971675
-0.19987218 0.004826768 0.56172925 -1.1429176 0.101256385 0.27813855 -1.0711415 0.35538027
1.0619401 0.17024814 0.18858834 -0.3964815 -0.3988274 0.19312851 -0.33330512 -0.8884247
-0.77780825 1.5649832 1.2189231 -0.7678784 1.3073711 1.5185518 -0.5697348 -0.5297206
-0.49853396 0.5366019 0.14532588 -0.08166106 0.6810071 -0.9287406 -0.0027917707 0.04719874
1.8753752 0.6912787 -1.0337247 0.31722835 -0.562826 0.3041528 -0.49044326 0.6689417
-0.4919422 0.21286829 0.24929444 -0.61261195 -0.15183596 -0.8899884 1.0567616 -0.45063245
0.08848489 -0.38196987 -0.11164671 0.9475844 -3.7018445 1.0438812 -1.3941152 -0.4788507
1.2992487 1.4718226 -0.27077752 0.5435438 0.40631825 -1.0981112 -1.6697477 -1.1617534
1.3666275 -0.7495585 0.50664866 -0.27460325 -0.29469723 1.8320808 -0.81051695 0.40845954
1.4238966 1.157164 -0.025664253 -1.6325642 0.5132106 1.2900854 -1.0604473 -0.2955884
0.936783 -1.4036461 1.9127688 1.4280097 0.44308084 -1.1067457 -0.33594745 -0.24627653
-0.735205 -0.39949313 1.1413531 1.2291951 0.17480771 -1.5539042 -0.19449155 0.3038776
-0.31008825 -2.9092212 -0.24499229 -0.17622352 0.57531726 1.1426355 0.5486168 -0.69237375
-0.11201504 1.2875259 -0.6113558 -0.19453104 -0.22468083 0.35467017 1.0183743 0.16003114
0.23624127 -1.726184 0.92323697 1.5328183 -0.6049399 1.6318456 -1.0233225 -0.9325555
0.25625196 -0.30322626 2.209401 -2.3505616 -1.1877155 0.4248174 -1.2886325 -0.97302556
1.9287025 0.85984147 0.6626746 -0.9955423 -1.7123096 1.660977 0.036605 -2.9202933
-0.44644976 -0.8037471 -1.4253855 -1.3593571 0.9821929 -0.8055141 0.4774684 1.182953
00000000: 1c8c 863f e9b5 dc3c 44b4 203d 42b8 abbf
00000010: 27d7 aa3e 2008 8b3f e447 14bf 6cdd 70be
00000020: 461a 2ebe 9322 41be 84a9 51bf 8e6c e2bf
00000030: b9f7 90be 167c 16bf c426 80be f7e0 123f
00000040: 0bdf 793f 256e 41bf 43c0 36bf 6e60 003f
00000050: cb45 f5bf b463 853f 0ad6 d83f 731e dabe
00000060: 0db8 803e 7be1 1cbf e4ab 54bf d7dc b0be
00000070: a058 8c3f e76a 37bf f2db bf3f dfeb 0140
00000080: 627e a4be 4f28 0fbe b905 493f 172f 91be
00000090: 8a57 bfbd 9d1d 963f d059 39bf 7359 b6be
000000a0: 247a 7abf db5b 44bf f380 f93e 3a75 62c0
000000b0: 46f1 5abf 5a7c e83e a993 6abc 0887 1fbf
000000c0: 3829 a53f b6da a0be c8aa ae3f 4b05 b23d
000000d0: ce9b b4bf 51f1 f43f fce9 0c40 a0f3 6abf
000000e0: 85aa 683f bc74 9abf b56d 8b3d 3577 cb3e
000000f0: 13c0 4c3f 2ce3 613f efbc 483f 593c e4be
00000100: 3f37 083f 5dab 4a3d 9846 c03f d495 eb3f
00000110: 7e05 523f 4e84 0fbf 30d6 b03d 4cca 963d
00000120: bd13 a33e 704f 04bf 327d ae3f bf0f 803e
00000130: 4575 71be 2fec 69bf 31eb 913f 9ec3 90bd
00000140: 47d0 d23f 9f74 95bf 12b0 8d3c b23a 4c3f
00000150: a7fb 90bf 12db 62bf 7703 9abc f1eb 38bf
00000160: dad5 883f 8d49 963e 28e1 b2bf ab7e 58bf
00000170: 9602 44be 33f4 d1be 55cb 03bf 4c6c e4bf
00000180: 7566 81bf 11f2 53bf 6e96 cdbd f464 153f
00000190: 6cbd 9c3c 295e e6be f6ee 38be 4e90 2a3c
000001a0: 7a1e dcbd 93b9 a5bd b58d 363e 7005 573f
000001b0: b82d 963d 0b50 c53f 84de c6be c93c 99bf
000001c0: 4bab 4cbe dd29 9e3b 7dcd 0f3f 204b 92bf
000001d0: 825f cf3d 2d68 8e3e 2a1b 89bf 67f4 b53e
000001e0: a7ed 873f 8755 2e3e 4d1d 413e a0ff cabe
000001f0: 1b33 ccbe 7bc3 453e f8a6 aabe cd6f 63bf
00000200: 711e 47bf 5f51 c83f ac05 9c3f ae93 44bf
00000210: f057 a73f e85f c23f 24da 11bf c59b 07bf
00000220: d83f ffbe be5e 093f 4fd0 143e ea3d a7bd
00000230: 7b56 2e3f f2c1 6dbf 24f6 36bb 7753 413d
00000240: 4b0c f03f a4f7 303f 1751 84bf c16b a23e
00000250: 5d15 10bf eab9 9b3e 611b fbbe c33f 2b3f
00000260: d9df fbbe 25fa 593e 0b47 7f3e 23d4 1cbf
00000270: e37a 1bbe 48d6 63bf f743 873f 4cb9 e6be
00000280: 9137 b53d 8e91 c3be 08a7 e4bd e494 723f
00000290: 05eb 6cc0 e69d 853f 5e72 b2bf eb2b f5be
000002a0: c84d a63f af64 bc3f 5aa3 8abe b025 0b3f
000002b0: f208 d03e e88e 8cbf 4bba d5bf 56b4 94bf
000002c0: a6ed ae3f 11e3 3fbf bab3 013f cc98 8cbe
000002d0: 8ee2 96be a081 ea3f 0a7e 4fbf 9c21 d13e
000002e0: 3e42 b63f f31d 943f d73d d2bc ddf7 d0bf
000002f0: c561 033f 8521 a53f bdbc 87bf 5d57 97be
00000300: 03d1 6f3f adaa b3bf 9cd5 f43f 06c9 b63f
00000310: 7edb e23e d8a9 8dbf 4e01 acbe ea2f 7cbe
00000320: 6536 3cbf 5d8a ccbe dc17 923f 4456 9d3f
00000330: cb00 333e 55e6 c6bf cb28 47be d895 9b3e
00000340: e3c3 9ebe ae30 3ac0 42df 7abe f073 34be
00000350: fe47 133f e141 923f 2772 0c3f 683f 31bf
00000360: 2468 e5bd a6cd a43f d081 1cbf 2533 47be
00000370: bb12 66be 5497 b53e 175a 823f 34df 233e
00000380: 3be9 713e 99f3 dcbf 4259 6c3f 6433 c43f
00000390: 57dd 1abf 51e0 d03f 3bfc 82bf f5bb 6ebf
000003a0: 7533 833e 7940 9bbe d366 0d40 9a6f 16c0
000003b0: 1007 98bf ab81 d93e e9f1 a4bf 3418 79bf
000003c0: b9df f63f 921e 5c3f 0ba5 293f dcdb 7ebf
000003d0: f62c dbbf e59a d43f 20ef 153d 16e6 3ac0
000003e0: 1095 e4be 5fc2 4dbf 0873 b6bf 6aff adbf
000003f0: fe70 7b3f 2c36 4ebf bd76 f43e 016b 973f

weight f4 [8, 32]
0.79545754 0.5501998 0.34272146 -0.7299856 -2.1310337 1.4284726 -1.2195982 -0.5205848
-0.43039998 -2.393802 2.200456 0.7317341 -0.13927068 0.0005536538 0.94224775 -0.71346724
-0.95463014 2.5951648 -0.09687031 -0.44127238 -0.40876722 1.1728675 -0.4183597 -0.7705599
-0.7354046 0.43043867 0.06650408 0.69192535 -0.18379724 0.69030863 0.89892274 -0.37400094
-0.032301255 -0.56877476 0.4767924 -0.33120796 0.046308294 -0.5151697 -0.73597264 0.14625524
1.0127158 -1.592807 0.48691955 -0.16735598 -0.5317758 -0.18299499 1.1397895 -0.1314201
-0.22236876 0.76072764 0.42770487 -0.5857982 -0.19210327 0.84880215 0.063976064 0.5199244
-0.07444416 -0.12267041 0.66737026 0.10073026 -0.3667891 -0.30776823 -0.08138969 -0.0058199186
0.07748909 -0.6131898 0.81095433 0.09623003 -0.590059 -0.36306742 0.106108174 0.09519762
-0.030306946 -1.329894 -0.40862218 -0.6025063 0.23167993 0.45784578 0.9811618 0.28885448
0.10735148 0.52436405 0.7976983 0.13803823 0.32934022 -0.18777362 -0.1251718 -0.010332374
-0.53502417 -0.30650416 0.05691032 0.29753014 0.23503082 0.23794124 0.056408696 -0.22526272
0.21930549 -0.050493877 -0.61045676 0.53001106 -0.36728755 0.08911314 -0.078442276 -0.17744298
-0.41678095 -0.4566349 0.27415413 -0.22996326 0.39816228 0.14076363 0.84068453 -0.108352594
0.46236643 0.024582446 -0.1251644 -0.33343726 -0.04458073 -0.5951759 0.44652268 -0.17235036
0.21214789 -0.06214039 -0.17037076 0.50402737 -0.11379629 1.0453155 -0.107056364 0.043303944
-0.030930128 0.74056524 -0.6896531 -0.09643411 0.123402774 -0.17112839 0.954108 0.024272284
0.1592431 -0.61409247 0.9939636 0.22627251 -0.48275748 0.4504752 0.32401577 -0.7643917
0.47693014 -0.61672485 0.27364877 -0.3724133 -0.040797845 0.16088718 0.46632478 -0.5504064
0.5543289 0.18779041 0.12907419 0.035269704 -0.114953846 0.50407374 0.48943624 0.597184
-0.40004995 0.5398037 0.47612885 -0.3874974 0.16661315 -0.37137142 0.6409898 -0.056597974
0.1760203 -0.77233326 0.8166299 0.53399867 -1.078764 0.7002052 -0.7664771 -0.085979104
-0.1673611 -0.5602882 1.0376179 0.6151644 0.1977014 0.3358571 -0.17598735 -0.40808678
0.23921606 -0.14219105 0.39348245 -0.10308262 0.2255363 -0.20656991 0.27788937 0.54780483
-0.13157648 -0.31337708 1.0654397 0.42839852 0.12730354 -0.048108093 0.16101123 -0.5491775
-0.33708063 0.05430308 -0.23226812 0.11254527 -0.36351183 0.7828586 -1.4891564 0.65457827
0.26217577 -0.3699671 0.64113015 0.6921491 0.20873177 -0.4796191 -0.11255619 -0.0013605697
0.22275889 -0.39441833 -0.046793338 0.15954866 0.10550319 0.04222917 -0.19994608 0.30675387
-0.032623008 -0.064648524 0.15893371 0.8120651 -0.4310133 0.34231722 1.2050015 -0.5952987
-0.5761824 0.40441707 -0.21546628 0.05771495 0.16429104 0.7180203 -1.3498324 -0.15955958
0.78542125 -0.5816426 0.02685174 -0.21479 0.51264757 -0.6063014 0.4888818 -0.50128865
0.46852738 -0.17925817 -0.50923586 0.21841821 -0.10108958 0.5216564 0.07602532 0.25071317
00000000: 1ba3 4b3f e5d9 0c3f 3079 af3e 56e0 3abf
00000010: db62 08c0 31d8 b63f cb1b 9cbf 0c45 05bf
00000020: 635d dcbe 0d34 19c0 45d4 0c40 ed52 3b3f
00000030: f99c 0ebe 1423 113a 2637 713f caa5 36bf
00000040: a462 74bf 2e17 2640 f163 c6bd 74ee e1be
00000050: f049 d1be 8620 963f 3e33 d6be 6a43 45bf
00000060: 7a43 3cbf 7562 dc3e 4b33 883d 0522 313f
00000070: 5835 3cbe 11b8 303f cd1f 663f 0d7d bfbe
00000080: 524e 04bd 399b 11bf 221e f43e 1794 a9be
00000090: c4ad 3d3d 29e2 03bf b468 3cbf efc3 153e
000000a0: aca0 813f 1ae1 cbbf 854d f93e 5e5f 2bbe
000000b0: 7522 08bf 0a63 3bbe 9fe4 913f fe92 06be
000000c0: a3b4 63be 0cbf 423f 22fc da3e dff6 15bf
000000d0: b8b6 44be 194b 593f e205 833d c419 053f
000000e0: 2e76 98bd a03a fbbd c7d8 2a3f ab4b ce3d
000000f0: c8cb bbbe cc93 9dbe a3af a6bd 04b5 bebb
00000100: 9ab2 9e3d 02fa 1cbf b49a 4f3f 4014 c53d
00000110: 1b0e 17bf f9e3 b9be 3e4f d93d f8f6 c23d
00000120: 4646 f8bc f739 aabf ed36 d1be da3d 1abf
00000130: 813d 6d3e c36a ea3e 6b2d 7b3f bce4 933e
00000140: 18db db3d b93c 063f f535 4c3f e559 0d3e
00000150: 489f a83e ba47 40be 092d 00be 1e49 29bc
00000160: 58f7 08bf 1dee 9cbe cc1a 693d df55 983e
00000170: ebab 703e dea6 733e ce0c 673d 45ab 66be
00000180: 9e91 603e abd2 4ebd e546 1cbf ceae 073f
00000190: 1d0d bcbe f380 b63d 58a6 a0bd 9db3 35be
000001a0: 5064 d5be 0dcc e9be ee5d 8c3e 7d7b 6bbe
000001b0: eddb cb3e 5724 103e 1a37 573f f7e7 ddbd
000001c0: 4bbb ec3e 2061 c93c 192b 00be 4ab8 aabe
000001d0: 499a 36bd 735d 18bf 9f9e e43e 9d7c 30be
000001e0: 4c3d 593e ec86 7ebd ac75 2ebe f007 013f
000001f0: 070e e9bd e6cc 853f 5e40 dbbd 7a5f 313d
00000200: 2e61 fdbc af95 3d3f 1b8d 30bf 3f7f c5bd
00000210: 98ba fc3d 483c 2fbe 6c40 743f abd6 c63c
00000220: a010 233e 2a35 1dbf 6674 7e3f fbb3 673e
00000230: fd2b f7be afa4 e63e 65e5 a53e 2daf 43bf
00000240: 3030 f43e aee1 1dbf b11b 8c3e f5ac bebe
00000250: a41b 27bd 9cbf 243e 1fc2 ee3e 6fe7 0cbf
00000260: 80e8 0d3f 214c 403e 062c 043e f776 103d
00000270: ec6c ebbd fa0a 013f 6397 fa3e 0de1 183f
00000280: 59d3 ccbe 9330 0a3f 29c7 f33e 0f66 c6be
00000290: a39c 2a3e 6524 bebe e817 243f 47d3 67bd
000002a0: aa3e 343e a2b7 45bf a80e 513f 23b4 083f
000002b0: f014 8abf a640 333f d837 44bf d015 b0bd
000002c0: b560 2bbe 0c6f 0fbf aad0 843f 6a7b 1d3f
000002d0: 3c72 4a3e 76f5 ab3e 0736 34be c0f0 d0be
000002e0: 0ef5 743e 889a 11be 8876 c93e fb1c d3bd
000002f0: fdf2 663e 1087 53be 8447 8e3e f03c 0c3f
00000300: fcbb 06be f672 a0be 5460 883f 0d57 db3e
00000310: dc5b 023e fe0c 45bd 21e0 243e e696 0cbf
00000320: d595 acbe e86c 5e3d b2d7 6dbe 227e e63d
00000330: 391e babe 6c69 483f ad9c bebf 7192 273f
00000340: e73b 863e 546c bdbe 1b21 243f af30 313f
00000350: c8bd 553e a290 f5be dc83 e6bd 2555 b2ba
00000360: e81a 643e 33f1 c9be 5faa 3fbd b960 233e
00000370: 0e12 d83d 7ff8 2c3d aabe 4cbe d80e 9d3e
00000380: b49f 05bd 7266 84bd 85bf 223e 80e3 4f3f
00000390: c6ad dcbe 3444 af3e 7d3d 9a3f 7f65 18bf
000003a0: b180 13bf c10f cf3e 31a3 5cbe 8366 6c3d
000003b0: e93b 283e 2ed0 373f 4fc7 acbf 9663 23be
000003c0: 5e11 493f 88e6 14bf 2ef8 db3c e9f1 5bbe
000003d0: df3c 033f 9236 1bbf b74e fa3e 7454 00bf
000003e0: d2e2 ef3e 748f 37be 485d 02bf 06a9 5f3e
000003f0: 0e08 cfbd 468b 053f 2ab3 9b3d 7a5d 803e

tril f4 [8, 8]
1.0 0.0 0.0 0.0 0.0 0.0 0.0 0.0
1.0 1.0 0.0 0.0 0.0 0.0 0.0 0.0
1.0 1.0 1.0 0.0 0.0 0.0 0.0 0.0
1.0 1.0 1.0 1.0 0.0 0.0 0.0 0.0
1.0 1.0 1.0 1.0 1.0 0.0 0.0 0.0
1.0 1.0 1.0 1.0 1.0 1.0 0.0 0.0
1.0 1.0 1.0 1.0 1.0 1.0 1.0 0.0
1.0 1.0 1.0 1.0 1.0 1.0 1.0 1.0
00000000: 0000 803f 0000 0000 0000 0000 0000 0000
00000010: 0000 0000 0000 0000 0000 0000 0000 0000
00000020: 0000 803f 0000 803f 0000 0000 0000 0000
00000030: 0000 0000 0000 0000 0000 0000 0000 0000
00000040: 0000 803f 0000 803f 0000 803f 0000 0000
00000050: 0000 0000 0000 0000 0000 0000 0000 0000
00000060: 0000 803f 0000 803f 0000 803f 0000 803f
00000070: 0000 0000 0000 0000 0000 0000 0000 0000
00000080: 0000 803f 0000 803f 0000 803f 0000 803f
00000090: 0000 803f 0000 0000 0000 0000 0000 0000
000000a0: 0000 803f 0000 803f 0000 803f 0000 803f
000000b0: 0000 803f 0000 803f 0000 0000 0000 0000
000000c0: 0000 803f 0000 803f 0000 803f 0000 803f
000000d0: 0000 803f 0000 803f 0000 803f 0000 0000
000000e0: 0000 803f 0000 803f 0000 803f 0000 803f
000000f0: 0000 803f 0000 803f 0000 803f 0000 803f

weight f4 [8, 32]
-0.21928248 0.14509925 1.1367515 -0.7704087 -0.50511616 -0.5385862 -0.43411034 0.29762858
-0.6097374 -0.13821083 -0.011987718 0.17528962 -0.5573802 0.117540404 0.13456799 0.2560676
0.39564797 -0.93339825 -0.15080066 -1.1738274 0.2303393 0.3372899 0.06573359 0.2872785
0.55605245 -0.8124855 -1.3922555 1.0960479 0.57178485 1.2418256 0.44037455 0.4924393
0.15617631 -0.74241394 -0.26562536 -0.46162057 -1.4051834 0.83659625 -0.20146567 -0.80944663
-0.116625234 -0.44338855 -0.91606826 -0.006317615 0.24490328 -0.42691386 1.5095574 0.20263296
-0.17361306 -0.79573387 1.3107054 -0.7134559 0.023733627 0.5791821 -0.7563893 0.60342425
1.1855696 0.42216608 0.46236512 -0.54609543 0.13404627 0.58184916 0.59637094 0.2754824
-0.07470995 1.2794292 0.58936423 0.21482825 0.004407272 -1.0727699 0.41185197 -0.98505676
-0.6687398 0.21908867 -0.22936769 -0.32263333 1.1589676 0.1292154 -1.2040229 0.3089808
-0.2524571 -0.26963457 -0.37074208 0.014994422 0.047486696 1.1354748 -0.2894674 -0.37936148
0.41365227 -0.16090953 -0.43051177 0.27157933 0.10485198 0.69962287 -0.73213387 0.8270359
0.583394 -0.4141891 -1.2198064 0.18061937 0.91683125 -0.3189067 0.52666783 -1.0154895
0.92146313 -0.6512925 0.2448071 -0.14436577 0.8189248 -0.13242312 0.20855933 0.58947873
0.1004817 -0.4016873 -0.45981893 0.7729376 1.4264702 -0.57599443 0.39518127 -0.63198495
-1.4383783 0.7113592 0.7694627 0.56411105 -0.72194165 -0.066550456 -1.1857767 -0.58194494
1.3495023 -1.4066334 -0.017114976 0.3358509 -0.3772436 0.81098187 -0.7628027 0.912063
0.6863441 -0.5823792 0.3717329 -0.43288523 -0.0021443288 0.81771034 0.031920973 -0.70844287
0.17561929 -0.64104575 0.6311897 -0.5215616 -0.35255802 0.25644422 0.15948947 -0.66753274
-0.073299974 0.59154564 -0.08456106 -0.36497295 1.1404177 0.26543123 0.55716807 -1.1659284
-0.14171526 0.87705755 0.3375823 -0.4067818 -0.21993966 -0.9153168 0.15638952 -1.1819515
-0.24472468 -0.5129229 -0.17972223 -0.17912154 1.2143419 -0.14316185 -0.37898558 0.2292662
-0.45756736 -1.1585362 -0.26469314 -0.5425516 0.71996033 1.1924186 0.22423646 0.0054921205
0.43594918 -0.087430574 -0.0145958895 0.38762677 -0.78991324 0.5465983 -0.33162004 0.7492123
0.85307914 0.97732955 -0.2340324 0.6867318 0.9649669 0.018567385 0.6998472 -0.27541295
-0.3813856 0.1377552 0.28045043 -0.0051406203 -0.7710023 -0.06298429 -1.433223 0.60420746
0.31008947 -1.8292934 -0.22576717 0.68376935 0.16552913 -0.5911601 -0.0561277 -0.6166502
-0.16216339 -0.16040297 -1.120139 0.74036473 0.43186194 -0.0659305 0.117844865 -0.040404048
-0.71768457 -0.3134198 -0.13036114 -0.91380936 0.11825409 0.17273678 -0.97941726 1.3386239
0.9456023 0.2473271 0.173899 0.81538856 -0.18589851 -0.052111723 0.64694995 0.021546518
-0.06122237 0.4100782 -0.62331134 -1.5203818 0.44186586 -0.38975593 0.5516158 -0.45662895
-0.1458153 -0.6650486 -1.1191818 0.56620234 0.64916813 0.07112228 0.07638386 0.4249406
00000000: 968b 60be e694 143e 1381 913f 8139 45bf
00000010: 4b4f 01bf c9e0 09bf b643 debe c662 983e
00000020: c017 1cbf 2487 0dbe 2268 44bc 1f7f 333e
00000030: 78b0 0ebf 06b9 f03d 31cc 093e 4b1b 833e
00000040: 5f92 ca3e 30f3 6ebf 7d6b 1abe fa3f 96bf
00000050: 11de 6b3e 43b1 ac3e 559f 863d 2b16 933e
00000060: 7459 0e3f 0dff 4fbf 6e35 b2bf 4c4b 8c3f
00000070: 7e60 123f 24f4 9e3f c678 e13e 0121 fc3e
00000080: afec 1f3e d70e 3ebf 0c00 88be 8859 ecbe
00000090: 0ddd b3bf 2c2b 563f 044d 4ebe e537 4fbf
000000a0: 36d9 eebd d303 e3be 7383 6abf ff03 cfbb
000000b0: edc7 7a3e 7494 dabe 2d39 c13f 047f 4f3e
000000c0: 9fc7 31be 37b5 4bbf 32c5 a73f 0ca5 36bf
000000d0: 066d c23c 4745 143f bba2 41bf 037a 1a3f
000000e0: bfc0 973f 2726 d83e 1fbb ec3e e9cc 0bbf
000000f0: 6d43 093e 11f4 143f c4ab 183f 070c 8d3e
00000100: 8801 99bd 56c4 a33f 93e0 163f f0fb 5b3e
00000110: e16a 903b 8650 89bf 43de d23e ae2c 7cbf
00000120: 8832 2bbf c858 603e 5ddf 6abe 3230 a5be
00000130: 0d59 943f 0b51 043e 6c1d 9abf bb32 9e3e
00000140: 0f42 81be 8b0d 8abe e8d1 bdbe 2aab 753c
00000150: 6981 423d 3d57 913f 1235 94be ab3b c2be
00000160: 3bca d33e 78c5 24be 0a6c dcbe 720c 8b3e
00000170: a3bc d63d 7c1a 333f 206d 3bbf a0b8 533f
00000180: 4f59 153f 9810 d4be 9e22 9cbf 49f4 383e
00000190: 74b5 6a3f bd47 a3be b4d3 063f 8ffb 81bf
000001a0: 02e5 6b3f 1bbb 26bf b6ae 7a3e 9fd4 13be
000001b0: 0ea5 513f ed99 07be 9490 553e 14e8 163f
000001c0: 59c9 cd3d f5a9 cdbe 636d ebbe 3ddf 453f
000001d0: 9396 b63f 5f74 13bf 3355 ca3e c4c9 21bf
000001e0: c81c b8bf a31b 363f 82fb 443f 9569 103f
000001f0: 2bd1 38bf 9b4b 88bd 88c7 97bf 58fa 14bf
00000200: 7ebc ac3f 900c b4bf b534 8cbc a6f4 ab3e
00000210: 1326 c1be 829c 4f3f 0a47 43bf f67c 693f
00000220: 3fb4 2f3f ce16 15bf c653 be3e 22a3 ddbe
00000230: de87 0cbb 7755 513f 91bf 023d 835c 35bf
00000240: 8bd5 333e 931b 24bf a695 213f 1085 05bf
00000250: 7c82 b4be a84c 833e 3551 233e 6de3 2abf
00000260: 4c1e 96bd 896f 173f 592e adbd bcdd babe
00000270: 35f9 913f 9ae6 873e 91a2 0e3f 243d 95bf
00000280: ce1d 11be d886 603f 96d7 ac3e b445 d0be
00000290: dd37 61be 3452 6abf 9324 203e 304a 97bf
000002a0: 1b99 7abe ea4e 03bf 1b09 38be a36b 37be
000002b0: 8e6f 9b3f 0599 12be 660a c2be c2c4 6a3e
000002c0: 4546 eabe ea4a 94bf dc85 87be a9e4 0abf
000002d0: 524f 383f 2ca1 983f 3e9e 653e 3ff7 b33b
000002e0: bb34 df3e cd0e b3bd 9923 6fbc 0477 c63e
000002f0: c137 4abf deed 0b3f 1aca a9be 61cc 3f3f
00000300: 6563 5a3f 4532 7a3f 31a6 6fbe a8cd 2f3f
00000310: 1208 773f a11a 983c 3029 333f ed02 8dbe
00000320: f944 c3be b30f 0d3e 3397 8f3e a672 a8bb
00000330: 6860 45bf e8fd 80bd da73 b7bf 57ad 1a3f
00000340: 0cc4 9e3e 4926 eabf 822f 67be 820b 2f3f
00000350: 7880 293e 4556 17bf 29e6 65bd cadc 1dbf
00000360: 290e 26be ad40 24be b760 8fbf 8b88 3d3f
00000370: 021d dd3e 9206 87bd a658 f13d b77e 25bd
00000380: 2dba 37bf 8f78 a0be 647d 05be 69ef 69bf
00000390: 332f f23d e9e1 303e 17bb 7abf 0758 ab3f
000003a0: fe12 723f 5143 7d3e 9412 323e 4ebd 503f
000003b0: 2e5c 3ebe 1a73 55bd 839e 253f 5382 b03c
000003c0: 4fc4 7abd c5f5 d13e 5591 1fbf df9b c2bf
000003d0: 3e3c e23e 178e c7be b136 0d3f 45cb e9be
000003e0: 9b50 15be a040 2abf 5941 8fbf a3f2 103f
000003f0: e22f 263f 8fa8 913d 246f 9c3d d091 d93e

weight f4 [8, 32]
0.783408 -0.9219695 -0.28509456 0.0909983 0.808803 0.40293676 0.48601303 -0.7203071
1.0762017 -0.28997144 -0.4289173 -0.37682417 -0.39827344 0.58781534 -0.5505871 -0.27180994
0.1728215 0.00085170637 0.17704122 0.98148096 -0.14998245 -0.10601163 0.060359903 -0.16829166
0.40909797 -0.6422821 0.90711725 -1.1282157 -1.3306243 0.9333641 -0.9897296 -0.068510704
0.52180165 0.13386635 -0.67386425 -0.01230829 0.6645946 0.5606194 0.1522806 0.41948912
-0.50274044 -0.79756415 0.8021294 -0.57684404 -0.33540916 1.9147587 -1.2976283 -0.41054672
-0.10370588 0.74155486 -1.1966566 0.16727734 -0.3404101 0.5786241 0.27727315 -0.80659115
0.16109301 -0.69001836 0.30804884 1.675002 0.47590744 -0.03191923 -0.6827132 -0.36806676
0.16448565 -0.06328513 0.27106172 -0.81331164 0.383618 -0.38387135 -0.73127544 0.43583903
0.6125687 1.7516673 -0.8703215 0.028072016 -0.28985688 0.32161906 0.10377403 -0.49624428
-0.6527465 0.16012461 0.02063358 0.21856843 0.7662891 -0.52196085 0.43675575 -1.1588285
-0.27802414 0.2981846 0.62619185 -0.67268056 -0.7065226 0.17191403 -0.19061118 0.92061603
0.19058283 1.5995078 -0.5215546 -0.3904743 -0.91516143 -0.36835948 -0.6196314 1.0931246
-0.07375749 0.7205355 1.0388649 0.43794173 0.65582246 -0.85494494 0.4788242 0.42894495
-0.19071819 0.041458987 -0.03211758 -0.33759916 -0.14329723 -0.8410648 -0.62662786 -0.2707044
0.06337987 0.14769971 0.519865 -0.655827 0.3138491 -1.3580385 1.6397365 -0.82287294
-0.6345385 0.60265374 0.079764515 -0.1732736 0.13508335 -1.4974566 0.7789707 0.024276659
0.473676 -1.6806815 0.057616763 -0.3725111 0.40627527 0.8506563 0.4417376 1.0157177
-0.6731207 -0.55914694 -1.1359979 0.13431007 0.3330611 0.66075414 0.80076087 0.6544916
0.3965668 -0.6143512 -0.00411267 0.38701227 -0.7405075 0.4170129 -0.022412501 -0.2106337
0.6756332 0.06288083 -0.49626657 -0.8905872 -0.1309344 0.02108768 -0.7872578 0.3449413
0.53204757 1.4531125 -0.2603258 -0.06870624 0.21935771 0.53178424 -0.14750251 -0.33359787
-0.41297978 0.6891573 -0.27471375 0.4170569 0.51929235 -0.49478766 -0.2847018 -1.1006559
-0.5572471 0.08229722 0.8991671 -0.6544938 -0.34168085 0.32168224 -0.34026796 0.36316112
-0.9910697 0.114015155 0.33058745 -0.010553585 0.36704367 -0.9331976 1.047039 -0.13450894
0.5173631 1.1751655 -0.7034053 0.6522939 0.8631518 -0.4826196 -0.7863854 0.48613825
0.9940925 -0.56402594 -0.15559192 0.41678607 0.21940395 -1.3659021 -0.07675233 -0.15807171
0.5445674 -0.6938891 0.8153395 -0.83647484 -0.41210783 -0.8841791 0.4954693 -0.4042146
0.9103333 -0.11736644 0.08064025 1.1634842 -0.15958378 0.2979333 0.39747342 -0.6917626
-0.0030200402 -0.9753307 0.5715896 -0.09828445 -0.36755943 -0.63493884 0.5397362 -0.24811262
0.100571394 -0.5077893 0.4848086 1.6283425 -0.34923953 0.6054217 -0.701975 0.49376822
-0.8204842 0.3230111 0.2559479 -0.92836195 -0.85191685 0.4803421 -0.6740308 -0.21581459
00000000: 6d8d 483f 3106 6cbf eaf7 91be 515d ba3d
00000010: b70d 4f3f ba4d ce3e b3d6 f83e 0c66 38bf
00000020: fac0 893f 2377 94be 0c9b dbbe 19ef c0be
00000030: 7fea cbbe 117b 163f 47f3 0cbf ac2a 8bbe
00000040: 1ff8 303e 0c45 5f3a 4b4a 353e 5642 7b3f
00000050: 0095 19be a01c d9bd f23b 773d a654 2cbe
00000060: 4a75 d13e 9a6c 24bf d638 683f 5f69 90bf
00000070: e651 aabf f3f0 6e3f eb5e 7dbf 574f 8cbd
00000080: cb94 053f 4314 093e 5e82 2cbf b6a8 49bc
00000090: df22 2a3f c184 0f3f 72ef 1b3e 47c7 d63e
000000a0: 99b3 00bf 2a2d 4cbf 5a58 4d3f 0dac 13bf
000000b0: c0ba abbe d016 f53f af18 a6bf 2e33 d2be
000000c0: c063 d4bd 8ad6 3d3f 0b2c 99bf c04a 2b3e
000000d0: 3c4a aebe b620 143f bff6 8d3e c27c 4ebf
000000e0: 91f5 243e 0ba5 30bf 94b8 9d3e 7766 d63f
000000f0: 24aa f33e bdbd 02bd 4bc6 2ebf 3f73 bcbe
00000100: ed6e 283e a29b 81bd 9ac8 8a3e 3135 50bf
00000110: 9469 c43e c98a c4be de34 3bbf 4b26 df3e
00000120: 4dd1 1c3f a236 e03f 64cd 5ebf 49f7 e53c
00000130: 1f68 94be 41ab a43e 7b87 d43d bb13 febe
00000140: 651a 27bf b5f7 233e c107 a93c 67d0 5f3e
00000150: 862b 443f 3a9f 05bf 739e df3e 7e54 94bf
00000160: 2e59 8ebe a7ab 983e 1c4e 203f cb34 2cbf
00000170: aade 34bf 3b0a 303e 942f 43be 7ead 6b3f
00000180: 2528 433e acbc cc3f 9a84 05bf 3fec c7be
00000190: 0548 6abf 9d99 bcbe 2aa0 1ebf 82eb 8b3f
000001a0: 2b0e 97bd 0475 383f 86f9 843f e639 e03e
000001b0: fbe3 273f acdd 5abf 7228 f53e ac9e db3e
000001c0: a14b 43be e6d0 293d b98d 03bd ccd9 acbe
000001d0: 82bc 12be 0650 57bf af6a 20bf c499 8abe
000001e0: 4ecd 813d 983e 173e df15 053f 47e4 27bf
000001f0: d4b0 a03e 35d4 adbf e3e2 d13f cda7 52bf
00000200: 1d71 22bf 8447 1a3f 945b a33d a26e 31be
00000210: 4a53 0a3e a8ac bfbf a06a 473f d8df c63c
00000220: a985 f23e 9220 d7bf 8eff 6b3d c6b9 bebe
00000230: 5003 d03e 9cc4 593f 6e2b e23e 0a03 823f
00000240: a351 2cbf 4124 0fbf 6168 91bf 9488 093e
00000250: fc86 aa3e 2f27 293f aafe 4c3f c38c 273f
00000260: ce0a cb3e 1f46 1dbf 94c3 86bb 7926 c63e
00000270: e691 3dbf b782 d53e 6c9a b7bc 5cb0 57be
00000280: 4cf6 2c3f aac7 803d a716 febe 86fd 63bf
00000290: ab13 06be 12c0 ac3c ba89 49bf 259c b03e
000002a0: 4534 083f 97ff b93f 6c49 85be dbb5 8cbd
000002b0: 4f9f 603e 0323 083f e60a 17be 57cd aabe
000002c0: 1672 d3be 9d6c 303f 48a7 8cbe 7b88 d53e
000002d0: 58f0 043f cf54 fdbe 6fc4 91be 4be2 8cbf
000002e0: bfa7 0ebf 728b a83d d12f 663f e88c 27bf
000002f0: cbf0 aebe 89b3 a43e 9a37 aebe 41f0 b93e
00000300: beb6 7dbf c780 e93d c242 a93e f2e8 2cbc
00000310: 26ed bb3e 0ae6 6ebf 6005 863f b6bc 09be
00000320: e871 043f d36b 963f 5f12 34bf bcfc 263f
00000330: 84f7 5c3f eb19 f7be 8e50 49bf 1de7 f83e
00000340: d97c 7e3f 0164 10bf 7d53 1fbe fc64 d53e
00000350: 6eab 603e e1d5 aebf 5330 9dbd 8ddd 21be
00000360: c568 0b3f b7a2 31bf 17ba 503f 3723 56bf
00000370: ccff d2be 9059 62bf 27ae fd3e 37f5 cebe
00000380: 9a0b 693f d15d f0bd b726 a53d 0ded 943f
00000390: ee69 23be b78a 983e a381 cb3e 5b17 31bf
000003a0: deeb 45bb 46af 79bf b253 123f 5c49 c9bd
000003b0: c030 bcbe 5a8b 22bf 272c 0a3f 3c11 7ebe
000003c0: 60f8 cd3d 7bfe 01bf d538 f83e 876d d03f
000003d0: 86cf b2be ebfc 1a3f a2b4 33bf 30cf fc3e
000003e0: 410b 52bf b661 a53e 9a0b 833e 21a9 6dbf
000003f0: 3917 5abf 66ef f53e 488d 2cbf 80fe 5cbe

weight f4 [8, 32]
-0.13738403 0.061122295 -0.09027562 0.007118826 0.043707374 0.029817052 0.002038368 -0.13594764
-0.19825643 -0.102428444 0.18826069 0.180813 -0.033371076 0.026085127 0.11298786 0.021565843
-0.20333534 -0.0058642384 -0.12553851 0.2858723 0.27591723 -0.1780732 0.70564026 0.07035311
-0.11927606 -0.25270897 0.25893942 -0.16017248 0.021756085 0.10554262 -0.014431699 -0.012461438
-0.1637586 0.0051687756 -0.093854055 -0.41945553 0.21334784 0.1536044 0.25143182 0.0017984121
0.38478267 0.06677228 0.011666148 -0.29421946 0.09666148 -0.40669253 -0.20447278 0.11972476
-0.59137464 0.025211742 0.16842502 0.10865316 -0.15272774 -0.14079718 0.3484857 -0.2282901
0.34213012 0.5825195 -0.13616717 0.15609828 -0.31230918 -0.23059198 0.0068620746 -0.07916846
-0.06744368 -0.019857164 0.056277487 0.08288161 -0.014377255 0.079501845 0.05760461 0.11218274
-0.044948228 0.04890532 -0.02294396 -0.068060726 -0.045155175 -0.046059884 0.055606905 0.034873378
-0.048645727 0.011622759 -0.07067918 -0.09772101 -0.06157895 -0.013282396 -0.053266864 -0.09301136
0.06176806 -0.038123343 0.106062606 0.029339876 0.050341714 -0.12530951 0.0013851416 0.040068187
-0.04639999 -0.02113924 0.08180784 -0.11753066 0.035616074 -0.08417606 -0.10315097 -0.11794137
-0.17843948 -0.24070291 -0.060208313 0.14753379 -0.14626251 0.30037776 0.07268859 0.056201015
0.18098378 0.12502585 -0.051764086 0.21548434 0.10430627 -0.22842686 -0.0020666395 -0.012436962
0.24999632 -0.17038496 0.18934126 -0.16783735 0.08422559 0.068625346 -0.11857171 0.3045456
0.05350507 -0.059711363 0.40366194 -0.15789928 0.08930441 -0.15006854 0.50153744 0.45443085
-0.10289199 0.13113053 0.44102862 -0.328305 0.041870963 -0.12457047 -0.102912456 0.08273545
-0.01229334 0.1845169 -0.23197968 -0.32717684 -0.12171383 -0.0927234 -0.31240523 0.089058265
0.15130304 -0.5108183 -0.37515342 0.022478221 -0.5841526 -0.06065134 0.19130315 0.14213759
0.28306776 -0.3176621 -0.14557041 0.07562512 0.08362375 -0.20370804 0.11798914 -0.12180652
-0.24480827 -0.25853837 0.31958994 0.20437384 0.031832334 0.17716122 0.041147366 -0.010348857
-0.000886007 0.074829295 0.20248218 0.03282301 0.06953813 -0.14328751 0.32424554 0.025207756
0.0493621 0.3888165 -0.23957554 0.13665873 -0.1217966 -0.14374062 -0.0052720536 -0.3895529
-0.17208293 0.07062457 -0.1421245 0.053585704 0.044217773 0.22773944 -0.13612022 -0.10039725
0.13163634 0.1958186 -0.018554177 -0.057505425 -0.06381847 -0.32803306 0.12053431 0.105218716
-0.30470356 -0.016831443 -0.15149012 -0.10829597 -0.0116085075 -0.013132237 0.19343773 -0.06777033
0.08373632 0.03776082 -0.1692868 0.20170435 0.24785368 0.095615834 0.10047631 -0.1352466
-0.041868016 0.4937267 0.029018981 -0.386309 0.040854547 -0.25198445 0.016781876 0.36809006
-0.096977994 -0.088747695 -0.07366284 -0.4536931 -0.18840355 -0.22594747 -0.1947878 -0.17082818
0.4037759 0.46467108 -0.19880404 0.34890303 0.43172133 0.024472922 0.64155614 0.35527048
-0.2907662 -0.019068023 0.0058065453 -0.26605383 0.058705445 0.23492722 0.14203712 -0.41568395
00000000: 66ae 0cbe 5f5b 7a3d 6de2 b8bd 0a45 e93b
00000010: 8106 333d e442 f43c 2496 053b dc35 0bbe
00000020: bc03 4bbe 01c6 d1bd 69c7 403e 0b27 393e
00000030: 1cb0 08bd 7ab0 d53c 2e66 e73d daaa b03c
00000040: 2437 50be cc28 c0bb 2b8d 00be db5d 923e
00000050: 0645 8d3e d258 36be d7a4 343f 4b15 903d
00000060: 0247 f4bd 1263 81be b593 843e 4104 24be
00000070: d139 b23c bb26 d83d ef72 6cbc 0f2b 4cbc
00000080: 56b0 27be d55e a93b 8e36 c0bd e0c2 d6be
00000090: db77 5a3e 794a 1d3e acbb 803e b2b8 eb3a
000000a0: 3c02 c53e e8bf 883d 5f23 3f3c efa3 96be
000000b0: 74f6 c53d 013a d0be 5061 51be 4132 f53d
000000c0: 5464 17bf db88 ce3c 9c77 2c3e 8c85 de3d
000000d0: a964 1cbe 232d 10be b86c b23e e1c4 69be
000000e0: ae2b af3e ff1f 153f 686f 0bbe 3ad8 1f3e
000000f0: fde6 9fbe 4e20 6cbe 41db e03b 1323 a2bd
00000100: e91f 8abd 7eab a2bc 3983 663d d5bd a93d
00000110: 948e 6bbc ddd1 a23d d0f2 6b3d 10c0 e53d
00000120: a21b 38bd f250 483d f9f4 bbbc 6c63 8bbd
00000130: a2f4 38bd 4aa9 3cbd 11c4 633d 63d7 0e3d
00000140: be40 47bd 626d 3e3c 3fc0 90bd f421 c8bd
00000150: 363a 7cbd 689e 59bc 5b2e 5abd bd7c bebd
00000160: 8100 7d3d 3927 1cbd 5a37 d93d 2e5a f03c
00000170: 1d33 4e3d 2351 00be a48d b53a 8a1e 243d
00000180: ea0d 3ebd 332c adbc de8a a73d eab3 f0bd
00000190: 29e2 113d 8064 acbd d140 d3bd 3f8b f1bd
000001a0: d7b8 36be d37a 76be fe9c 76bd 1913 173e
000001b0: d7c5 15be 1dcb 993e c1dd 943d 0933 663d
000001c0: d053 393e c706 003e 9406 54bd eda7 5c3e
000001d0: 879e d53d bbe8 69be 7570 07bb 66c4 4bbc
000001e0: 09ff 7f3e 6579 2ebe ade2 413e 8edd 2bbe
000001f0: 777e ac3d 728b 8c3d bad5 f2bd 67ed 9b3e
00000200: 2228 5b3d e793 74bd c7ac ce3e 59b0 21be
00000210: 3be5 b63d 91ab 19be c264 003f 29ab e83e
00000220: 09b9 d2bd 1547 063e 81ce e13e 9817 a8be
00000230: e380 2b3d cd1e ffbd c4c3 d2bd 3471 a93d
00000240: 016a 49bc 00f2 3c3e 158c 6dbe b983 a7be
00000250: 1a45 f9bd c4e5 bdbd 94f3 9fbe 2e64 b63d
00000260: 2fef 1a3e fdc4 02bf 1c14 c0be 3f24 b83c
00000270: 068b 15bf 8a6d 78bd f9e4 433e 848c 113e
00000280: 42ee 903e 9ba4 a2be 6910 15be 58e1 9a3d
00000290: ee42 ab3d d798 50be 4aa4 f13d b275 f9bd
000002a0: 05af 7abe 245f 84be 4ba1 a33e 6047 513e
000002b0: 9f62 023d c069 353e 248a 283d 418e 29bc
000002c0: ec42 68ba 1a40 993d 7d57 4f3e 6c71 063d
000002d0: 026a 8e3d f6b9 12be 8303 a63e 7f80 ce3c
000002e0: ea2f 4a3d f512 c73e 4a53 75be 44f0 0b3e
000002f0: 7f70 f9bd be30 13be 31c1 acbb 7a73 c7be
00000300: 8236 30be 9da3 903d 1689 11be af7c 5b3d
00000310: b21d 353d 8734 693e 1963 0bbe 139d cdbd
00000320: adcb 063e ac84 483e eefe 97bc cf8a 6bbd
00000330: 42b3 82bd f3f3 a7be b1da f63d e97c d73d
00000340: 1b02 9cbe 18e2 89bc 3a20 1bbe 47ca ddbd
00000350: 9c31 3ebc 9828 57bc 8a14 463e 2ccb 8abd
00000360: f37d ab3d 17ab 1a3d 8559 2dbe 968b 4e3e
00000370: 5bcd 7d3e 3cd2 c33d 86c6 cd3d 167e 0abe
00000380: cc7d 2bbd bfc9 fc3e 37b9 ed3c 4bca c5be
00000390: 1957 273d 1b04 81be 257a 893c 4d76 bc3e
000003a0: 669c c6bd 5ac1 b5bd 8bdc 96bd 764a e8be
000003b0: dcec 40be c65e 67be 7476 47be 95ed 2ebe
000003c0: b7bb ce3e 5ee9 ed3e 4993 4bbe 6ba3 b23e
000003d0: 940a dd3e 707b c83c 063d 243f 03e6 b53e
000003e0: 4fdf 94be 8b34 9cbc d544 be3b 3538 88be
000003f0: 1f75 703d c390 703e 2e72 113e 87d4 d4be

tril f4 [8, 8]
1.0 0.0 0.0 0.0 0.0 0.0 0.0 0.0
1.0 1.0 0.0 0.0 0.0 0.0 0.0 0.0
1.0 1.0 1.0 0.0 0.0 0.0 0.0 0.0
1.0 1.0 1.0 1.0 0.0 0.0 0.0 0.0
1.0 1.0 1.0 1.0 1.0 0.0 0.0 0.0
1.0 1.0 1.0 1.0 1.0 1.0 0.0 0.0
1.0 1.0 1.0 1.0 1.0 1.0 1.0 0.0
1.0 1.0 1.0 1.0 1.0 1.0 1.0 1.0
00000000: 0000 803f 0000 0000 0000 0000 0000 0000
00000010: 0000 0000 0000 0000 0000 0000 0000 0000
00000020: 0000 803f 0000 803f 0000 0000 0000 0000
00000030: 0000 0000 0000 0000 0000 0000 0000 0000
00000040: 0000 803f 0000 803f 0000 803f 0000 0000
00000050: 0000 0000 0000 0000 0000 0000 0000 0000
00000060: 0000 803f 0000 803f 0000 803f 0000 803f
00000070: 0000 0000 0000 0000 0000 0000 0000 0000
00000080: 0000 803f 0000 803f 0000 803f 0000 803f
00000090: 0000 803f 0000 0000 0000 0000 0000 0000
000000a0: 0000 803f 0000 803f 0000 803f 0000 803f
000000b0: 0000 803f 0000 803f 0000 0000 0000 0000
000000c0: 0000 803f 0000 803f 0000 803f 0000 803f
000000d0: 0000 803f 0000 803f 0000 803f 0000 0000
000000e0: 0000 803f 0000 803f 0000 803f 0000 803f
000000f0: 0000 803f 0000 803f 0000 803f 0000 803f

weight f4 [8, 32]
-0.983133 0.12408334 1.0311099 -0.23218185 1.3078315 -0.50084865 0.21461178 -0.14142011
0.2418356 -0.26591867 0.49590236 -0.15534262 -0.83783513 0.57116103 -1.4607954 -0.36619607
-0.49639222 -0.4720954 0.95891863 0.6381488 0.45693287 0.16133514 0.37361524 -0.2785553
-0.33999348 -0.33654067 0.25026813 -0.08614141 0.18217392 -1.2542772 -0.7095227 0.6748845
0.20623493 -0.1860186 0.6574374 0.5146924 -0.91535217 0.4117334 -0.41858014 0.06530951
0.41398653 0.12801503 -1.571118 0.57455415 -0.030103778 -0.84169936 0.48162857 0.79015845
0.39621583 0.21700135 0.34718546 -0.24236457 0.7346053 0.97993916 -1.0143387 0.61425
0.18502182 -0.5104162 -0.09268224 -1.266655 -0.30892885 -0.7757485 0.09624624 -0.3899996
0.60993636 0.7638593 0.45250115 0.39678368 -0.5369536 -0.3186748 0.7965369 0.6508212
-0.86392707 0.662852 0.33944046 0.7310667 -1.0461233 -0.5129991 -0.18958808 -0.124646105
1.1703393 -0.8337578 -0.55614585 0.025244221 -0.2715424 0.6771991 -0.6022341 0.6241659
0.94863784 -0.10593709 -0.934136 -0.7920531 -0.6164431 -0.35113797 0.4997651 -1.0918328
0.31266138 -0.0044964077 -0.7335974 -0.96782947 0.7125579 1.5427744 -0.575043 0.7243758
0.008427521 -0.6025808 -1.2178626 0.22374713 -0.077856116 0.71549064 -0.48547822 -0.5689715
0.55673194 1.1836666 0.47070253 -0.5059316 0.03736072 0.026465524 -0.24839503 0.44917116
0.16590008 -1.07303 -0.27110597 -0.0116034085 -0.60235775 -0.72048044 -0.17568037 0.8881924
0.43675417 -0.84072274 0.5530204 -0.11971202 -0.0442744 -0.24515781 -0.10965982 1.0221468
0.12987438 -1.1609803 0.11753688 -0.41462708 0.19119969 0.8500607 0.4644694 -0.36092153
0.2494062 1.9363488 -0.27582693 -0.20173359 0.050500475 0.3883329 -0.5338722 1.0327296
0.020503579 0.014482433 0.35057306 0.10179718 -0.37001058 0.2035048 -0.9184915 -1.2257013
0.40207246 0.71175176 -0.15343934 -0.41122684 0.29661933 0.77990997 -0.37255767 -0.5001111
0.7607241 -0.77686346 0.80808514 1.2207993 -0.49401188 -0.31740358 0.24082012 -0.66649544
-0.7583188 0.9484044 -0.4838768 -0.884439 0.15095736 0.28915697 -0.78255785 -0.10791858
0.58163416 0.49334204 0.4397364 -0.21804215 -0.041607868 -0.10691337 -0.2736204 -0.4523324
0.09407477 -1.1344677 0.21164092 -0.9001541 -0.84482354 -0.14085668 -0.4147352 -0.091687545
0.79020065 0.97322524 0.15645811 0.5693751 0.92709255 -0.6305057 0.57280684 0.17499144
-1.1334544 0.06332147 -0.269693 0.17342632 -0.6739901 0.9367359 -1.517157 0.5275394
0.51482475 0.37553307 0.9289417 -0.043792285 -0.16865532 -0.6623158 0.40252468 0.6381703
-0.19696097 0.112608 -0.3158388 -1.0835727 0.5014606 0.13010663 0.47990343 -0.9405174
-0.6860651 -0.6211011 0.019938657 0.99345315 1.4139919 -1.5318472 0.5537779 -0.5329216
-0.17670259 0.48017445 0.6065585 -0.8500823 0.17631383 -0.13499829 0.40508908 0.87276435
-0.15043512 -0.46867442 -0.20542307 0.06488983 0.61068475 -0.1914382 -1.1772505 1.286025
00000000: 9bae 7bbf 681f fe3d 69fb 833f 14c1 6dbe
00000010: 0667 a73f 9e37 00bf 31c3 5b3e 6fd0 10be
00000020: c0a3 773e 7e26 88be eae6 fd3e 2312 1fbe
00000030: 5d7c 56bf 9c37 123f 58fb babf 0d7e bbbe
00000040: 1f27 febe 7db6 f1be b17b 753f b85d 233f
00000050: 1bf3 e93e 0a35 253e 7f4a bf3e cd9e 8ebe
00000060: a013 aebe 0f4f acbe 2523 803e e86a b0bd
00000070: cd8b 3a3e 288c a0bf 48a3 35bf 3bc5 2c3f
00000080: 402f 533e a97b 3ebe d14d 283f e2c2 033f
00000090: 8554 6abf b8ce d23e 2350 d6be fec0 853d
000000a0: 0bf6 d33e 5f16 033e 651a c9bf fb15 133f
000000b0: 339c f6bc 9c79 57bf 0598 f63e d347 4a3f
000000c0: cddc ca3e 9a35 5e3e 4bc2 b13e 6b2e 78be
000000d0: 180f 3c3f 4bdd 7a3f dad5 81bf 7d3f 1d3f
000000e0: 5c76 3d3e a3aa 02bf 30d0 bdbd c021 a2bf
000000f0: ec2b 9ebe 7497 46bf c01c c53d 07ae c7be
00000100: ca24 1c3f 488c 433f 3bae e73e 3b27 cb3e
00000110: cb75 09bf 5829 a3be d8e9 4b3f 389c 263f
00000120: 532a 5dbf abb0 293f 24cb ad3e 3027 3b3f
00000130: 5ee7 85bf e953 03bf 6123 42be 7546 ffbd
00000140: aecd 953f 2771 55bf 935f 0ebf f8cc ce3c
00000150: 9b07 8bbe ec5c 2d3f 042c 1abf 56c9 1f3f
00000160: eed9 723f 8cf5 d8bd 8923 6fbf fec3 4abf
00000170: 37cf 1dbf 5bc8 b3be 36e1 ff3e 2dc1 8bbf
00000180: 2715 a03e 9a56 93bb 0acd 3bbf acc3 77bf
00000190: 326a 363f a279 c53f 0536 13bf b170 393f
000001a0: 9613 0a3c bc42 1abf ece2 9bbf f81d 653e
000001b0: 0773 9fbd 652a 373f 9a90 f8be 1ea8 11bf
000001c0: fc85 0e3f 6382 973f ecff f03e bc84 01bf
000001d0: 8e07 193d 3ace d83c 445b 7ebe c3f9 e53e
000001e0: b6e1 293e 0c59 89bf 67ce 8abe 391c 3ebc
000001f0: 1e34 1abf 6871 38bf 8ee5 33be 9460 633f
00000200: 3e9e df3e 9b39 57bf bf92 0d3f 932b f5bd
00000210: 1359 35bd a60a 7bbe 5495 e0bd b5d5 823f
00000220: cafd 043e 019b 94bf 2db7 f03d 004a d4be
00000230: dac9 433e 949d 593f efce ed3e b5ca b8be
00000240: 5764 7f3e 47da f73f 3039 8dbe 4093 4ebe
00000250: 96d9 4e3d 92d3 c63e d9ab 08bf 7c30 843f
00000260: 1ff7 a73c ba47 6d3c 507e b33e 0a7b d03d
00000270: 0772 bdbe 9063 503e 4222 6bbf c8e3 9cbf
00000280: 71dc cd3e 5d35 363f 341f 1dbe 538c d2be
00000290: 7dde 973e 2ea8 473f e1bf bebe 4807 00bf
000002a0: d1be 423f 86e0 46bf abde 4e3f 2743 9c3f
000002b0: 20ef fcbe b982 a2be 8d99 763e 729f 2abf
000002c0: 2e21 42bf a1ca 723f b3be f7be 986a 62bf
000002d0: 9194 1a3e 620c 943e b655 48bf 6b04 ddbd
000002e0: fae5 143f 5497 fc3e 2125 e13e 7146 5fbe
000002f0: 036d 2abd 66f5 dabd f917 8cbe 1d98 e7be
00000300: 46aa c03d 3d36 91bf 66b8 583e 8070 66bf
00000310: 5b46 58bf bc3c 10be 2c58 d4be aec6 bbbd
00000320: 974a 4a3f 4a25 793f 8e36 203e 91c2 113f
00000330: f055 6d3f d268 21bf 78a3 123f f530 333e
00000340: 0915 91bf b0ae 813d 3315 8abe ab96 313e
00000350: 9d8a 2cbf edcd 6f3f 3332 c2bf d20c 073f
00000360: 8ecb 033f df45 c03e 20cf 6d3f 8a5f 33bd
00000370: fbb3 2cbe 878d 29bf b717 ce3e 215f 233f
00000380: 23b0 49be 069f e63d a0b5 a1be 83b2 8abf
00000390: b95f 003f ac3a 053e e7b5 f53e c0c5 70bf
000003a0: f6a1 2fbf 7b00 1fbf 6556 a33c f252 7e3f
000003b0: b0fd b43f 9213 c4bf 63c4 0d3f 8d6d 08bf
000003c0: 86f1 34be 6dd9 f53e 6b47 1b3f fe9e 59bf
000003d0: 9d8b 343e fe3c 0abe d667 cf3e 7c6d 5f3f
000003e0: aa0b 1abe 18f6 efbe 6d5a 52be f6e4 843d
000003f0: d655 1c3f 6008 44be 25b0 96bf 789c a43f

weight f4 [8, 32]
0.25289828 0.13592122 -0.7733973 0.68838453 -1.2906141 0.5244064 0.790513 -0.8348124
-0.42296967 0.69455767 -0.053498507 -0.5097585 0.8623223 -0.25492054 -0.6025018 0.6254249
0.9704729 -0.4077185 -0.009663496 -1.2947782 0.25411376 -0.90653735 0.65207016 -0.05141042
0.0764251 -0.09721707 -0.70389616 0.010781259 -0.31459847 0.98325354 0.5833163 -0.32723197
0.23679875 0.067671284 -0.6573805 -0.25339317 -0.037479408 0.25317198 -0.12982756 -0.2647485
-0.52021295 -0.14407173 1.4588965 -0.15804291 0.036420863 0.1695623 0.5603356 -1.6660603
0.5963314 0.48618373 -1.5714175 0.4311376 -0.33573702 0.48779553 -0.16727075 -0.3191007
0.6319715 0.83743423 -0.19081976 1.0283872 0.30865973 0.48771116 -1.0476023 -0.30315903
-0.9180608 -1.511922 1.2331716 0.011774979 0.0421411 0.26850802 0.030865453 -1.0329094
0.5235695 0.1668076 0.09840159 -0.53906566 0.0875558 0.49960482 -0.27618253 -0.59609467
-0.010647293 -0.33637092 0.0016460208 0.87138635 0.41673353 0.78318614 0.74461937 -0.894484
0.6862154 0.48375973 -0.46464762 0.94941086 0.3420973 0.8929922 -1.3447087 -0.7479504
0.39076883 0.6702499 -0.3514488 1.0825979 -1.5075725 0.17962323 -0.32764167 -0.018001346
0.16091709 0.33721 0.36484265 0.29813665 0.43384108 -0.31428877 -0.61581624 0.66033554
-0.09373712 0.26504317 -0.53880996 0.823103 -1.7584916 0.77625555 0.1537869 -0.18040754
-0.078351036 0.8028796 -0.3323227 -0.4282376 0.3273466 -0.9107712 0.3775349 -0.04438349
-0.4215819 0.0034416101 -0.03994267 0.740636 -0.16937062 0.7431838 -0.25378472 0.45260218
0.13779424 -0.5720027 0.026488317 -0.44946867 0.27279028 0.17574638 1.7846287 -0.17858243
-0.9208897 0.39591697 0.5987641 -0.2791955 -1.375163 0.67761934 0.2158581 -0.96119714
-0.31030187 -1.0785272 0.054807916 -0.104770906 -0.61480284 1.0656503 0.77265894 -0.23097357
0.45366773 -0.89472866 0.51585764 0.5773674 0.26265293 -0.06306047 -0.11701228 0.7531855
-0.61735255 -0.26160526 -0.9774558 -1.2847981 0.5602252 0.3651158 0.3870166 0.413525
0.03053196 1.3399311 -0.2855697 0.26422495 -0.17324269 0.17856118 0.15151101 0.99525434
-0.7160046 -0.61662424 0.6326289 0.30239034 -0.13649917 -0.16941237 -0.25585225 -0.8061651
0.4401034 -0.14835581 -0.36681283 0.5905132 0.57756007 0.5633342 -0.7805096 1.2992536
-0.15231465 -0.04261516 -1.057106 -0.21172062 -0.71632 -0.22443305 0.84636676 -1.1337653
0.2174944 0.11677759 -1.4631889 0.64602154 0.746074 -0.67221487 0.2588872 0.26338285
-0.32322383 1.09246 -0.9196466 1.181622 -0.5807624 -0.06857845 -0.11079088 0.19450353
1.054649 -1.0494134 -0.5723987 0.59244114 -0.7761962 0.6058339 -0.16954884 1.4049963
0.60146177 -0.504577 0.5798202 -0.64559406 -1.1675924 0.7433558 -0.6837323 0.45033398
-0.40723836 0.9083759 -0.3433998 0.15032719 0.41620317 -0.21141404 -1.4455487 0.47493333
0.52790743 -0.5428362 -0.21191199 -0.067609526 0.6839934 -0.7487622 0.7987579 -0.6314044
00000000: e27b 813e ef2e 0b3e 5efd 45bf f839 303f
00000010: d832 a5bf 7f3f 063f 0f5f 4a3f 44b6 55bf
00000020: 7b8f d8be 88ce 313f 4021 5bbd 887f 02bf
00000030: 27c1 5c3f f284 82be 8f3d 1abf d91b 203f
00000040: e970 783f 7bc0 d0be a453 1ebc 4bbb a5bf
00000050: 331b 823e d512 68bf 12ee 263f bc93 52bd
00000060: c384 9c3d be19 c7bd 8a32 34bf e1a3 303c
00000070: 0d13 a1be 81b6 7b3f 3854 153f f38a a7be
00000080: 5f7b 723e 3e97 8a3d 174a 28bf c0bc 81be
00000090: 0284 19bd c29f 813e 84f1 04be 1e8d 87be
000000a0: ad2c 05bf 8a87 13be 1fbd ba3f 00d6 21be
000000b0: 0b2e 153d bda1 2d3e 2772 0f3f 7741 d5bf
000000c0: 2da9 183f 13ed f83e 3524 c9bf 11be dc3e
000000d0: b9e5 abbe 56c0 f93e 0649 2bbe 2b61 a3be
000000e0: e2c8 213f 1762 563f 4166 43be 31a2 833f
000000f0: a608 9e3e 47b5 f93e d517 86bf a937 9bbe
00000100: 0806 6bbf a986 c1bf 91d8 9d3f d7eb 403c
00000110: 259c 2c3d e279 893e 8cd9 fc3c 6036 84bf
00000120: a708 063f 9dcf 2a3e c686 c93d 3500 0abf
00000130: 7550 b33d 34cc ff3e cc67 8dbe a999 18bf
00000140: fc71 2ebc cf38 acbe 4bbf d73a 2d13 5f3f
00000150: 195e d53e e37e 483f 609f 3e3f e7fc 64bf
00000160: d0ab 2f3f 5baf f73e 4be6 edbe 970c 733f
00000170: 6127 af3e 239b 643f 6a1f acbf ad79 3fbf
00000180: da12 c83e 7f95 2b3f 19f1 b3be 9192 8a3f
00000190: 23f8 c0bf 27ef 373e a6c0 a7be 8f77 93bc
000001a0: 73c7 243e caa6 ac3e a8cc ba3e 5ea5 983e
000001b0: 6b20 de3e 75ea a0be 22a6 1dbf c00b 293f
000001c0: 3ff9 bfbd bdb3 873e 73ef 09bf e1b6 523f
000001d0: 4116 e1bf afb8 463f 507a 1d3e c1bc 38be
000001e0: 8276 a0bd 8489 4d3f 3326 aabe f541 dbbe
000001f0: f999 a73e 4d28 69bf 414c c13e 76cb 35bd
00000200: 95d9 d7be a38c 613b ed9a 23bd 529a 3d3f
00000210: 7e6f 2dbe 4b41 3e3f 12f0 81be 79bb e73e
00000220: ef19 0d3e c56e 12bf 07fe d83c c220 e6be
00000230: 2bab 8b3e dcf6 333e b76e e43f 50de 36be
00000240: 6dbf 6bbf a1b5 ca3e 9b48 193f b6f2 8ebe
00000250: 5705 b0bf 7678 2d3f e809 5d3e 0411 76bf
00000260: e3df 9ebe 2e0d 8abf 447e 603d 2192 d6bd
00000270: b863 1dbf 3b67 883f facc 453f 5684 6cbe
00000280: 2347 e83e f00c 65bf 3f0f 043f 5ace 133f
00000290: 727a 863e d925 81bd 22a4 efbd c4d0 403f
000002a0: d10a 1ebf 20f1 85be 8b3a 7abf 4474 a4bf
000002b0: eb6a 0f3f 75f0 ba3e 0a27 c63e 8cb9 d33e
000002c0: 291e fa3c dd82 ab3f 3136 92be 7e48 873e
000002d0: 8866 31be bed8 363e b425 1b3e fdc8 7e3f
000002e0: 144c 37bf 16db 1dbf f8f3 213f e8d2 9a3e
000002f0: 70c6 0bbe 707a 2dbe 11ff 82be d660 4ebf
00000300: 3c55 e13e 96ea 17be e4ce bbbe e02b 173f
00000310: fada 133f ac36 103f 7acf 47bf f14d a63f
00000320: 5ff8 1bbe 3c8d 2ebd 404f 87bf 4acd 58be
00000330: bf60 37bf c7d1 65be 7eab 583f 391f 91bf
00000340: dab6 5e3e 1729 ef3d c649 bbbf ab61 253f
00000350: b5fe 3e3f 4616 2cbf dd8c 843e 1eda 863e
00000360: 987d a5be bbd5 8b3f f66d 6bbf 643f 973f
00000370: d8ac 14bf dc72 8cbd 54e6 e2bd ef2b 473e
00000380: bdfe 863f 2e53 86bf b988 12bf 39aa 173f
00000390: cbb4 46bf ee17 1b3f 369e 2dbe ebd6 b33f
000003a0: 66f9 193f f52b 01bf 196f 143f a745 25bf
000003b0: ab73 95bf 914c 3e3f 1409 2fbf 2d92 e63e
000003c0: 8c81 d0be 538b 683f 19d2 afbe 5fef 193e
000003d0: 9518 d53e ec7c 58be bd07 b9bf 762a f33e
000003e0: f124 073f 50f7 0abf 75ff 58be dd76 8abd
000003f0: 311a 2f3f e1ae 3fbf 667b 4c3f b8a3 21bf
