model_v2.pth (torch, 338746 bytes, 124 tensors)

weight f4 [65, 32]
0.68003625 -0.44143167 0.050693974 -1.959656 -0.06850383 0.17472152 1.0835171 -0.72857577
0.011476559 -0.124699816 -0.5372122 -0.47074324 0.1686812 -0.48417193 -0.92951137 0.3394928
1.0398862 -0.2319983 -0.011608908 0.45120865 -2.3638933 1.5678544 2.5581193 -0.6181978
0.087531194 -0.81329423 -0.5906433 -0.67122895 0.80862886 -0.3465506 1.4752438 1.1981311
-0.5017648 -0.28659862 0.49907815 -0.6785473 -0.1752229 1.9250863 -0.55018437 -0.3132953
-0.3769494 -0.68732595 1.3867437 -1.4643836 -0.685152 0.9194249 -1.1901588 -0.62264866
1.3705711 -0.85736006 0.99892294 -0.24638335 -1.1933595 1.2429546 3.1694458 -1.6083473
0.98661625 -1.4446827 0.13158073 -0.5089592 0.40994766 0.7526236 1.3169836 0.24004962
0.4804618 0.250609 1.6465099 1.3298346 0.33670896 -0.44847867 1.1498775 0.7427078
-0.3656949 -1.5030077 0.36987448 0.17107302 -0.57259816 -0.06882679 -0.026392186 -1.0644373
1.3030778 -1.4138105 -0.14035787 0.8127757 -0.5268639 -0.15223022 -0.49941635 0.17933132
0.4052415 0.04057288 -1.0992336 -1.5422494 0.8199882 0.31926036 0.15418589 -1.0808654
-1.0109392 -0.8279124 -0.10038458 0.5835717 0.019133292 -0.44993713 -0.18059906 0.0104103815
-0.107480004 -0.08092036 0.17827494 0.8399267 0.07332939 1.5415052 -0.3884164 -1.1971675
-0.19987218 0.004826768 0.56172925 -1.1429176 0.101256385 0.27813855 -1.0711415 0.35538027
1.0619401 0.17024814 0.18858834 -0.3964815 -0.3988274 0.19312851 -0.33330512 -0.8884247
-0.8271905 0.751768 0.4477081 -0.63339454 1.2258664 1.3622017 0.5835168 -1.3465315
-0.851016 0.46140793 -0.024366321 1.1852747 0.5490441 -0.9992161 -0.42030835 -0.1326642
2.0434842 -0.30084556 -0.82953507 -0.42868376 -0.05965209 -0.28066507 0.41123056 -0.17099017
-1.0773699 0.46217653 0.62792075 -0.20346072 -0.07718619 -0.82328266 1.593991 -0.6440583
-0.3142133 -0.46727115 0.5151856 0.78848207 -2.699791 1.3891858 1.1021193 0.61688566
0.68604875 1.553298 0.42828584 1.1097741 0.4702909 -0.2674324 -1.6767616 -0.6632259
0.8256776 -1.4230833 0.10971194 0.6241147 0.8495636 1.8417271 -0.06811624 -0.19562611
0.34376475 1.6543651 0.40205234 -1.1540352 0.68051034 1.6297512 -0.80229384 0.3068245
0.4088178 -0.5684069 1.6231709 2.4737823 -0.3617086 -1.074703 0.77337706 -0.27876252
-0.81323546 -2.406704 1.3329738 0.0031906022 0.078006506 -0.4187849 -0.0693585 0.441239
0.22392277 -2.0133288 -0.07484047 -0.8381953 -0.4446645 -0.048294205 -0.5580738 1.0269072
0.051028185 1.8682989 0.15111423 -0.110078 0.31773284 0.25849563 0.04558139 -1.1478201
-1.2148772 -0.24918723 1.1558638 0.8907368 0.21247067 0.5509569 -0.7099985 -0.44319892
0.903195 -2.074642 0.19699739 -0.8113551 -1.3848206 0.71732587 -0.8874469 -1.3633877
2.9131403 -1.6296123 -0.5686775 -0.0955551 -1.3880044 0.41615152 2.06883 -1.702328
-1.464448 -0.4825575 -0.9618707 -1.6248124 2.4734068 1.1033571 -0.12135951 -0.09393362
00000000: db16 2e3f 5503 e2be 7ca4 4f3d 02d6 fabf
00000010: bc4b 8cbd 33ea 323e b0b0 8a3f f183 3abf
00000020: 2d08 3c3c 9e62 ffbd bd86 09bf 4205 f1be
00000030: c4ba 2c3e 62e5 f7be 75f4 6dbf 00d2 ad3e
00000040: fe1a 853f f690 6dbe 4a33 3ebc d204 e73e
00000050: 074a 17c0 74af c83f 3ab8 2340 3642 1ebf
00000060: 8e43 b33d 0d34 50bf 6634 17bf a9d5 2bbf
00000070: 4d02 4f3f 156f b1be cad4 bc3f 5c5c 993f
00000080: a873 00bf 0ebd 92be 2c87 ff3e 47b5 2dbf
00000090: a26d 33be 3a69 f63f e2d8 0cbf 3e68 a0be
000000a0: 83ff c0be 98f4 2fbf d180 b13f ec70 bbbf
000000b0: 1f66 2fbf 6e5f 6b3f 2057 98bf e765 1fbf
000000c0: e06e af3f f37b 5bbf 6ab9 7f3f eb4b 7cbe
000000d0: 01c0 98bf 2319 9f3f 33d8 4a40 53de cdbf
000000e0: e292 7c3f 5deb b8bf 19bd 063e 264b 02bf
000000f0: a9e4 d13e f1ab 403f eb92 a83f 91cf 753e
00000100: 17ff f53e d34f 803e d6c0 d23f 0538 aa3f
00000110: 1e65 ac3e ff9e e5be 302f 933f 1922 3e3f
00000120: 5d3c bbbe 8e62 c0bf 3060 bd3e c42d 2f3e
00000130: cb95 12bf 0ff5 8cbd 6d34 d8bc 7b3f 88bf
00000140: 41cb a63f bef7 b4bf f9b9 0fbe 1112 503f
00000150: 8de0 06bf 3de2 1bbe 80b3 ffbe a1a2 373e
00000160: d07b cf3e c02f 263d b0b3 8cbf 6e68 c5bf
00000170: bfea 513f 1876 a33e e8e2 1d3e cc59 8abf
00000180: 7566 81bf 11f2 53bf 6e96 cdbd f464 153f
00000190: 6cbd 9c3c 295e e6be f6ee 38be 4e90 2a3c
000001a0: 7a1e dcbd 93b9 a5bd b58d 363e 7005 573f
000001b0: b82d 963d 0b50 c53f 84de c6be c93c 99bf
000001c0: 4bab 4cbe dd29 9e3b 7dcd 0f3f 204b 92bf
000001d0: 825f cf3d 2d68 8e3e 2a1b 89bf 67f4 b53e
000001e0: a7ed 873f 8755 2e3e 4d1d 413e a0ff cabe
000001f0: 1b33 ccbe 7bc3 453e f8a6 aabe cd6f 63bf
00000200: c2c2 53bf de73 403f ff39 e53e 2526 22bf
00000210: 31e9 9c3f a05c ae3f 5b61 153f 255b acbf
00000220: 2fdc 59bf a93d ec3e e19b c7bc 15b7 973f
00000230: 278e 0c3f a0cc 7fbf a832 d7be 20d9 07be
00000240: 72c8 0240 6e08 9abe 695c 54bf 707c dbbe
00000250: c055 74bd 55b3 8fbe d08c d23e 0c18 2fbe
00000260: 42e7 89bf 67a2 ec3e 6abf 203f 0258 50be
00000270: cb13 9ebd a7c2 52bf e607 cc3f 01e1 24bf
00000280: 91e0 a0be 2a3e efbe 34e3 033f f6d9 493f
00000290: 60c9 2cc0 d7d0 b13f 3f12 8d3f 38ec 1d3f
000002a0: e4a0 2f3f 78d2 c63f 4848 db3e 140d 8e3f
000002b0: f8c9 f03e e6ec 88be 20a0 d6bf 2cc9 29bf
000002c0: 9b5f 533f 9827 b6bf a7b0 e03d fbc5 1f3f
000002d0: 007d 593f b7bd eb3f 8780 8bbd 3652 48be
000002e0: ef01 b03e 3cc2 d33f ced9 cd3e 6db7 93bf
000002f0: ed35 2e3f b09b d03f 2163 4dbf 1a18 9d3e
00000300: 9150 d13e 1d83 11bf 10c4 cf3f 7352 1e40
00000310: df31 b9be de8f 89bf 0afc 453f f6b9 8ebe
00000320: 3330 50bf 7007 1ac0 e39e aa3f 6c19 513b
00000330: e0c1 9f3d f96a d6be d40b 8ebd 14ea e13e
00000340: 034c 653e 61da 00c0 f645 99bd f893 56bf
00000350: 11ab e3be 25d0 45bd eddd 0ebf b271 833f
00000360: ee02 513d 6b24 ef3f b0bd 1a3e 9370 e1bd
00000370: e1ad a23e 8a59 843e 8db3 3a3d c5eb 92bf
00000380: 1981 9bbf f02a 7fbe 58f3 933f 5407 643f
00000390: e991 593e 830b 0d3f 76c2 35bf f8ea e2be
000003a0: ca37 673f efc6 04c0 afb9 493e f8b4 4fbf
000003b0: cd41 b1bf aba2 373f b82f 63bf 7d83 aebf
000003c0: e470 3a40 2397 d0bf d994 11bf 64b2 c3bd
000003d0: 21aa b1bf d011 d53e b667 0440 e2e5 d9bf
000003e0: 0873 bbbf c711 f7be 283d 76bf daf9 cfbf
000003f0: 4c4c 1e40 ce3a 8d3f 568b f8bd 4560 c0bd

weight f4 [8, 32]
0.3341726 0.26583803 0.02766364 -0.6394439 -1.8112283 1.2255445 -0.89031655 -0.3689921
-0.25496516 -2.1740265 2.4996173 0.7289873 -0.20044084 -0.2364739 1.3965213 -0.79743093
-0.3317369 2.034233 0.36824274 -0.37999433 -0.5225103 0.7121548 -0.373139 -0.54020345
-0.5101586 0.16652793 0.033406857 0.4631423 0.51713705 0.60448766 0.2737626 -0.9102431
-0.26240316 -0.7768236 0.5252203 -0.1401531 -0.3797254 -0.21432146 -0.704276 0.036702204
1.0116715 -1.3300525 1.0506504 -0.006833773 -0.7068133 -0.2959697 0.29928687 -0.39997834
-0.21172172 0.584857 0.5199452 -0.79045695 -0.1484337 0.46908492 0.59453684 0.69398385
0.22471406 0.23854524 0.7819214 -0.30040506 -0.35774937 0.3582418 -0.36563113 0.23680255
0.43685004 -1.1193463 0.50596523 -0.1750302 -0.83181304 0.08605058 0.13650115 0.4410722
-0.17792559 -1.4277176 0.18195702 -0.37159932 0.33151472 0.44579056 0.47703946 0.21182464
-0.026551338 0.20496497 0.5146017 0.06482096 0.90876913 -0.1554113 0.8778973 0.024791056
-0.723892 -0.49108952 0.24172983 0.48139706 -0.04932958 0.43077588 -0.06491792 0.22604108
-0.08647693 -0.32290167 -0.8806659 0.19561373 -0.4171721 -0.08851674 0.44920078 -0.17979546
-0.32957476 -0.58992904 0.5477952 -0.3647242 0.4830823 0.29401034 0.91055906 0.07373107
0.91879666 -0.26500192 -0.2709719 -0.3057105 -0.08920302 -0.5429113 0.48630998 -0.12011665
0.41335824 -0.17827632 -0.4212453 0.23074535 -0.15635242 0.7544421 -0.044874866 0.33174747
-0.072752684 1.1900816 -0.4478923 -0.34202486 0.11961662 -0.1202193 1.1889746 -0.23653404
0.12777378 -0.480346 1.0072628 0.46519834 -0.6654002 0.52518916 0.76290274 -0.65709823
0.2763089 -0.30678132 0.1819472 -0.5196919 -0.49939752 -0.38070402 0.060069967 -0.568266
0.462503 0.35132372 0.08462006 -0.031764463 -0.4418278 0.30631965 0.36047676 0.42719188
-0.17379065 0.74144477 1.1149716 -0.06626509 0.40129864 -0.40563053 0.5907608 -0.185466
0.15871578 -0.61933625 0.6863128 0.6948198 -0.99609774 0.875089 -0.6596572 -0.36989793
-0.40987316 -0.3477274 0.8384743 0.38859028 -0.087496415 0.2908354 -0.40850756 -0.29627594
0.22942221 -0.24678439 0.6742365 -0.01160015 0.009690927 -0.18063584 0.054662302 0.66629225
-0.22886242 -0.43016538 1.0658299 0.7560172 0.22728798 -0.34117028 0.29802796 -0.12972778
-0.51738846 -0.2871722 -0.32361907 -0.037709676 0.02001357 1.021554 -1.2770262 0.3739109
0.14850403 0.0031370819 0.42205858 0.9284082 0.4901934 -0.081612594 -0.04086697 -0.056922235
0.35006163 -0.97892547 0.059296645 0.31803632 0.33150658 0.0076563247 -0.0057598036 0.65898025
-0.3581566 0.39409485 -0.12642884 0.7705213 0.05123801 0.0042104186 1.0386424 -0.614314
-0.5179988 0.03683578 -0.36389533 -0.4001515 0.65325934 1.0843793 -0.42759478 0.10710392
1.0084857 -0.50599474 -0.37367567 0.21162719 0.1276183 -0.87088674 -0.15610349 -0.31505942
0.59661794 -0.40219358 -0.5925426 0.26805633 -0.043855228 0.40729922 0.2610393 0.33994997
00000000: ac18 ab3e ec1b 883e dc9e e23c 98b2 23bf
00000010: 54d6 e7bf a4de 9c3f c9eb 63bf 88ec bcbe
00000020: cb8a 82be 4023 0bc0 bbf9 1f40 e99e 3a3f
00000030: 5d40 4dbe 3726 72be 36c1 b23f 6f24 4cbf
00000040: 6bd9 a9be e030 0240 508a bc3e 9e8e c2be
00000050: 3cc3 05bf c74f 363f 130c bfbe c64a 0abf
00000060: c199 02bf 4c86 2a3e a1d5 083d fd20 ed3e
00000070: 1863 043f b4bf 1a3f 9d2a 8c3e b105 69bf
00000080: b559 86be e9dd 46bf d674 063f 4b84 0fbe
00000090: 5e6b c2be 1677 5bbe 6f4b 34bf 0d55 163d
000000a0: 747e 813f 293f aabf b67b 863f d8ed dfbb
000000b0: b7f1 34bf 5789 97be 213c 993e f6c9 ccbe
000000c0: 94cd 58be 30b9 153f 211b 053f 635b 4abf
000000d0: 01ff 17be e62b f03e 9133 183f eda8 313f
000000e0: 711b 663e 3445 743e 002c 483f b1ce 99be
000000f0: ed2a b7be 786b b73e 0134 bbbe 5e7c 723e
00000100: cfaa df3e bd46 8fbf f086 013f 1e3b 33be
00000110: b3f1 54bf 493b b03d f5c6 0b3e 37d4 e13e
00000120: 2032 36be 73bf b6bf f152 3a3e 4442 bebe
00000130: 4cbc a93e a93e e43e 843e f43e 8fe8 583e
00000140: 3182 d9bc 56e2 513e f0bc 033f dac0 843d
00000150: 18a5 683f 2424 1fbe e1bd 603f 9d16 cb3c
00000160: fc50 39bf 1670 fbbe 0688 773e ad79 f63e
00000170: d00d 4abd a88e dc3e b0f3 84bd 5077 673e
00000180: d11a b1bd 5e53 a5be 5273 61bf f74e 483e
00000190: 9597 d5be 4448 b5bd a5fd e53e 4d1c 38be
000001a0: 06be a8be 9705 17bf 4e3c 0c3f 21bd babe
000001b0: 9056 f73e 8688 963e 661a 693f 5100 973d
000001c0: 4236 6b3f 55ae 87be d4bc 8abe 1686 9cbe
000001d0: 13b0 b6bd 3cfc 0abf 9ffd f83e b8ff f5bd
000001e0: b1a3 d33e 118e 36be 77ad d7be 8248 6c3e
000001f0: d91a 20be 1e23 413f b5ce 37bd ceda a93e
00000200: 5cff 94bd 9854 983f 2452 e5be e21d afbe
00000210: 8ff9 f43d 8935 f6bd 5230 983f fb35 72be
00000220: 21d7 023e e9ef f5be fded 803f 7a2e ee3e
00000230: ab57 2abf cc72 063f 984d 433f 9737 28bf
00000240: 5c78 8d3e 7112 9dbe 5e50 3a3e 870a 05bf
00000250: 08b1 ffbe a3eb c2be ed0b 763d e179 11bf
00000260: 31cd ec3e b4e0 b33e 484d ad3d 741b 02bd
00000270: 4137 e2be eed5 9c3e 6990 b83e e5b8 da3e
00000280: 2df6 31be 53cf 3d3f 64b7 8e3f feb5 87bd
00000290: 0477 cd3e ceae cfbe 1a3c 173f cdea 3dbe
000002a0: 6486 223e d28c 1ebf 32b2 2f3f b6df 313f
000002b0: 4300 7fbf d505 603f 4bdf 28bf 4363 bdbe
000002c0: e5da d1be 5309 b2be 40a6 563f 4ef5 c63e
000002d0: 5231 b3bd 61e8 943e e727 d1be 7bb1 97be
000002e0: a8ed 6a3e 0cb5 7cbe c39a 2c3f 8e0e 3ebc
000002f0: b2c6 1e3c 9af8 38be 94e5 5f3d 2192 2a3f
00000300: e95a 6abe a33e dcbe 1d6d 883f 588a 413f
00000310: 2ebe 683e dfad aebe 1f97 983e 5cd7 04be
00000320: 9273 04bf 3c08 93be 66b1 a5be 7675 1abd
00000330: 80f3 a33c 48c2 823f 9875 a3bf 4071 bf3e
00000340: 7111 183e 8097 4d3b 1018 d83e 29ac 6d3f
00000350: a1fa fa3e 8124 a7bd 2064 27bd 4a27 69bd
00000360: 473b b33e dc9a 7abf 0ae1 723d a8d5 a23e
00000370: 3bbb a93e e8e1 fa3b bcbc bcbb eeb2 283f
00000380: 4d60 b7be cdc6 c93e 9076 01be e240 453f
00000390: f3de 513d 8df7 893b 3cf2 843f af43 1dbf
000003a0: 929b 04bf 1de1 163d 7d50 babe a8e0 ccbe
000003b0: 013c 273f f1cc 8a3f b4ed dabe 4d59 db3d
000003c0: 0f16 813f df88 01bf 6b52 bfbe ccb4 583e
000003d0: 5fae 023e 6ff2 5ebf 98d9 1fbe 784f a1be
000003e0: f4bb 183f 51ec cdbe dfb0 17bf ae3e 893e
000003f0: 8aa1 33bd 8689 d03e f1a6 853e ec0d ae3e

tril f4 [8, 8]
1.0 0.0 0.0 0.0 0.0 0.0 0.0 0.0
1.0 1.0 0.0 0.0 0.0 0.0 0.0 0.0
1.0 1.0 1.0 0.0 0.0 0.0 0.0 0.0
1.0 1.0 1.0 1.0 0.0 0.0 0.0 0.0
1.0 1.0 1.0 1.0 1.0 0.0 0.0 0.0
1.0 1.0 1.0 1.0 1.0 1.0 0.0 0.0
1.0 1.0 1.0 1.0 1.0 1.0 1.0 0.0
1.0 1.0 1.0 1.0 1.0 1.0 1.0 1.0
00000000: 0000 803f 0000 0000 0000 0000 0000 0000
00000010: 0000 0000 0000 0000 0000 0000 0000 0000
00000020: 0000 803f 0000 803f 0000 0000 0000 0000
00000030: 0000 0000 0000 0000 0000 0000 0000 0000
00000040: 0000 803f 0000 803f 0000 803f 0000 0000
00000050: 0000 0000 0000 0000 0000 0000 0000 0000
00000060: 0000 803f 0000 803f 0000 803f 0000 803f
00000070: 0000 0000 0000 0000 0000 0000 0000 0000
00000080: 0000 803f 0000 803f 0000 803f 0000 803f
00000090: 0000 803f 0000 0000 0000 0000 0000 0000
000000a0: 0000 803f 0000 803f 0000 803f 0000 803f
000000b0: 0000 803f 0000 803f 0000 0000 0000 0000
000000c0: 0000 803f 0000 803f 0000 803f 0000 803f
000000d0: 0000 803f 0000 803f 0000 803f 0000 0000
000000e0: 0000 803f 0000 803f 0000 803f 0000 803f
000000f0: 0000 803f 0000 803f 0000 803f 0000 803f

tril f4 [8, 8]
1.0 0.0 0.0 0.0 0.0 0.0 0.0 0.0
1.0 1.0 0.0 0.0 0.0 0.0 0.0 0.0
1.0 1.0 1.0 0.0 0.0 0.0 0.0 0.0
1.0 1.0 1.0 1.0 0.0 0.0 0.0 0.0
1.0 1.0 1.0 1.0 1.0 0.0 0.0 0.0
1.0 1.0 1.0 1.0 1.0 1.0 0.0 0.0
1.0 1.0 1.0 1.0 1.0 1.0 1.0 0.0
1.0 1.0 1.0 1.0 1.0 1.0 1.0 1.0
00000000: 0000 803f 0000 0000 0000 0000 0000 0000
00000010: 0000 0000 0000 0000 0000 0000 0000 0000
00000020: 0000 803f 0000 803f 0000 0000 0000 0000
00000030: 0000 0000 0000 0000 0000 0000 0000 0000
00000040: 0000 803f 0000 803f 0000 803f 0000 0000
00000050: 0000 0000 0000 0000 0000 0000 0000 0000
00000060: 0000 803f 0000 803f 0000 803f 0000 803f
00000070: 0000 0000 0000 0000 0000 0000 0000 0000
00000080: 0000 803f 0000 803f 0000 803f 0000 803f
00000090: 0000 803f 0000 0000 0000 0000 0000 0000
000000a0: 0000 803f 0000 803f 0000 803f 0000 803f
000000b0: 0000 803f 0000 803f 0000 0000 0000 0000
000000c0: 0000 803f 0000 803f 0000 803f 0000 803f
000000d0: 0000 803f 0000 803f 0000 803f 0000 0000
000000e0: 0000 803f 0000 803f 0000 803f 0000 803f
000000f0: 0000 803f 0000 803f 0000 803f 0000 803f

weight f4 [8, 32]
-0.15787031 -0.11268902 0.0022960156 0.12482755 -0.017851427 0.1416146 0.056579992 0.03594643
0.0600788 0.022713035 0.062625006 -0.0905392 -0.04864745 -0.006434664 0.10046439 -0.16805942
0.1751179 -0.05875574 -0.013084978 0.11416261 -0.13173437 0.012175679 0.033424348 0.16789614
0.17257942 0.124200895 0.07039936 -0.012008712 -0.092670485 0.00040243566 -0.0021382421 0.10880424
-0.01058431 0.08056758 -0.1659893 -0.17308193 0.02971898 0.13464125 -0.08392253 -0.15424874
0.05283521 -0.08453771 0.06503537 0.08809991 -0.09275518 -0.06583068 0.10164864 0.039722264
-0.053984046 -0.08898608 -0.058707125 -0.052825384 -0.13215631 -0.15861829 0.013310373 0.09805776
0.08853258 -0.07377635 -0.03384778 0.15477507 -0.10097188 0.13301472 -0.16679178 -0.17182156
-0.06438199 -0.052771688 0.037565902 -0.04008037 -0.13895397 -0.008207694 0.042207435 0.11696307
-0.10024725 -0.1673137 0.020873547 -0.11857879 0.027235165 0.10066159 0.053604335 0.14559211
0.094827995 -0.11129965 -0.12512207 0.16321214 0.028680354 0.00908193 0.053145275 0.053722948
-0.06592867 0.00961037 0.12692307 0.095316395 0.08770637 -0.1050801 -0.03192386 -0.060519226
0.06425707 -0.095188506 0.06147571 0.034953475 -0.08493899 0.16697957 0.17219089 0.011190221
-0.06767205 -0.13953131 -0.05974324 -0.12603912 -0.04354538 -0.048339143 0.16443686 -0.029221699
-0.15822613 0.094218835 -0.08850202 -0.14795333 -0.13416718 0.098595664 -0.0915733 0.042391956
0.034190655 -0.16544753 0.08583604 -0.117802605 0.0016844422 0.15058412 -0.050207004 0.13491736
-0.10066977 -0.04581368 0.009559259 -0.019805312 0.1167319 0.043708593 0.15895899 -0.046632722
0.10339041 0.024524689 0.13686682 0.020736545 0.1682842 -0.009845525 0.015427709 -0.088285975
-0.15213764 -0.030625015 -0.007333994 -0.053188287 0.047609285 -0.099436656 0.012235984 0.10625656
0.04358323 0.04724419 -0.078665555 -0.08884372 0.15882619 0.12376024 -0.1205221 -0.03737168
0.1421249 0.1588177 -0.015565217 -0.10873484 -0.17312706 0.05806622 -0.088705584 0.09065582
-0.07604366 -0.106728315 -0.123761564 0.072503805 -0.104374096 0.10099186 -0.15759057 -0.044782326
-0.10942356 -0.038998753 -0.0037740618 0.06891364 -0.13931769 -0.041856244 0.11946027 0.0692191
-0.16360003 -0.07150147 0.05986844 -0.010292113 -0.078018665 0.12459202 -0.04205711 -0.07081604
-0.068925224 -0.11330698 -0.11800197 0.11680929 -0.17285952 0.04695964 -0.044013664 0.055494756
-0.041848496 0.14239328 -0.16853066 -0.10275281 0.0036239177 0.094497964 -0.04796587 0.16996299
0.13492604 0.034971222 -0.0068716705 -0.12114633 -0.020742297 0.15671296 -0.09009938 -0.13981107
0.057642207 -0.1223099 -0.04427649 0.001170814 0.093635336 0.09708886 0.00014835596 0.09873839
-0.11163288 -0.13203588 -0.11963983 -0.0576203 -0.07298483 0.08262296 0.06700942 0.05310914
0.03863749 -0.11693472 0.08751856 0.09757258 0.09973861 -0.15749483 0.091182604 -0.026726037
0.02898243 0.009811908 -0.089191094 0.1091512 0.13815759 -0.14600646 0.07213394 -0.0694045
-0.13120529 0.14438377 -0.09377235 0.122818634 -0.12444325 -0.031523004 -0.00034047663 -0.17237589
00000000: c1a8 21be 80c9 e6bd c078 163b 96a5 ff3d
00000010: 283d 92bc 6b03 113e 6cc0 673d 903c 133d
00000020: 3015 763d b010 ba3c 8a41 803d 9e6c b9bd
00000030: 8c42 47bd e0d9 d2bb 46c0 cd3d c517 2cbe
00000040: 1b52 333e dca9 70bd 6062 56bc 16ce e93d
00000050: 60e5 06be 807c 473c f8e7 083d f7ec 2b3e
00000060: a9b8 303e 0a5d fe3d 8a2d 903d 30c0 44bc
00000070: 06ca bdbd 00fe d239 c021 0cbb c2d4 de3d
00000080: d069 2dbc 9e00 a53d 19f9 29be 643c 31be
00000090: 3875 f33c 65df 093e 93df abbd 62f3 1dbe
000000a0: bc69 583d 1b22 adbd 4431 853d ba6d b43d
000000b0: 6ef6 bdbd 3cd2 86bd 2a2d d03d d0b3 223d
000000c0: 601e 5dbd 553e b6bd e276 70bd 6e5f 58bd
000000d0: fc53 07be d56c 22be c013 5a3c 82d2 c83d
000000e0: 9250 b53d 0e18 97bd f8a3 0abd 5b7d 1e3e
000000f0: 58ca cebd 0335 083e 77cb 2abe fef1 2fbe
00000100: b4da 83bd 2027 58bd b4de 193d 502b 24bd
00000110: f349 0ebe 9079 06bc b4e1 2c3d 568a ef3d
00000120: 6e4e cdbd 4854 2bbe 00ff aa3c 70d9 f2bd
00000130: 481c df3c aa27 ce3d 3890 5b3d 1916 153e
00000140: 2e35 c23d 12f1 e3bd 0020 00be 1521 273e
00000150: 10f3 ea3c 60cc 143c dcae 593d 980c 5c3d
00000160: 9c05 87bd d074 1d3c 1ff8 013e 3e35 c33d
00000170: 669f b33d 3c34 d7bd 98c2 02bd 02e3 77bd
00000180: 3699 833d 31f2 c2bd f4cd 7b3d 602b 0f3d
00000190: 7ef4 adbd b1fc 2a3e cf52 303e 3057 373c
000001a0: a597 8abd 4ce1 0ebe 54b5 74bd 6610 01be
000001b0: a45c 32bd 44ff 45bd 2362 283e 5862 efbc
000001c0: 0806 22be cef5 c03d 8c40 b5bd 1481 17be
000001d0: 1f63 09be 86ec c93d c88a bbbd 30a3 2d3d
000001e0: 800b 0c3d 146b 29be ceca af3d 7e42 f1bd
000001f0: 80c8 dc3a b932 1a3e dca5 4dbd c727 0a3e
00000200: f42b cebd 20a7 3bbd 709e 1c3c c03e a2bc
00000210: 2211 ef3d c807 333d 25c6 223e f401 3fbd
00000220: 5abe d33d 00e8 c83c d126 0c3e b0df a93c
00000230: b152 2c3e 204f 21bc 80c4 7c3c 47cf b4bd
00000240: f8c9 1bbe 50e1 fabc 0052 f0bb f6db 59bd
00000250: f401 433d 72a5 cbbd 7079 483c 0a9d d93d
00000260: 5484 323d 2083 413d 681b a1bd b2f3 b5bd
00000270: 55a3 223e 0276 fd3d 4ad4 f6bd 0c13 19bd
00000280: 3189 113e 1ba1 223e 4005 7fbc 5fb0 debd
00000290: 3848 31be d8d6 6d3d 46ab b5bd c2a9 b93d
000002a0: c7bc 9bbd 6094 dabd b476 fdbd e07c 943d
000002b0: 16c2 d5bd d2d4 ce3d 6c5f 21be ac6d 37bd
000002c0: 7619 e0bd 28bd 1fbd 4056 77bb 9822 8d3d
000002d0: 4ca9 0ebe 7471 2bbd 96a7 f43d bec2 8d3d
000002e0: c486 27be 5d6f 92bd 9c38 753d 40a0 28bc
000002f0: 40c8 9fbd 1a2a ff3d 1444 2cbd 0008 91bd
00000300: ab28 8dbd 7d0d e8bd 04ab f1bd b639 ef3d
00000310: 1602 31be c058 403d ac47 34bd 784e 633d
00000320: 5469 2bbd 8bcf 113e 4d93 2cbe 1170 d2bd
00000330: 407f 6d3b 2688 c13d dc77 44bd c70a 2e3e
00000340: 0d2a 0a3e fc3d 0f3d c02b e1bb 911b f8bd
00000350: c0eb a9bc 5d79 203e 0686 b8bd a22a 0fbe
00000360: 3c1a 6c3d 9d7d fabd 445b 35bd 0076 993a
00000370: e2c3 bf3d 86d6 c63d 0090 1b39 5a37 ca3d
00000380: c89f e4bd 6a34 07be ba05 f5bd 4403 6cbd
00000390: 1279 95bd 3a36 a93d 3c3c 893d f888 593d
000003a0: 5842 1e3d 787b efbd ee3c b33d 22d4 c73d
000003b0: c243 cc3d 5346 21be f2bd ba3d 90f0 dabc
000003c0: 906c ed3c 20c2 203c d2a9 b6bd aa8a df3d
000003d0: 2f79 0d3e b882 15be f6ba 933d f223 8ebd
000003e0: ae5a 06be 57d9 133e b80b c0bd 5688 fb3d
000003f0: 1adc febd 441e 01bd 0082 b2b9 4e83 30be

weight f4 [8, 32]
-0.021695092 -0.12710023 0.0905204 -0.030599713 0.014564753 0.16417946 0.16974743 -0.015426129
0.013440773 -0.11470876 -0.1599795 -0.14293067 -0.03429529 -0.0989527 0.023902401 -0.13027504
0.0019143671 0.09349607 0.07043095 0.15766735 -0.044662103 -0.026510477 0.074550495 0.16240962
-0.09116578 0.08432914 -0.1426599 0.17311825 0.025712967 -0.048160493 0.010881618 -0.071617566
0.13785164 -0.032872513 0.016499415 -0.08568132 0.024651274 0.09745394 0.054885253 0.1598428
0.056396842 0.04551655 -0.06464644 0.16553111 0.12026678 -0.0701532 0.03123635 -0.07503034
0.15647827 0.14958332 -0.1254767 0.025931716 0.1454658 0.091755405 -0.17650019 -0.057481408
-0.065410115 -0.12866026 -0.02092801 -0.06528275 0.12941583 0.03151551 0.039711684 -0.17609322
0.030240461 0.082831904 0.051224515 0.091749385 -0.14430137 0.030968115 0.12210126 -0.018442675
0.17158236 0.073403254 0.16333444 -0.13843216 0.17484649 -0.022623584 0.112741366 0.08278827
-0.07543647 0.065287724 -0.012972668 -0.043535948 -0.13338697 -0.093798675 0.16360162 -0.04785621
-0.06665166 0.04086563 -0.16832465 -0.035274893 -0.13710587 0.05394508 -0.038517922 0.12155472
-0.02124761 -0.16710089 -0.016758218 0.041968435 -0.10077113 -0.121800005 -0.13052547 0.12984379
0.12041174 -0.15136556 -0.1282067 -0.14618735 -0.1294505 0.0027148724 -0.123870134 0.103425756
-0.00976409 0.16028728 -0.15262179 -0.17243929 0.009634197 0.16237079 0.08901806 -0.10943229
-0.124277994 0.041109845 0.12706526 0.08526008 -0.0031356364 0.17183565 0.14775346 0.14188664
-0.14806592 -0.0893149 0.06706384 0.0013399124 0.08375199 0.008550957 -0.09090632 -0.10913416
0.07050228 -0.047411382 0.14658059 0.08975069 -0.17472842 0.13550217 -0.13713682 0.13936733
0.0533659 0.1391509 -0.1619044 -0.113523126 -0.17056517 0.17375688 -0.028119087 0.00624153
-0.059529513 -0.065520264 0.11170931 0.10863073 -0.04730478 -0.11285908 -0.0072437823 0.07540451
-0.11299808 0.11217876 -0.06620876 0.07917534 -0.117616534 0.06373209 -0.0032250136 -0.10168032
-0.08855143 -0.028903037 0.12084712 0.070798084 0.0044115037 0.14015396 0.116845 -0.12390077
-0.09147636 0.03228122 0.079840526 0.122609064 -0.03875856 -0.10688268 -0.12242007 0.09665047
0.04915294 -0.14159907 -0.13683271 0.17153321 -0.17064646 -0.13632426 0.03444293 -0.031015381
-0.08919879 -0.14844374 0.015470192 0.007554963 -0.15550117 0.13658671 -0.101597466 -0.048946634
-0.16501205 0.031001225 -0.038613573 0.14657496 0.040233403 0.15840496 -0.16044207 0.05861506
-0.16969001 0.118520126 -0.1511932 0.043094814 -0.17134093 0.037323043 0.12930314 0.04431826
0.03227085 0.026434839 0.039953336 0.14880075 -0.023150712 0.16166724 -0.037976623 -0.08873427
0.009254187 0.13184111 -0.08211293 -0.058709465 0.10931529 -0.019596338 0.06837623 0.04383464
0.048692197 -0.041700065 0.09836675 0.04850772 0.15510096 0.122483805 -0.040971577 -0.057862945
-0.08573537 -0.11138126 -0.04572311 0.061818466 -0.1670583 0.0874273 0.02695024 -0.17416565
-0.012876004 -0.061454758 0.061842874 -0.13383879 0.015227586 -0.06251269 0.00043581426 0.16372816
00000000: e8b9 b1bc 9026 02be c262 b93d 40ac fabc
00000010: 00a1 6e3c a91e 283e 45d2 2d3e e0bd 7cbc
00000020: b036 5c3c 6dec eabd abd1 23be 6b5c 12be
00000030: 3879 0cbd b7a7 cabd f8ce c33c d266 05be
00000040: 80eb fa3a de7a bf3d 1a3e 903d 8d73 213e
00000050: 9cef 36bd 802c d9bc eead 983d b54e 263e
00000060: 20b5 babd c2b4 ac3d 7015 12be e945 313e
00000070: 00a4 d23c f043 45bd d048 323c 3bac 92bd
00000080: fb28 0d3e 54a5 06bd c829 873c b079 afbd
00000090: 78f1 c93c ee95 c73d 5ccf 603d d5ad 233e
000000a0: 6000 673d 906f 3a3d 5a65 84bd fd80 293e
000000b0: 6e4e f63d 7bac 8fbd 60e3 ff3c 82a9 99bd
000000c0: d73b 203e 5f2c 193e f77c 00be c06e d43c
000000d0: fdf4 143e 42ea bb3d 77bc 34be a071 6bbd
000000e0: bdf5 85bd 84bf 03be 3871 abbc f6b2 85bd
000000f0: 9585 043e 6816 013d b8a8 223d c851 34be
00000100: d8ba f73c c6a3 a93d ccd0 513d 1ae7 bb3d
00000110: bdc3 13be d8b0 fd3c 3a10 fa3d 1815 97bc
00000120: 49b3 2f3e 7254 963d 2541 273e 29c1 0dbe
00000130: f50a 333e 1855 b9bc f2e4 e63d e68c a93d
00000140: 707e 9abd 92b5 853d 508b 54bc c052 32bd
00000150: 9896 08be 8519 c0bd 2f87 273e e004 44bd
00000160: aa80 88bd b862 273d 4c5d 2cbe 687c 10bd
00000170: 7b65 0cbe 84f5 5c3d f8c4 1dbd aef1 f83d
00000180: 780f aebc 7f1c 2bbe 8848 89bc 18e7 2b3d
00000190: 1861 cebd 4872 f9bd 78a8 05be c5f5 043e
000001a0: 6e9a f63d 93ff 1abe 9e48 03be 23b2 15be
000001b0: ac8e 04be 00ec 313b a0af fdbd e2d0 d33d
000001c0: 90f9 1fbc 5922 243e e348 1cbe ed93 30be
000001d0: c0d8 1d3c 8744 263e 1a4f b63d 091e e0bd
000001e0: 7685 febd cc62 283d 651d 023e d69c ae3d
000001f0: 407f 4dbb aff5 2f3e af4c 173e bb4a 113e
00000200: 989e 17be bbea b6bd c458 893d 00a0 af3a
00000210: 2a86 ab3d 5019 0c3c 182d babd bb81 dfbd
00000220: 8063 903d 7032 42bd 3919 163e 36cf b73d
00000230: 02ec 32be 15c1 0a3e 986d 0cbe 4fb6 0e3e
00000240: 3496 5a3d 937d 0e3e 44ca 25be d07e e8bd
00000250: a3a8 2ebe 53ed 313e 005a e6bc c085 cc3b
00000260: 38d5 73bd 7d2f 86bd dac7 e43d ca79 de3d
00000270: a8c2 41bd a922 e7bd 405d edbb ae6d 9a3d
00000280: 8a6b e7bd fabd e53d 7598 87bd ae26 a23d
00000290: f0e0 f0bd f885 823d c05a 53bb c63d d0bd
000002a0: 745a b5bd 10c6 ecbc b27e f73d 96fe 903d
000002b0: 608e 903b 8584 0f3e 6e4c ef3d b0bf fdbd
000002c0: f557 bbbd 5039 043d 6e83 a33d 761a fb3d
000002d0: 4cc1 1ebd 4ee5 dabd 60b7 fabd aef0 c53d
000002e0: 9854 493d 59ff 10be e01d 0cbe 67a6 2f3e
000002f0: f2bd 2ebe 9698 0bbe 0814 0d3d f813 febc
00000300: dbad b6bd a301 18be b076 7d3c a08f f73b
00000310: b33b 1fbe 63dd 0b3e 5512 d0bd 447c 48bd
00000320: ebf8 28be 48f6 fd3c 4429 1ebd bf17 163e
00000330: c8cb 243d e934 223e ed4a 24be 5816 703d
00000340: 38c3 2dbe aeba f23d 64d2 1abe 3084 303d
00000350: ff73 2fbe 0ce0 183d 0b68 043e 1087 353d
00000360: 702e 043d e08d d83c 1ca6 233d 395f 183e
00000370: 90a6 bdbc 198c 253e 608d 1bbd 50ba b5bd
00000380: e09e 173c 5b01 073e d32a a8bd 5679 70bd
00000390: b2e0 df3d 8088 a0bc d608 8c3d f48b 333d
000003a0: 7871 473d b0cd 2abd 8274 c93d 08b0 463d
000003b0: c9d2 1e3e cad8 fa3d d0d1 27bd b201 6dbd
000003c0: 0796 afbd dc1b e4bd 2848 3bbd 5c35 7d3d
000003d0: 5511 2bbe 160d b33d c0c6 dc3c 7b58 32be
000003e0: e0f5 52bc fcb7 7bbd f44e 7d3d 090d 09be
000003f0: 207d 793c a706 80bd 007e e439 5ba8 273e

weight f4 [8, 32]
0.05006157 -0.022949994 -0.06401586 0.14097755 -0.048158288 0.14561932 0.06444417 0.08764006
-0.16495687 0.14312042 0.099806115 0.018893316 0.13013138 0.11127333 0.09040065 -0.023123741
-0.03577766 0.055090338 0.092798844 0.08881335 -0.042582333 0.061510056 0.13808052 0.06777409
0.09868066 0.05169773 0.077583715 0.10267989 0.10703765 -0.030029446 -0.031042144 -0.12703462
0.014429137 -0.048113868 0.021480188 0.0237834 0.1392271 0.15712862 0.01902078 -0.1554832
-0.04717204 0.049494833 -0.10258952 0.036244094 0.15785958 0.13104562 0.11164276 -0.09564336
-0.16040432 0.06324954 0.14640932 -0.122585684 0.018807277 -0.01683122 0.1487888 0.058502644
0.17222811 -0.046984375 0.028310478 -0.051630557 -0.15568829 -0.0012539327 -0.10076504 -0.072574615
0.10852198 -0.035581753 0.0642547 -0.12747812 0.09413572 -0.13304758 0.08323564 -0.080436714
-0.15924665 -0.116041146 -0.030540645 -0.16699854 0.04264401 0.09126817 -0.07727816 -0.13916436
-0.022703215 -0.11668667 -0.05319748 0.16261278 0.16731979 -0.11966173 0.12889068 0.04566115
-0.073888525 0.043129444 0.17529647 -0.16576849 0.11066051 0.09843527 -0.1082075 0.13915984
-0.059968308 0.055799246 -0.04870996 0.03205049 -0.00710921 0.060769215 0.06269637 -0.13990277
0.14133506 -0.02983272 0.050760046 -0.16569372 0.06921232 -0.0897143 0.10461651 0.06488255
-0.17277436 -0.011561662 0.034988716 0.16985221 -0.13201836 -0.05943325 0.17058413 -0.04036659
0.008252159 -0.055981405 0.04979576 0.15657203 -0.04551941 0.032679945 0.051706612 0.10119815
0.088159844 0.15465762 -0.022179902 -0.0484273 -0.09703376 -0.17605682 -0.04762073 -0.03329487
0.04959257 0.11163287 -0.09366376 0.08049013 0.003676623 0.13108175 -0.03212841 0.12836133
0.12250908 0.1499679 -0.10309802 0.021862537 0.09044738 0.047806874 -0.14181106 0.03355454
-0.0899671 -0.110542476 -0.081570126 -0.08545297 0.028188169 -0.032967225 0.07031134 -0.015311673
0.1614355 -0.050917223 -0.08105774 -0.1256771 0.099052146 -0.06629135 -0.0805636 0.14905958
0.05303587 0.06291421 0.15809156 -0.150048 -0.13182746 0.034433067 -0.038541883 0.07866232
0.10887988 0.033092573 0.024720669 0.07266541 0.15114103 -0.025988907 0.14943792 -0.015704617
-0.14636235 0.004883826 0.10053308 0.0877171 -0.12201312 -0.16132954 0.05345097 0.022126153
0.10628094 -0.13964155 0.009579092 0.14530282 0.16402058 -0.012332723 -0.019463986 0.056100324
0.12240799 -0.13954125 0.04176432 0.16686608 -0.06373193 0.07284944 0.07369785 -0.15690212
-0.07937552 -0.14218935 0.17251937 0.03128864 -0.006546527 -0.11780925 -0.03396894 -0.07697083
0.07342459 0.088087454 -0.12361405 0.0040511787 0.006048277 0.12341605 -0.16285595 -0.12664261
0.14809372 -0.091790654 0.023810312 0.07394488 -0.108982116 0.008811161 -0.17526889 0.014576867
-0.14635102 -0.14593607 0.09648891 -0.000971511 0.14163904 -0.11968451 0.17399256 -0.03208722
-0.10537469 0.0057392865 -0.07921117 -0.07521002 -0.008499771 -0.0100052655 -0.027587205 -0.16226658
0.10246353 -0.0037019849 -0.03606628 0.14699222 0.06159492 0.048286766 0.044230834 0.12118392
00000000: 5c0d 4d3d a001 bcbc bf1a 83bd 6b5c 103e
00000010: a041 45bd 3b1d 153e 4efb 833d a27c b33d
00000020: 74ea 28be 298e 123e 2667 cc3d 28c6 9a3c
00000030: 2941 053e 46e3 e33d fa23 b93d 006e bdbc
00000040: 988b 12bd 68a6 613d 520d be3d c6e3 b53d
00000050: d06a 2ebd f8f1 7b3d fb64 0d3e 24cd 8a3d
00000060: 1619 ca3d 00c1 533d 36e4 9e3d d649 d23d
00000070: 8e36 db3d 5000 f6bc 184c febc 5d15 02be
00000080: 3068 6c3c 0c13 45bd 38f7 af3c 68d5 c23c
00000090: 8d91 0e3e 53e6 203e 78d1 9b3c fd36 1fbe
000000a0: 7837 41bd 18bb 4a3d 741a d2bd b074 143d
000000b0: f1a5 213e d330 063e f6a4 e43d aae0 c3bd
000000c0: 0841 24be fa88 813d 53ec 153e 340e fbbd
000000d0: b811 9a3c a0e1 89bc 175c 183e 78a0 6f3d
000000e0: 915c 303e b072 40bd 60eb e73c 907a 53bd
000000f0: c06c 1fbe 005b a4ba e75d cebd 00a2 94bd
00000100: c640 de3d 2cbe 11bd f897 833d a089 02be
00000110: 3aca c03d a03d 08be 7277 aa3d 01bc a4bd
00000120: 8e11 23be fba6 edbd 6030 fabc aa01 2bbe
00000130: 7cab 2e3d ceea ba3d 0344 9ebd 1a81 0ebe
00000140: 18fc b9bc 6cf9 eebd 9ae5 59bd f783 263e
00000150: e155 2b3e 3611 f5bd ebfb 033e 3007 3b3d
00000160: de52 97bd 80a8 303d eb80 333e 37bf 29be
00000170: faa1 e23d 6e98 c93d e59b ddbd eb7f 0e3e
00000180: 54a1 75bd c08d 643d 1884 47bd 6047 033d
00000190: 60f4 e8bb 24e9 783d f466 803d ac42 0fbe
000001a0: 23ba 103e c063 f4bc c4e9 4f3d 9dab 29be
000001b0: 30bf 8d3d 22bc b7bd 2e41 d63d 24e1 843d
000001c0: c3eb 30be 206d 3dbc 5450 0f3d bded 2d3e
000001d0: d22f 07be 4870 73bd 9bad 2e3e 7057 25bd
000001e0: 1034 073c c24c 65bd a4f6 4b3d 6b54 203e
000001f0: 9072 3abd 68db 053d 50ca 533d fa40 cf3d
00000200: 268d b43d 915e 1e3e a0b2 b5bc b45b 46bd
00000210: a3b9 c6bd 3d48 34be f40d 43bd 3460 08bd
00000220: 9421 4b3d c69f e43d c9d2 bfbd 02d8 a43d
00000230: 80f3 703b 4b3a 063e 1499 03bd 2771 033e
00000240: 0ae6 fa3d 2f91 193e 0e25 d3bd 1019 b33c
00000250: 7a3c b93d 24d1 433d eb36 11be 7c70 093d
00000260: ac40 b8bd 1864 e2bd 3d0e a7bd f701 afbd
00000270: e0ea e63c a408 07bd 64ff 8f3d d0dd 7abc
00000280: 594f 253e 948e 50bd 9a01 a6bd 7fb1 00be
00000290: dadb ca3d c2c3 87bd 87fe a4bd 13a3 183e
000002a0: 243c 593d 2ad9 803d c1e2 213e 2fa6 19be
000002b0: c7fd 06be b009 0d3d 18de 1dbd b619 a13d
000002c0: 6afc de3d 148c 073d 0083 ca3c 9ad1 943d
000002d0: b7c4 1a3e b0e6 d4bc 4106 193e f8a6 80bc
000002e0: 03e0 15be 8008 a03b 4ae4 cd3d 06a5 b33d
000002f0: 04e2 f9bd 9233 25be 68ef 5a3d e841 b53c
00000300: d2a9 d93d 32fe 0ebe a0f1 1c3c 43ca 143e
00000310: 03f5 273e 300f 4abc f072 9fbc 74c9 653d
00000320: 0ab1 fa3d e7e3 0ebe 1011 2b3d f1de 2a3e
00000330: e385 82bd 1632 953d e6ee 963d f3aa 20be
00000340: a28f a2bd 169a 11be eba8 303e 8428 003d
00000350: 4084 d6bb fa45 f1bd 0423 0bbd e2a2 9dbd
00000360: a25f 963d 3267 b43d 5d29 fdbd c0bf 843b
00000370: a030 c63b 8ec1 fc3d b6c3 26be 9aae 01be
00000380: e1a5 173e bdfc bbbd d80d c33c 6a70 973d
00000390: 0432 dfbd b05c 103c b079 33be d0d3 6e3c
000003a0: 0bdd 15be 4470 15be fa9b c53d 00ad 7eba
000003b0: d309 113e 271d f5bd 1b2b 323e e46d 03bd
000003c0: afce d7bd a010 bc3b 7739 a2bd b607 9abd
000003d0: a042 0bbc 20ed 23bc 90fe e1bc 3629 26be
000003e0: 66d8 d13d 009d 72bb 3cba 13bd 2185 163e
000003f0: f44a 7c3d 58c8 453d 642b 353d 462f f83d

tril f4 [8, 8]
1.0 0.0 0.0 0.0 0.0 0.0 0.0 0.0
1.0 1.0 0.0 0.0 0.0 0.0 0.0 0.0
1.0 1.0 1.0 0.0 0.0 0.0 0.0 0.0
1.0 1.0 1.0 1.0 0.0 0.0 0.0 0.0
1.0 1.0 1.0 1.0 1.0 0.0 0.0 0.0
1.0 1.0 1.0 1.0 1.0 1.0 0.0 0.0
1.0 1.0 1.0 1.0 1.0 1.0 1.0 0.0
1.0 1.0 1.0 1.0 1.0 1.0 1.0 1.0
00000000: 0000 803f 0000 0000 0000 0000 0000 0000
00000010: 0000 0000 0000 0000 0000 0000 0000 0000
00000020: 0000 803f 0000 803f 0000 0000 0000 0000
00000030: 0000 0000 0000 0000 0000 0000 0000 0000
00000040: 0000 803f 0000 803f 0000 803f 0000 0000
00000050: 0000 0000 0000 0000 0000 0000 0000 0000
00000060: 0000 803f 0000 803f 0000 803f 0000 803f
00000070: 0000 0000 0000 0000 0000 0000 0000 0000
00000080: 0000 803f 0000 803f 0000 803f 0000 803f
00000090: 0000 803f 0000 0000 0000 0000 0000 0000
000000a0: 0000 803f 0000 803f 0000 803f 0000 803f
000000b0: 0000 803f 0000 803f 0000 0000 0000 0000
000000c0: 0000 803f 0000 803f 0000 803f 0000 803f
000000d0: 0000 803f 0000 803f 0000 803f 0000 0000
000000e0: 0000 803f 0000 803f 0000 803f 0000 803f
000000f0: 0000 803f 0000 803f 0000 803f 0000 803f

weight f4 [8, 32]
0.16405286 -0.030403659 -0.035264537 0.015801802 -0.07751103 -0.15287186 0.13770063 -0.08545254
0.058365285 0.025318012 -0.15619741 0.035129488 0.12967853 -0.021433964 -0.14460877 0.009665176
-0.17166814 0.004766792 0.13860314 -0.026105225 0.0145288855 0.10960008 -0.09190244 0.077597335
0.04804267 -0.15761182 -0.008579597 0.019374192 0.11808197 -0.17311202 0.17421044 -0.108426556
0.018118694 0.15140565 0.0014520884 0.10708408 0.021964043 -0.06611329 0.0677353 -0.056937292
0.0010175556 0.065990016 -0.03552459 0.10881664 0.17657538 -0.15366966 -0.060793564 -0.09877468
0.008726478 -0.1686378 0.009361833 0.05623588 0.008220062 0.022541985 -0.07396449 0.028573394
0.041340202 0.14536573 0.0313251 -0.024559304 0.15032764 0.05245237 0.018873274 -0.08828336
-0.10437037 0.027240649 -0.07066071 0.0907086 0.16859005 0.13256355 -0.11907905 -0.095755085
-0.16739611 0.007301599 0.05006443 0.17394213 0.12281196 -0.04612221 -0.13713649 -0.12812048
-0.10710909 -0.0016753972 0.054122046 -0.02392812 0.080418214 0.0075391084 -0.0828732 0.09395407
-0.10859182 -0.11265486 -0.11187658 -0.02402398 0.019539803 -0.017022371 -0.06353391 0.1495593
-0.13979489 0.00018794835 0.027789459 -0.17081723 0.14877142 -0.022457466 -0.060319662 0.10534085
0.15241574 -0.08921845 0.12822528 -0.045401663 0.13923688 -0.15019996 -0.17416301 0.078768924
-0.059636712 0.023651168 -0.13328856 0.028337538 0.10204859 -0.08314148 0.16359837 -0.15309791
-0.1737523 0.02529259 0.10226075 -0.11332225 -0.0013542771 0.028047845 -0.05729004 -0.1030282
-0.007758349 -0.081622384 -0.042181954 0.13491799 0.13446252 0.13868184 -0.062978856 0.11810593
0.046798855 -0.13778271 0.01999402 0.10169627 0.049949914 -0.058954947 -0.13344511 -0.06611972
0.1063558 -0.026030838 0.07225135 0.069573045 -0.14851715 -0.023219794 -0.12362054 -0.1663417
-0.07744161 0.13162492 0.16001381 -0.021997362 -0.09040619 -0.007981986 0.033515826 -0.013920099
0.013402149 -0.14968765 -0.02359277 0.10273419 -0.12431556 0.012761816 -0.094019376 0.117187485
-0.11613022 0.10185678 0.079623446 -0.13404651 0.019053206 0.016714454 -0.039597303 0.040507317
0.014496371 0.16135685 0.14077346 -0.08254096 0.052668974 -0.10574115 0.027132228 -0.025547653
0.07739161 -0.037854925 0.014548719 0.09969027 0.097211465 0.0717583 -0.074563235 0.0032079667
0.026150033 -0.07537504 -0.029855713 0.11828314 -0.096646644 0.13064305 -0.0082246065 0.028629169
-0.086026646 -0.1473494 0.015987515 -0.08404682 -0.12268396 -0.081453376 -0.041384265 0.026636824
-0.07020101 -0.123164974 -0.12484288 -0.04758425 0.06855257 0.089540556 0.024145216 0.13883562
0.019954383 0.014680058 0.04535325 0.09831558 -0.09246416 0.030559927 -0.021488741 0.07845907
0.14438449 -0.0327529 -0.12330366 0.08102848 0.11542402 -0.035509944 0.16211008 0.1571923
-0.07675126 0.12377696 -0.10730786 -0.032377273 -0.1463616 0.07877441 -0.0013390332 -0.0449446
0.06208861 -0.08370373 0.057448655 0.16846977 -0.14056605 0.124899134 0.06944665 -0.16055878
-0.15476774 0.07564224 0.15993334 0.009101883 0.07890682 -0.15418899 -0.041111946 -0.040224537
00000000: 79fd 273e 1811 f9bc 8c71 10bd c872 813c
00000010: 1abe 9ebd 718a 1cbe 6501 0d3e be01 afbd
00000020: 7010 6f3d b867 cf3c 37f2 1fbe f0e3 0f3d
00000030: 73ca 043e 4896 afbc 5214 14be b05a 1e3c
00000040: c6c9 2fbe c032 9c3b fbed 0d3e a0da d5bc
00000050: 900a 6e3c 0276 e03d 5937 bcbd 5aeb 9e3d
00000060: 64c8 443d fe64 21be 7091 0cbc a0b6 9e3c
00000070: f6d4 f13d 4744 31be 3964 323e be0e debd
00000080: a86d 943c 150a 1b3e 0054 be3a e64e db3d
00000090: f0ed b33c 6866 87bd ceb8 8a3d 1437 69bd
000000a0: 805f 853a c625 873d 3c82 11bd 42db de3d
000000b0: 2dd0 343e 945b 1dbe ac02 79bd 614a cabd
000000c0: 80f9 0e3c 63af 2cbe 6062 193c 9857 663d
000000d0: 70ad 063c f8a9 b83c b27a 97bd c012 ea3c
000000e0: 5854 293d c1da 143e c04e 003d 9830 c9bc
000000f0: 7def 193e 4cd8 563d 209c 9a3c e8cd b4bd
00000100: 22c0 d5bd c827 df3c 90b6 90bd 6ec5 b93d
00000110: dfa2 2c3e bdbe 073e b8df f3bd 3e1b c4bd
00000120: e369 2bbe 4042 ef3b 5c10 4d3d e31d 323e
00000130: d684 fb3d a4ea 3cbd 826d 0cbe 0432 03be
00000140: 035c dbbd 0099 dbba 14af 5d3d e804 c4bc
00000150: 4eb2 a43d a00a f73b 6db9 a9bd fe6a c03d
00000160: 6365 debd 97b7 e6bd 8c1f e5bd f0cd c4bc
00000170: f011 a03c 8072 8bbc 111e 82bd 1326 193e
00000180: 6426 0fbe 0014 4539 b8a6 e33c b6ea 2ebe
00000190: 8957 183e b8f8 b7bc c011 77bd f2bc d73d
000001a0: df12 1c3e 2ab8 b6bd 7d4d 033e 18f7 39bd
000001b0: 1d94 0e3e 05ce 19be ca57 32be 9a51 a13d
000001c0: a045 74bd 18c0 c13c cc7c 08be 2024 e83c
000001d0: dafe d03d 1546 aabd 5586 273e b3c5 1cbe
000001e0: 1fec 31be 6832 cf3c 166e d13d 7f15 e8bd
000001f0: 0082 b1ba 98c4 e53c f6a8 6abd 7300 d3bd
00000200: c039 febb a329 a7bd fcc6 2cbd f127 0a3e
00000210: 8bb0 093e 9d02 0e3e 0ffb 80bd 86e1 f13d
00000220: 28b0 3f3d e916 0dbe 80ca a33c 2246 d03d
00000230: 4898 4c3d be7a 71bd d6a5 08be c769 87bd
00000240: 12d1 d93d a03e d5bc 84f8 933d 507c 8e3d
00000250: e114 18be 7037 bebc c42c fdbd 7b55 2abe
00000260: b599 9ebd afc8 063e a9da 233e d033 b4bc
00000270: e126 b9bd e0c6 02bc e447 093d 2011 64bc
00000280: b094 5b3c b847 19be a045 c1bc 4e66 d23d
00000290: 2899 febd f016 513c 3b8d c0bd feff ef3d
000002a0: aed5 edbd 4a9a d03d 9e11 a33d 7d43 09be
000002b0: 7815 9c3c c0ec 883c c830 22bd 00eb 253d
000002c0: 3082 6d3c bb3a 253e eb26 103e 3c0b a9bd
000002d0: 6cbb 573d d18e d8bd 6844 de3c 5049 d1bc
000002e0: 7e7f 9e3d c40d 1bbd c05d 6e3c 6a2a cc3d
000002f0: ce16 c73d 04f6 923d 9cb4 98bd c03c 523b
00000300: 9838 d63c 3b5e 9abd f893 f4bc 6e3e f23d
00000310: adee c5bd 4bc7 053e 80c0 06bc b887 ea3c
00000320: bd2e b0bd c3e2 16be 40f8 823c bd20 acbd
00000330: ba41 fbbd 07d1 a6bd 8c82 29bd 7835 da3c
00000340: 8cc5 8fbd eb3d fcbd a0ad ffbd b4e7 42bd
00000350: 4a65 8c3d 0a61 b73d 30cc c53c ed2a 0e3e
00000360: 6077 a33c a084 703c 54c4 393d ae59 c93d
00000370: d95d bdbd d058 fa3c 2809 b0bc 26af a03d
00000380: 87d9 133e e827 06bd a186 fcbd 42f2 a53d
00000390: 6e63 ec3d e072 11bd 2f00 263e 05f7 203e
000003a0: c42f 9dbd c67e fd3d 39c4 dbbd 089e 04bd
000003b0: d1df 15be 7a54 a13d 8082 afba d417 38bd
000003c0: a050 7e3d dc6c abbd 484f 6b3d 5783 2c3e
000003d0: 8cf0 0fbe 1ecb ff3d 0c3a 8e3d 8569 24be
000003e0: 6f7b 1ebe 52ea 9a3d 91c5 233e 1020 153c
000003f0: e699 a13d b8e3 1dbe 0065 28bd 7cc2 24bd

weight f4 [8, 32]
0.08367519 -0.17003056 0.16393586 0.049468204 0.09779017 0.12205537 -0.17313263 0.16973482
-0.16198288 -0.0093449205 0.13367794 -0.06808581 0.009780392 -0.17264171 0.011279315 0.09152381
-0.025811404 0.05336602 0.16674154 -0.16238797 -0.07439879 0.045811415 0.11943729 0.13576765
-0.029475883 0.15786462 -0.09251018 -0.0015286505 -0.10507458 0.16721459 0.10699533 0.069990635
0.094336376 -0.05813566 -0.08649323 0.052013323 -0.018896282 0.1288564 0.03711316 -0.1284472
-0.1733295 -0.145365 0.032386348 -0.011974812 -0.15100425 -0.15553588 -0.010391921 -0.04016815
-0.09308342 -0.11890116 0.005049333 -0.11129571 -0.058356315 0.16483106 0.08613683 0.15935381
-0.044969037 0.15984897 -0.031577066 0.040309146 0.16719256 -0.05395279 0.15887015 -0.1635556
-0.012914091 0.105308816 -0.031136632 -0.10675442 0.11569603 -0.05418572 -0.08617228 0.07374214
0.017775685 -0.09993603 0.051078707 -0.024209127 0.0924169 0.025904745 0.07227832 0.06477758
0.099067226 -0.14011005 -0.099365555 -0.026432797 -0.11022659 -0.1290839 0.123830244 0.037480935
0.14526556 0.14136921 -0.115301594 -0.103896156 -0.09225749 0.08382712 -0.0037434846 -0.031908363
0.022366703 -0.027319103 0.001485616 -0.087712035 0.04678233 0.07780777 -0.14897579 -0.05154009
0.03230822 0.011855677 -0.048729658 -0.15360153 -0.09598549 -0.027748495 -0.059388198 -0.1659571
-0.003223583 0.14982848 0.15103368 -0.047984123 0.12785272 -0.016634628 0.14508356 0.108082876
0.0042215586 -0.12450546 -0.03167762 -0.13105594 -0.15267038 -0.029277861 -0.032691643 0.15893708
-0.12743631 0.13726701 0.0050567985 -0.03809969 -0.16691662 -0.11215335 -0.11724658 -0.13032016
0.04206249 0.104665235 -0.15482569 -0.13441473 0.067097366 -0.046076804 -0.11727241 -0.11626638
0.08633937 -0.13279483 -0.07225331 0.008841053 -0.14574035 -0.077151194 -0.03082566 -0.15762424
0.09080802 -0.04055856 -0.04428877 -0.09605511 0.07499762 0.08404879 -0.007021725 0.07702379
0.027649298 0.1412905 0.03412883 0.05803457 0.08005907 -0.11779405 0.07515924 0.08308403
-0.13787341 -0.14613219 -0.0432626 0.13139372 -0.079845116 -0.00029960275 0.16465144 -0.13170853
-0.0900617 0.033178315 0.024802297 0.09226908 0.00041478872 -0.13334239 0.06743549 0.050659016
0.05000837 0.05993019 0.1607527 -0.14353159 0.12676363 0.14866017 -0.087005444 0.1663511
-0.04039325 0.08175938 -0.12714028 -0.08643288 -0.16232273 -0.06546154 0.16728078 0.1549667
-0.13164355 0.06636523 -0.15297487 -0.14342244 0.14176951 -0.035188615 0.14276256 -0.0964813
-0.17573258 0.036427706 0.07411267 0.049684986 0.00975205 -0.058854617 0.13130249 -0.10191647
0.009929076 0.028276503 -0.15524863 -0.018333018 0.003854856 -0.065330714 0.06394079 -0.04400538
-0.08169351 0.16368659 -0.05571957 -0.081447266 0.17334805 -0.1229256 -0.016953945 0.1256458
-0.09205569 0.1186036 0.15847959 -0.035225973 0.08976473 0.077157065 -0.011561871 -0.15092859
0.014488801 -0.120748 -0.12662777 -0.16517086 0.07831554 -0.0049242526 -0.053929314 0.11884008
0.14399706 0.07074238 0.15617062 0.14890744 0.14588945 0.052523613 0.08029081 -0.09838889
00000000: e65d ab3d 7e1c 2ebe cdde 273e 2c9f 4a3d
00000010: 3646 c83d 2af8 f93d ae49 31be f7ce 2d3e
00000020: d7de 25be 701b 19bc dfe2 083e 9370 8bbd
00000030: f03d 203c fdc8 30be e0cc 383c d670 bb3d
00000040: 7072 d3bc 5496 5a3d 4bbe 2a3e 0849 26be
00000050: 655e 98bd c0a4 3b3d 8a9b f43d ad06 0b3e
00000060: 6877 f1bc 43a7 213e fa75 bdbd 005d c8ba
00000070: 5731 d7bd 4d3a 2b3e 5e20 db3d 4057 8f3d
00000080: 6e33 c13d a81f 6ebd 5d23 b1bd ec0b 553d
00000090: 60cc 9abc eff2 033e f803 183d aa87 03be
000000a0: 4a7d 31be 90da 14be 8ca7 043d 0032 44bc
000000b0: dca0 1abe cc44 1fbe e042 2abc 5c87 24bd
000000c0: 85a2 bebd 7482 f3bd e074 a53b 01ef e3bd
000000d0: 0807 6fbd 79c9 283e 8268 b03d a52d 233e
000000e0: 7431 38bd 73af 233e f456 01bd 341b 253d
000000f0: 8734 2b3e 9afd 5cbd dbae 223e 1f7b 27be
00000100: a095 53bc 26ac d73d 4012 ffbc 10a2 dabd
00000110: 0af2 ec3d d8f1 5dbd 187b b0bd 1e06 973d
00000120: 509e 913c 43ab ccbd e837 513d 3852 c6bc
00000130: 1245 bd3d 3036 d43c a806 943d 1caa 843d
00000140: c2e3 ca3d 0279 0fbe 2b80 cbbd 9889 d8bc
00000150: 7abe e1bd 922e 04be b69a fd3d 9c85 193d
00000160: 7fc0 143e 17c3 103e 3e23 ecbd 82c7 d4bd
00000170: 7ff1 bcbd 8ead ab3d 4055 75bb 58b2 02bd
00000180: 603a b73c 50cc dfbc 00b9 c23a 5ea2 b3bd
00000190: d49e 3f3d ae59 9f3d 1c8d 18be b41b 53bd
000001a0: a055 043d 503e 423c c098 47bd b849 1dbe
000001b0: 0a94 c4bd d050 e3bc 0a41 73bd a8f0 29be
000001c0: c042 53bb a36c 193e 93a8 1a3e 008b 44bd
000001d0: d3eb 023e 5845 88bc c990 143e 8e5a dd3d
000001e0: 0055 8a3b b8fc febd 64c0 01bd 8733 06be
000001f0: a055 1cbe 20d8 efbc ace7 05bd 67c0 223e
00000200: aa7e 02be b98f 0c3e 80b3 a53b 6c0e 1cbd
00000210: 31ec 2abe a8b0 e5bd fa1e f0bd a672 05be
00000220: b849 2c3d ba5a d63d a08a 1ebe 04a4 09be
00000230: 586a 893d 08bb 3cbd 842c f0bd 111d eebd
00000240: b2d2 b03d 5efb 07be 8bf9 93bd 10da 103c
00000250: f53c 15be 7201 9ebd 1886 fcbc 4068 21be
00000260: 8ef9 b93d bc20 26bd 2468 35bd 8bb8 c4bd
00000270: 5a98 993d c621 ac3d 8016 e6bb a6be 9d3d
00000280: c880 e23c 75ae 103e acca 0b3d a8b5 6d3d
00000290: 02f6 a33d 023e f1bd 16ed 993d f627 aa3d
000002a0: b02e 0dbe ada3 15be 2034 31bd 138c 063e
000002b0: d685 a3bd 0014 9db9 639a 283e 9ade 06be
000002c0: 4572 b8bd fce5 073d 302e cb3c 92f7 bc3d
000002d0: 0078 d939 e88a 08be 9e1b 8a3d d47f 4f3d
000002e0: 94d5 4c3d 5c79 753d 5b9c 243e f2f9 12be
000002f0: 53ce 013e 5f3a 183e e92f b2bd f157 2a3e
00000300: 6473 25bd 7671 a73d 1031 02be b903 b1bd
00000310: ee37 26be b310 86bd a74b 2b3e 97af 1e3e
00000320: 91cd 06be 7eea 873d 72a5 1cbe 55dd 12be
00000330: 072c 113e f021 10bd 5930 123e fd97 c5bd
00000340: 3ef3 33be 3835 153d 62c8 973d 7c82 4b3d
00000350: 10c7 1f3c 8a11 71bd 2974 063e 95b9 d0bd
00000360: 90ad 223c 20a4 e73c 7ff9 1ebe 202f 96bc
00000370: c0a1 7c3b 1ccc 85bd 64f3 823d fc3e 34bd
00000380: ed4e a7bd 759d 273e 343a 64bd d3cd a6bd
00000390: 2782 313e 6bc0 fbbd 00e3 8abc 4ba9 003e
000003a0: b287 bcbd 72e6 f23d 7948 223e 1c49 10bd
000003b0: 92d6 b73d 8604 9e3d 006e 3dbc 068d 1abe
000003c0: 7062 6d3c ba4a f7bd b6aa 01be 8d22 29be
000003d0: e663 a03d a05b a1bb fce4 5cbd 6e62 f33d
000003e0: f773 133e 62e1 903d 31eb 1f3e 317b 183e
000003f0: 0b64 153e 0023 573d 826f a43d 1d80 c9bd
