model.pth (torch, 21120 bytes, 4 tensors)

weight f4 [65, 32]
0	0x3e391c30	0.18077159
1	0xbd8f55eb	-0.069988094
2	0xbeb82092	-0.3596235
3	0xbf6a4ad7	-0.91520447
4	0x3f203228	0.6257653
5	0x3cd0fa30	0.025509924
6	0x3f745b02	0.95451367
7	0x3d83c929	0.06434853
8	0x3eb8e8ba	0.36115056
9	0x3f957d08	1.1678782
10	0xbfacc94d	-1.3498932
11	0xbf029af1	-0.5101767
12	0x3e719ee5	0.2359577
13	0xbe758876	-0.23977837
14	0xbf6bce2c	-0.9211147
15	0x3fc58ac2	1.543297
16	0x3faca653	1.3488258
17	0xbe0efe3a	-0.13964167
18	0x3e925404	0.28579724
19	0x3f771223	0.9651205
20	0xc00260aa	-2.03715
21	0x3efc7c5b	0.49313626
22	0x3fbe55f8	1.4869986
23	0x3f174df0	0.591033
24	0x3e010def	0.12602971
25	0xbfc80624	-1.5626874
26	0xbf947e40	-1.1601028
27	0xbeab7042	-0.33484083
28	0x3ee54265	0.44777218
29	0xbf4d3897	-0.80164474
30	0x3fc305b3	1.5236114
31	0x40208cb0	2.508587
32	0xbf29c0a7	-0.6630959
33	0xbe80a726	-0.25127524
34	0x3f814c6d	1.0101448
35	0x3df8ed81	0.12154675
36	0x3e223370	0.15839934
37	0x3f912787	1.1340188
38	0xbf93b2eb	-1.1538976
39	0xbe98c778	-0.29839683
40	0xbf01edea	-0.50753653
41	0xbf6c8619	-0.92392117
42	0x3f0bf4ee	0.5467061
43	0xbfbf54df	-1.4947776
44	0xbf9a54dd	-1.2057148
45	0x3f1262c9	0.57181984
46	0xbf18ec39	-0.5973545
47	0xbf3194bb	-0.6936757
48	0x3fd2a103	1.6455387
49	0xbf4d90f5	-0.8029931
50	0x3facfb08	1.3514109
51	0xbe8d454d	-0.27591935
52	0xbfc16307	-1.5108346
53	0x4006b49a	2.104773
54	0x4030d452	2.762959
55	0xbfdf8e45	-1.7465292
56	0x3fb9cdb5	1.4515902
57	0xbfc150f5	-1.5102831
58	0x3f523722	0.82115376
59	0xbe589a99	-0.21152724
60	0x3f4765e1	0.7788983
61	0x3fc44227	1.5332688
62	0x3fce0bd8	1.6097364
63	0xbece73eb	-0.40322813
64	0xbf559fd7	-0.8344702
65	0x3f190979	0.5978008
66	0xbd528f01	-0.05140591
67	0xbd84376c	-0.064558834
68	0xbefe7787	-0.49700567
69	0x3eee779c	0.4657563
70	0xbe83b766	-0.2572586
71	0xbf889bf3	-1.0672592
72	0x4000927f	2.0089414
73	0xbf097750	-0.5369768
74	0x3e64257b	0.22279923
75	0x3f32722b	0.69705456
76	0xbfb69ce9	-1.4266635
77	0x3f67ebd8	0.90594244
78	0x3e1410a5	0.14459474
79	0x3e6978f2	0.22800043
80	0x401f5b90	2.4899635
81	0xbf9ca140	-1.223671
82	0x3f815d9b	1.0106691
83	0x3f0e55c8	0.5559964
84	0xbfcbf77e	-1.5934904
85	0xbfa2a486	-1.2706459
86	0x3f30b936	0.6903261
87	0xbe48d79f	-0.19613503
88	0x3eb098a0	0.34491444
89	0xbeaf0bb1	-0.34188607
90	0x3ef3a57a	0.47587186
91	0xbf442ed9	-0.76633984
92	0xbed6824b	-0.4189628
93	0xbedfbdc9	-0.43699482
94	0xbf80278c	-1.0012069
95	0xbed1a094	-0.40942824
96	0xbfd55e31	-1.666937
97	0xbfaebd08	-1.3651438
98	0xbe297f26	-0.1655241
99	0x3f76561e	0.96225154
100	0x3d013969	0.03154889
101	0xbf3ded43	-0.7419016
102	0xbe9877e0	-0.29778957
103	0x3c8c9f03	0.017165666
104	0xbe357a2f	-0.1772239
105	0xbe08a1bf	-0.13342951
106	0x3e968194	0.29395735
107	0x3fb1462d	1.3849541
108	0x3df7a11c	0.12091276
109	0x4022aca4	2.5417871
110	0xbf23f530	-0.64046
111	0xbffcac60	-1.9740105
112	0xbea8bd4d	-0.32956925
113	0x3c0265d7	0.007958851
114	0x3f6d1db9	0.9262348
115	0xbff1391e	-1.8845556
116	0x3e2af7fb	0.1669616
117	0x3eead08c	0.45862234
118	0xbfe2130e	-1.7662065
119	0x3f160331	0.5859862
120	0x3fe021cd	1.7510315
121	0x3e8fbad0	0.28072214
122	0x3e9f3690	0.31096315
123	0xbf275cb0	-0.65375805
124	0xbf285a33	-0.65762633
125	0x3ea30bce	0.31844944
126	0xbf0cb1b3	-0.5495865
127	0xbfbb82a5	-1.4649245
128	0xc0038d57	-2.0555017
129	0x3fe9ea4b	1.8274626
130	0x3fa6d9ff	1.3035277
131	0xbee677b4	-0.450132
132	0x3fac6e7a	1.3471215
133	0x3fd87209	1.6909801
134	0xbdfedd68	-0.12444574
135	0xbfd757c9	-1.6823665
136	0xbcd9f91d	-0.026608044
137	0x3d97a71a	0.07404919
138	0x3f869e98	1.0517149
139	0x3f2d8a69	0.6778932
140	0x3e9d01da	0.30665475
141	0xbf3f4aae	-0.7472333
142	0x3f3e55a4	0.7434943
143	0x3f633d88	0.88765764
144	0x4012655c	2.2874365
145	0x3f760d2d	0.96113855
146	0xbfc3cce4	-1.5296903
147	0xbe951b65	-0.29122463
148	0xbde95faf	-0.11395203
149	0xbea09916	-0.31366795
150	0xbf211a92	-0.6293117
151	0x3f91ba97	1.1385068
152	0xbf7dc421	-0.99127394
153	0x3e2e11a6	0.1699892
154	0x3f9cc8a8	1.2248735
155	0xbe702afb	-0.23453896
156	0xbf875109	-1.0571605
157	0xbf277e14	-0.65426755
158	0x3fcba21f	1.590885
159	0xbf3311e0	-0.6994915
160	0xbf6563f1	-0.89605623
161	0x3d878f4e	0.0661913
162	0xbd66861d	-0.056280244
163	0x4015d699	2.341223
164	0xc02e4cba	-2.723433
165	0x3f0279ee	0.509673
166	0xbf508105	-0.8144687
167	0xbe7bf204	-0.2460404
168	0x3b93bc67	0.0045085433
169	0x40030917	2.0474298
170	0xbe2153a3	-0.15754561
171	0xbe5feb2a	-0.21867052
172	0xbfad0c0c	-1.3519301
173	0xbd6a9f0e	-0.057280593
174	0xbfed4f27	-1.853978
175	0xbfb14413	-1.38489
176	0xbeb0d83a	-0.34539968
177	0xbf94ccec	-1.1625037
178	0x3e13f2c5	0.14448078
179	0x3e2a509c	0.16632313
180	0x3f402dda	0.75069964
181	0x3f69c5b3	0.9131729
182	0xbfdd2691	-1.7277395
183	0x3fa71bee	1.3055398
184	0x3f759637	0.95932335
185	0x3f87acdd	1.0599629
186	0x3f213ebd	0.62986356
187	0xbfa4b177	-1.2866658
188	0xbf2ffec4	-0.68748116
189	0x4008d894	2.1382189
190	0x3f02ebea	0.51141226
191	0x3f9c0b24	1.21909
192	0x3e439049	0.19098009
193	0xbeaf5d2f	-0.3425078
194	0x3fe5d33b	1.7955087
195	0x3fb21b58	1.3914595
196	0x3f8a0d09	1.0785228
197	0xbf1d6d78	-0.6149516
198	0xbeeaeecd	-0.45885316
199	0x3f114679	0.5674816
200	0x3c95d2f0	0.01828906
201	0xbfd496b7	-1.6608495
202	0x3f8ef751	1.1169225
203	0x3f050807	0.51965374
204	0xbf9f03e4	-1.2423062
205	0xbf7639df	-0.96182054
206	0xbdae13a0	-0.08499837
207	0x3df2c629	0.11854202
208	0x3e98cc21	0.29843238
209	0xbf39f28b	-0.72635716
210	0xbe9fad46	-0.31186885
211	0xbee97e37	-0.45604107
212	0x3f24e207	0.6440739
213	0x3f1b76b6	0.60728014
214	0x3f9ead24	1.2396588
215	0x3f3b84bb	0.73249406
216	0x3f011224	0.50418305
217	0x3f5f10be	0.8713492
218	0xbe8c5e73	-0.2741581
219	0xbf3f345f	-0.74689287
220	0xbf154f27	-0.583239
221	0x3ebd618c	0.36988485
222	0xbf0e3d70	-0.55562496
223	0xbecbeb76	-0.3982808
224	0xbf14f5fd	-0.5818785
225	0xbe622263	-0.2208343
226	0x3c5dca9a	0.0135370735
227	0xbe9c8964	-0.3057357
228	0xbcf8e763	-0.030383771
229	0x3f5254cc	0.8216064
230	0x39cabe7c	0.00038670364
231	0xbee51471	-0.44742158
232	0x3f520572	0.8203956
233	0xbfc245ba	-1.5177529
234	0x3f1da9cf	0.6158723
235	0xbfeeb19a	-1.864795
236	0xbf7a4c50	-0.97772694
237	0x3d817b59	0.06322355
238	0xbee8dfb1	-0.45483163
239	0xbed458d4	-0.4147402
240	0x3fbfd56c	1.4987006
241	0xbd234b62	-0.039866813
242	0xbf4e1b27	-0.8051018
243	0xbf94cb0c	-1.1624465
244	0x3edab4b6	0.42715997
245	0xbe905876	-0.2819249
246	0xbc514702	-0.012773277
247	0xbf60bf1e	-0.8779162
248	0xbea51c49	-0.32248142
249	0x3e3b6283	0.18299298
250	0xbf6e2847	-0.9303021
251	0xbf9fd7ae	-1.2487695
252	0x3f8f4118	1.119174
253	0xbff436d7	-1.9079236
254	0xbf070e65	-0.5275634
255	0x3f8a52e9	1.0806552

weight f4 [8, 32]
0	0x3f33eff2	0.70288
1	0x3fbdf310	1.4839802
2	0x3de8dfec	0.11370835
3	0xbf3cb598	-0.7371459
4	0xbfdfec7c	-1.7494044
5	0x3fd29180	1.6450653
6	0xbf974169	-1.1816837
7	0xbf2316f1	-0.6370688
8	0xbf792061	-0.9731503
9	0xbff51231	-1.9146177
10	0x400446c7	2.06682
11	0x40092a04	2.1431894
12	0x3cd91be3	0.026502555
13	0x3f5525f4	0.83261037
14	0xbef87e87	-0.48534033
15	0xbf9a400f	-1.2050799
16	0xbf336901	-0.700821
17	0x4006614b	2.0996883
18	0x3de9e257	0.11420124
19	0xbd846fa9	-0.0646661
20	0x3f170f0e	0.59007347
21	0x3f1c12b4	0.6096604
22	0xbf353d5e	-0.70796764
23	0xbec51cb6	-0.38498467
24	0xbf344475	-0.7041696
25	0x3d7c380f	0.0615769
26	0x3d855d39	0.065119214
27	0x3f4c3bbb	0.7977864
28	0x3f2a2bb3	0.6647293
29	0x3f81db7e	1.0145109
30	0x3ef68cb4	0.48154223
31	0xbfcbba79	-1.5916282
32	0xbf68d032	-0.9094268
33	0xbfa5511f	-1.2915381
34	0x3f5d4fec	0.86450076
35	0x3f407327	0.7517571
36	0x3fb1e32a	1.389745
37	0xbfe05422	-1.7525675
38	0xbf93549e	-1.1510198
39	0x3f6076b4	0.87681127
40	0x400749ad	2.1138718
41	0xc00a6513	-2.162419
42	0xbf4ca324	-0.7993643
43	0xbf29ed72	-0.6637794
44	0xbf72011b	-0.94532937
45	0xbf1d846f	-0.615302
46	0x3da97c81	0.082757
47	0xbec2b726	-0.38030356
48	0xbef2e9dc	-0.47444046
49	0xbd58cacf	-0.05292779
50	0x3f131e95	0.5746854
51	0xbf89370e	-1.0719926
52	0xbf170156	-0.58986413
53	0x3fc9f17f	1.5776824
54	0x3ebe4a69	0.37166145
55	0x3faec31d	1.3653294
56	0x3f4e6a76	0.80631196
57	0x3f3537cb	0.7078826
58	0x3ed96642	0.4246083
59	0xbfac60bf	-1.3467025
60	0xbf531281	-0.8245011
61	0xbf03b7df	-0.5145244
62	0xbf013a59	-0.50479656
63	0x3f6109b3	0.87905425
64	0x3ed133d3	0.4085985
65	0xbfbc8dad	-1.4730736
66	0x3f4dd4f8	0.8040309
67	0xbe11ee8b	-0.14251153
68	0xbf62fddc	-0.8866861
69	0xbf998026	-1.1992233
70	0x3fae4d7f	1.36174
71	0x3f8caad1	1.0989629
72	0x3e4b8b41	0.1987734
73	0xbfb7f2c2	-1.4370959
74	0xbec60a46	-0.38679713
75	0xbf197a3d	-0.59952146
76	0x3f58a200	0.8462219
77	0x3f9752fb	1.1822199
78	0x40030474	2.0471468
79	0x3e0b69d3	0.13614587
80	0x3e11759e	0.14205024
81	0x3ec637ae	0.38714355
82	0x3fb337a4	1.4001355
83	0x3da6e2fd	0.08148763
84	0x3fe339e8	1.7752047
85	0xbfa51e54	-1.289988
86	0x3f21d792	0.6321956
87	0xbe673d89	-0.22582068
88	0xbfdd3b89	-1.7283794
89	0xbea4d537	-0.3219392
90	0xbe1d543f	-0.15364169
91	0x3ffea94d	1.9895416
92	0xbe3c1519	-0.18367423
93	0xbf3074d2	-0.68928254
94	0x3f093a42	0.5360452
95	0x3bfe174a	0.007754241
96	0xbf17203d	-0.59033567
97	0xbf4c070e	-0.79698265
98	0xbfeb4e0c	-1.8383193
99	0x3f7c9789	0.98668724
100	0xbee37200	-0.44422913
101	0xbdde96e1	-0.108686216
102	0x3e243c63	0.1603866
103	0x3cd53f81	0.026031258
104	0xbf41008d	-0.75391465
105	0xbe9f85f4	-0.31156886
106	0x3f096a09	0.5367742
107	0xbe0c20a5	-0.13684328
108	0x3db3bdb6	0.08776419
109	0xbeb56334	-0.35427248
110	0x3fc61568	1.5475283
111	0x3f0335b1	0.512538
112	0x3f96e901	1.1789857
113	0xbed4fff3	-0.41601524
114	0xbf4d959b	-0.80306405
115	0xbe3d6787	-0.18496524
116	0xbee5902d	-0.4483656
117	0xbf757235	-0.9587739
118	0xbe159690	-0.14608216
119	0xbf062130	-0.5239439
120	0x3ee236a0	0.441823
121	0xbf726468	-0.9468446
122	0xbe117ed8	-0.14208543
123	0x3ee1d0da	0.44104654
124	0xbdf68697	-0.1203739
125	0x3f9fe36b	1.2491277
126	0xbf652d49	-0.89522225
127	0x3f37cec4	0.71799874
128	0x3ebca312	0.36843163
129	0x4011ddd8	2.2791653
130	0xbeae31b7	-0.34022304
131	0xbf4009c9	-0.7501493
132	0x3e96a082	0.29419333
133	0x3f433cb7	0.7626452
134	0x4029d520	2.653633
135	0x3ef22b0f	0.47298476
136	0x3d00a33a	0.031405665
137	0xbe1ae30c	-0.15125674
138	0x3fc4439a	1.533313
139	0x3f86981e	1.0515172
140	0xbeec3260	-0.46132183
141	0x400521fb	2.080199
142	0x3f54b695	0.830911
143	0xbf57735f	-0.8416042
144	0x3f34c902	0.70619214
145	0xbf8b3af4	-1.0877366
146	0x3d8ef457	0.06980198
147	0xbf92d083	-1.1469883
148	0xbf0ffc2f	-0.56244177
149	0xbe4a8b38	-0.1977967
150	0x3f4f6566	0.81014097
151	0xbf8064a1	-1.003071
152	0x3fc5e7de	1.5461385
153	0x3f9ef90e	1.2419755
154	0x3f121a4b	0.5707137
155	0xbc5cb439	-0.013470703
156	0xbf8cb539	-1.0992805
157	0x3fb22837	1.3918523
158	0x3f7e90d6	0.9943975
159	0x3f0b9877	0.5452952
160	0x3d2f8d49	0.04285935
161	0x3f692c0e	0.9108285
162	0x3fc74f70	1.5571117
163	0xbf359e1a	-0.7094437
164	0x3f298bc3	0.66228884
165	0xbfd19333	-1.6373047
166	0x3f14769c	0.57993484
167	0xbd8b93f3	-0.068153284
168	0x3e96518c	0.2935909
169	0xbf936ff6	-1.1518543
170	0x3fce339f	1.6109504
171	0x3f0c73a1	0.54863936
172	0xc033ee0a	-2.8114038
173	0x3dd9eb59	0.10640592
174	0xbf8f43d5	-1.1192576
175	0x3d0ff623	0.035146844
176	0xbdcd8939	-0.10035939
177	0xbf1cf3a9	-0.61309296
178	0x40050658	2.0785122
179	0x3f91e851	1.1399022
180	0x3faacf5d	1.3344532
181	0xbd97a9e6	-0.074054524
182	0xbfb30f50	-1.3989048
183	0xbf621878	-0.88318586
184	0x3ee2e40a	0.44314605
185	0x3d92dd72	0.071711436
186	0x3fafd61f	1.373722
187	0x3df6ece1	0.120569
188	0x3f2a73bb	0.6658284
189	0x3e2e8722	0.17043737
190	0x3f289048	0.65845156
191	0x3f830fa1	1.0239145
192	0x3eeb9f5d	0.46020022
193	0x3ea7b497	0.32754967
194	0x400b62d2	2.1779065
195	0x3f44a437	0.7681307
196	0xbd303d20	-0.043027043
197	0x3ddbadef	0.107265346
198	0xbe52e259	-0.20594157
199	0xbfa17d4f	-1.2616366
200	0xbe686f92	-0.2269881
201	0x3dda53f7	0.10660546
202	0xbe2c5810	-0.16830468
203	0x3e79275c	0.2433142
204	0xbf122602	-0.57089245
205	0x4015d060	2.3408432
206	0xc02440db	-2.5664585
207	0x3f7e5484	0.9934771
208	0xbc4be5d2	-0.01244493
209	0xbf327288	-0.6970601
210	0x3f4a4f14	0.79026914
211	0x3f014bc5	0.5050624
212	0xbf19b3dd	-0.60040075
213	0xbea84849	-0.3286765
214	0xbe904701	-0.28179172
215	0x3e8f5182	0.27991873
216	0x3f77c356	0.96782434
217	0xbf8afadc	-1.0857806
218	0x3f846efc	1.034637
219	0x3d2f5848	0.0428088
220	0xbe9ae6c9	-0.302542
221	0x3f0d4d9b	0.5519654
222	0xbf180de8	-0.5939622
223	0x3f459172	0.77175057
224	0xbe802074	-0.2502476
225	0xbefe985b	-0.49725613
226	0xbe1e6885	-0.15469559
227	0x3fbac883	1.4592441
228	0xbef366cd	-0.47539368
229	0x3da83afb	0.08214375
230	0x4010ee0e	2.2645297
231	0xbfa44f24	-1.2836652
232	0xbee86b8d	-0.45394555
233	0xbf7133c1	-0.94219595
234	0xbf2b6e67	-0.66965336
235	0x3d76c13e	0.060242884
236	0x3e15efd4	0.14642268
237	0x3e99f2ea	0.3006814
238	0xbf320c44	-0.69549966
239	0xbf8c16a7	-1.0944413
240	0x3f6df37a	0.9294964
241	0x3ea18b82	0.3155175
242	0xbec9d692	-0.39421517
243	0xbdc633f9	-0.09677882
244	0x3fa72a87	1.3059853
245	0xbfa180d7	-1.2617444
246	0xbd892848	-0.06697136
247	0x3e9986ca	0.29985648
248	0xbf344ef7	-0.7043299
249	0xbd1f9011	-0.03895575
250	0xbff12023	-1.8837932
251	0xbf1a3785	-0.60240966
252	0xbeac540e	-0.3365788
253	0x3e9ade31	0.30247644
254	0xbed933bd	-0.42422286
255	0x3e71aafc	0.23600382

weight f4 [65, 32]
0	0x3997a600	0.00028924644
1	0xbdcc0175	-0.099612154
2	0xbbcbf0e0	-0.006223783
3	0xbdfd724c	-0.12375316
4	0xbe028006	-0.1274415
5	0xbdb987fa	-0.090591386
6	0xbd06064c	-0.03272085
7	0x3e1c7b0b	0.15281312
8	0xbdec2078	-0.115296304
9	0xbcb25908	-0.021770969
10	0x3df620c6	0.1201797
11	0xbdd742b0	-0.105107665
12	0x3d00b720	0.03142464
13	0xbd6680fc	-0.056275353
14	0xbdf22330	-0.11823118
15	0x3dc63b8a	0.09679325
16	0xbe0e22cb	-0.1388046
17	0xbd328f94	-0.043593958
18	0x3da614ea	0.08109458
19	0xbe0b3e0b	-0.13597886
20	0xbcefabd8	-0.029256746
21	0x3e1008bb	0.1406583
22	0x3c44b4f0	0.0120060295
23	0xbcb8a6a8	-0.022540405
24	0x3d82150a	0.06351669
25	0xbde69d40	-0.11260462
26	0xbc8574a0	-0.016290963
27	0xbd816b11	-0.063192494
28	0xbd4cbebc	-0.049986586
29	0x3e327d37	0.17430578
30	0xbd76ce34	-0.060255244
31	0x3dcf1a76	0.10112469
32	0x3e2333fb	0.15937798
33	0xbdc768de	-0.09736799
34	0xbd55e884	-0.052223697
35	0xba4a1e00	-0.0007710159
36	0xbd95ed6f	-0.073206775
37	0xbcb81b28	-0.022473887
38	0xbe235d44	-0.15953547
39	0x3dca0b12	0.09865393
40	0xbd14d3d8	-0.036334842
41	0xbdd72edb	-0.10506984
42	0x3ddada22	0.10686137
43	0xbe0b62ac	-0.13611859
44	0x3b8a7640	0.0042255223
45	0xbe00b185	-0.12567718
46	0x3b37b1c0	0.0028029531
47	0xbda72294	-0.08160892
48	0x3e05d88d	0.13070889
49	0xbdbea981	-0.09309674
50	0x3dd03696	0.101666614
51	0xbd7a9afa	-0.061182953
52	0xbdf56872	-0.11982812
53	0xbe247fd9	-0.16064395
54	0x3db11dea	0.08648284
55	0x3c8f6238	0.017502889
56	0xbc069240	-0.00821358
57	0x3df8bcee	0.121454105
58	0x3cf36080	0.0297091
59	0x3e2c0331	0.16798092
60	0xbda928a8	-0.08259708
61	0x3d3fa5dc	0.046789035
62	0x3e0feb51	0.1405461
63	0x3df50aea	0.11964972
64	0xbe163e0d	-0.14672108
65	0xbcbb1ed0	-0.022841841
66	0x3d9c72ba	0.0763907
67	0x3d7a0b2c	0.06104581
68	0xbe3303c8	-0.17481911
69	0xbc9c3d80	-0.019072294
70	0xbdd2236c	-0.102606624
71	0x3d89d7d4	0.06730619
72	0x3d57d690	0.052694857
73	0x3d089e28	0.033353955
74	0xbe276643	-0.16347603
75	0xbe08ae70	-0.13347793
76	0xbd7d3392	-0.06181676
77	0xbcc7ff78	-0.02441381
78	0xbdaea80d	-0.08528147
79	0xbe2aadf0	-0.16667914
80	0x3dfa9836	0.12236063
81	0xbdd3e2e7	-0.103460126
82	0x3d559794	0.05214651
83	0x3cb7cc20	0.022436202
84	0x3e15d66f	0.14632581
85	0xbcc32f88	-0.023826376
86	0xbdbb6718	-0.09150523
87	0xbe0f1efc	-0.13976663
88	0xbd51ff34	-0.05126877
89	0xb918a400	-0.00014556944
90	0xbdbb451c	-0.09144041
91	0x3dae6b66	0.085165784
92	0xbe1a65be	-0.15077874
93	0xbe32925a	-0.17438641
94	0xbd65a70c	-0.05606751
95	0xbd99209e	-0.07476924
96	0x3e0e4c9f	0.13896416
97	0xbe11aef3	-0.14226894
98	0x3dcdbd1e	0.10045837
99	0x3db86f36	0.09005587
100	0xbdbfe822	-0.09370448
101	0xb7e66000	-2.746284e-05
102	0x3ce1ddd0	0.027571589
103	0x3c5df9d0	0.0135483295
104	0xbd60c832	-0.05487842
105	0xbb2d7700	-0.0026468635
106	0x3e124cf9	0.14287175
107	0xbc581460	-0.0131884515
108	0xbd935faf	-0.071959846
109	0x3dbb12fa	0.09134479
110	0x3e1c6b01	0.15275194
111	0xbd753c90	-0.05987221
112	0xbde45f4a	-0.111509874
113	0x3bc02480	0.005863726
114	0xbdfa8d42	-0.12233974
115	0xbd4f4568	-0.0506033
116	0xbdb776b2	-0.08958186
117	0x3d273640	0.04082322
118	0xbc0db5c0	-0.00864929
119	0xbdaf7517	-0.08567255
120	0x3df7bf7e	0.12097071
121	0x3d04f168	0.032456785
122	0xbe288632	-0.16457441
123	0xbe26a9a5	-0.16275652
124	0x3e0bd4a7	0.13655339
125	0x3dd852a2	0.10562636
126	0xbcbd6590	-0.023119718
127	0x3cc204b8	0.02368389
128	0x3d8d5bb2	0.06902255
129	0x3e263363	0.1623054
130	0x3e257e05	0.16161354
131	0xbc6852c0	-0.014179885
132	0xbe13023d	-0.14356323
133	0xbcb31c70	-0.021864146
134	0x3ddc09a6	0.10744028
135	0xbd9c9c2e	-0.076469764
136	0xbddc18d5	-0.10746924
137	0x3d833486	0.064065024
138	0x3e0bb6c9	0.13643946
139	0x3dfc17ce	0.12309228
140	0x3dde2076	0.10846035
141	0x3e319ac1	0.1734419
142	0x3cae5f60	0.021285713
143	0xbe1d6e60	-0.15374136
144	0xbcc052d0	-0.023476988
145	0x3d31d7c0	0.043418646
146	0x3e08561d	0.133141
147	0x3d63e760	0.05564058
148	0x3d6549c0	0.055978537
149	0x3daf90ee	0.08572565
150	0x3d06d16c	0.032914564
151	0xbd30f528	-0.04320255
152	0x3da924ea	0.08258994
153	0xbe19592c	-0.14975423
154	0x3dd5ce5a	0.10439749
155	0x3e349b13	0.17637281
156	0xbe0f20e8	-0.13977396
157	0xbcb65980	-0.022259474
158	0x3c31f260	0.010861009
159	0xbb3941c0	-0.002826795
160	0xbd8973d8	-0.067115486
161	0xbd50b750	-0.05095607
162	0xbd86027d	-0.06543443
163	0x3e0d318b	0.1378843
164	0x3daad8c6	0.083421275
165	0xbd81197f	-0.06303691
166	0xbdf265ef	-0.118358485
167	0xbe08933b	-0.13337414
168	0xbd8b9ed5	-0.06817404
169	0x3e275ccd	0.16343994
170	0xbdd509c6	-0.10402255
171	0xbd22cc84	-0.039745823
172	0x3e1d7ea9	0.15380348
173	0xbddff369	-0.10935099
174	0xbe061d3e	-0.13097093
175	0xbc2ac2c0	-0.010422409
176	0xbc942e80	-0.01808858
177	0xbd11b6d8	-0.035574764
178	0x3e27bb03	0.16379933
179	0xbdca96a8	-0.09892017
180	0xbe084074	-0.13305837
181	0xbcf31fb8	-0.02967821
182	0xbdca6f15	-0.098844685
183	0x3dc3e8c2	0.095658794
184	0x3e0edf37	0.13952337
185	0x3d987d3a	0.0744576
186	0x3ca93b60	0.020658195
187	0x3df87662	0.12131955
188	0xbd178af4	-0.03699775
189	0x3c8b9858	0.017040417
190	0xb9ba4800	-0.0003553033
191	0x3ce6a9e8	0.02815719
192	0xbbb663a0	-0.0055660754
193	0x3e349249	0.17633928
194	0x3d7375f4	0.05943866
195	0x3cc1ae50	0.023642689
196	0x3cae9778	0.02131246
197	0xbd8ae776	-0.06782429
198	0x3de1df1a	0.11028881
199	0x3db81432	0.08988227
200	0xbd856383	-0.06513121
201	0xbd8a486d	-0.06752095
202	0x3e0c6b3b	0.1371278
203	0x3d82a5c4	0.063792735
204	0xbe1930c7	-0.14960013
205	0x3e1857c3	0.14877228
206	0xbd4e2470	-0.05032772
207	0x3e062a27	0.13102017
208	0x3e0c7b0d	0.13718815
209	0xbd7b33c2	-0.061328657
210	0x3dfffd32	0.12499465
211	0x3bed11e0	0.007234797
212	0xbdef323b	-0.116795026
213	0xbcb1a350	-0.021684319
214	0x3e2affc7	0.16699134
215	0x3d2650f4	0.040604547
216	0x3d126404	0.035739914
217	0xbdfffbed	-0.12499223
218	0x3e2651dd	0.16242166
219	0xbd9ab304	-0.07553676
220	0xbdebb793	-0.115096234
221	0x3d550a20	0.05201161
222	0xbc341000	-0.010990143
223	0xbbc9cf00	-0.0061587095
224	0xbe07f666	-0.13277587
225	0xbc5082a0	-0.012726456
226	0xbbd52240	-0.006504327
227	0x3e0638c3	0.1310759
228	0xbe026509	-0.12733854
229	0x3d204c1c	0.039135084
230	0xbd30a094	-0.04312189
231	0x3cea3aa8	0.028592423
232	0xbdac1603	-0.08402636
233	0x3e1ae0d1	0.15124823
234	0x3b81ac00	0.0039572716
235	0xbe19f84c	-0.15036124
236	0x3daeecfa	0.085412934
237	0xbd580716	-0.052741133
238	0x3e1fd219	0.1560749
239	0xbcf49508	-0.02985622
240	0xbd1a57d8	-0.03768143
241	0xbe082c2a	-0.13298097
242	0xbccd55a8	-0.025065258
243	0xbe2ae7db	-0.16690008
244	0x3df91446	0.1216207
245	0x3c6e57b0	0.0145472735
246	0xbe12ddc0	-0.14342403
247	0x3e0e7f35	0.13915713
248	0x3daab516	0.08335321
249	0x3df554ce	0.11979066
250	0x3dfae70e	0.122511014
251	0x3e27e03f	0.16394137
252	0xbe10336d	-0.14082117
253	0xbd635abc	-0.055506453
254	0xbbf0fca0	-0.007354334
255	0x3dffc846	0.12489371

bias f4 [65]
0	0x3cacf3f0	0.021112412
1	0xbe03aa8f	-0.12858032
2	0x3dae2552	0.08503212
3	0x3db3484a	0.087540224
4	0xbe0a39f8	-0.13498676
5	0x3debf18a	0.11520679
6	0x3b18dbc0	0.002332434
7	0x3e0eadf9	0.13933553
8	0x3d1c4b70	0.03815788
9	0xbddb930b	-0.107214056
10	0x3d9cdf16	0.07659738
11	0xbd52bff4	-0.051452592
12	0xbd62653c	-0.055272326
13	0xbd235e50	-0.039884865
14	0x3df632d2	0.12021412
15	0x3c785e40	0.01515919
16	0x3dcb33ba	0.099219754
17	0x3d5ab8e8	0.053398997
18	0xbced9478	-0.02900146
19	0x3dc8a9e6	0.097980306
20	0x3de2806e	0.11059652
21	0x3d97f3fe	0.07419585
22	0xbe290a48	-0.16507828
23	0xbe110ad7	-0.14164291
24	0xbdc8da95	-0.09807316
25	0xbcb0cb20	-0.021581233
26	0xbd2123fc	-0.039340958
27	0xbd360804	-0.044441238
28	0x3daf0e06	0.08547597
29	0xbdf55bf1	-0.11980427
30	0x3e10f931	0.14157559
31	0xbd6e0752	-0.05811245
32	0xbdb2bf14	-0.087278515
33	0xbe239148	-0.15973389
34	0x3cccaa50	0.024983555
35	0x3b792d80	0.0038021505
36	0xbe0324f2	-0.12807062
37	0xbc30eb40	-0.0107982755
38	0xbd9eb3ea	-0.0774916
39	0xbc842e40	-0.016135335
40	0xbe2f84d4	-0.17140514
41	0xbcd12cf8	-0.025534138
42	0xbd93fe5a	-0.07226248
43	0x3bfb3ea0	0.0076673776
44	0xbe2bb5da	-0.1676859
45	0x3dceb24e	0.10092603
46	0xbe2a6e4a	-0.16643634
47	0x3bcf6c20	0.006330028
48	0x3d4863bc	0.04892324
49	0x3e1ca205	0.1529618
50	0xbd8a6f10	-0.06759465
51	0xbd7ae94a	-0.061257638
52	0x3d58f064	0.05296363
53	0x3c720360	0.0147713125
54	0xbd8d4b5f	-0.068991415
55	0x3dcfbba6	0.10143213
56	0x3e05d753	0.13070421
57	0x3da810b2	0.082063094
58	0x3dcc4542	0.099741474
59	0xbda19dc4	-0.078914195
60	0xbd9c4694	-0.07630649
61	0xbd04149c	-0.032246217
62	0x3c676060	0.014122099
63	0x3e2b76eb	0.16744582
64	0x3de8b17a	0.11361976
