calculator/models/model_add2_2024-07-23-18-03.pth (torch, 860578 bytes, 60 tensors)

weight f4 [13, 64]
0	0x3c588a52	0.013216572
1	0xbe1ef923	-0.15524726
2	0xbe3ca22a	-0.18421236
3	0xbf248d6b	-0.64278287
4	0x3f7fec0e	0.99969566
5	0x3ef71136	0.48255318
6	0xbe384f96	-0.1799911
7	0x3e234f44	0.15948206
8	0x3f177895	0.5916837
9	0x3fd76b93	1.6829704
10	0xbf9936ff	-1.1969908
11	0x3e6630d3	0.22479562
12	0x3e083dba	0.13304797
13	0x3ef29b98	0.47384334
14	0x3d25736e	0.040393285
15	0x3fb871b3	1.4409698
16	0x3f5845d9	0.8448158
17	0x3d4d5ba5	0.050136227
18	0x3de180eb	0.11010917
19	0x3f9cc2cb	1.2246946
20	0xbfba1ac2	-1.4539416
21	0x3f43ad3a	0.764362
22	0x3fbd5beb	1.4793676
23	0x3f86060b	1.0470594
24	0xbe784ad9	-0.24247302
25	0xbf8dd6ef	-1.1081218
26	0xbf1291d8	-0.5725379
27	0xbe1d396d	-0.15353937
28	0xbeabfffe	-0.33593744
29	0xbf34f513	-0.70686454
30	0x3f34104d	0.70337373
31	0x3fea435d	1.8301808
32	0xbf623b9d	-0.8837221
33	0xbf710e38	-0.9416232
34	0x3f9b6314	1.2139611
35	0x3d50b6d3	0.050955605
36	0x3c821454	0.015878834
37	0x3e0f1a0a	0.13974777
38	0x3e0ca777	0.13735758
39	0xbeb07b83	-0.34469232
40	0x3e1cf776	0.15328774
41	0xbea81c25	-0.32833973
42	0xbe102ff1	-0.14080788
43	0xbef0d043	-0.4703389
44	0xbfbe8982	-1.4885714
45	0x3f7b0098	0.9804778
46	0xbd238052	-0.039917298
47	0xbf9fbed1	-1.2480108
48	0x3fc19b92	1.5125601
49	0xbf189b74	-0.596122
50	0x3fbf878f	1.4963244
51	0xbf2267cc	-0.6343963
52	0xbeb24442	-0.34817702
53	0x3f565fb4	0.8373978
54	0x3fc09deb	1.5048193
55	0xbe5a02ed	-0.21290179
56	0x3f8f4d36	1.1195438
57	0xbf816af6	-1.0110767
58	0x3dea0588	0.11426836
59	0xbf8276fb	-1.019256
60	0xbe63e494	-0.22255164
61	0x3e8a5c99	0.2702377
62	0x3fac8951	1.3479406
63	0xbf6d2cd3	-0.9264652
64	0xbe48cdd0	-0.19609761
65	0xbde222be	-0.11041783
66	0xbdb835ca	-0.089946344
67	0x3ea6cf36	0.32579964
68	0x3e01bf8b	0.12670724
69	0x3f205c4b	0.6264083
70	0xbec344e6	-0.38138503
71	0xbf59d4d4	-0.85090375
72	0x3f59df40	0.8510628
73	0x3ddf0cae	0.1089109
74	0x3c8b8e4e	0.01703563
75	0x3f5520c9	0.8325315
76	0xbfa6b2be	-1.3023298
77	0x3e854c5b	0.26034817
78	0xbeafd01f	-0.3433847
79	0x3d3d1cfc	0.04617022
80	0x3ff002e7	1.8750886
81	0xbf864090	-1.0488453
82	0x3d5f543e	0.0545237
83	0x3e68fa13	0.22751646
84	0xbf732514	-0.9497845
85	0xbf5f4da7	-0.87227863
86	0x3f09a6d8	0.5377021
87	0x3e542170	0.2071588
88	0xbe1427d5	-0.1446832
89	0xbdcee5fd	-0.101024605
90	0x3e1f2891	0.15542819
91	0xbe94d387	-0.29067633
92	0xbe807cc1	-0.2509518
93	0xbf23edf3	-0.64034957
94	0xbec5f3b3	-0.3866249
95	0xbe169f63	-0.14709239
96	0xbf6f291a	-0.9342209
97	0xbf3cf099	-0.7380462
98	0xbe2626a9	-0.16225685
99	0x3eb55c99	0.3542221
100	0xbe4ec88e	-0.20193693
101	0x3da5faaa	0.08104451
102	0xbf14ed62	-0.5817472
103	0xbeee8cc8	-0.46591783
104	0x3e86cc7e	0.2632789
105	0x3eac3fc2	0.33642393
106	0x3ec4ecee	0.38462013
107	0x3e3147b2	0.17312506
108	0x3e301fb0	0.17199588
109	0x3fb1e37d	1.3897549
110	0x3e1487d0	0.14504933
111	0xbf9a66d2	-1.2062628
112	0xbdad8580	-0.08472729
113	0x3cc74b9a	0.024328042
114	0x3deb2e19	0.11483402
115	0xbf9975d0	-1.1989079
116	0x3c7ce354	0.015435059
117	0x3e26cd83	0.16289334
118	0xbf4a79ba	-0.7909199
119	0x3ee18a0a	0.44050628
120	0x3f4c0156	0.7968954
121	0xbcd0611a	-0.025436927
122	0xbe034497	-0.12819134
123	0xbf0930f8	-0.53590345
124	0xbf238e15	-0.63888675
125	0x3f5dc30f	0.8662576
126	0x3c84b19d	0.016197974
127	0xbf1ad11f	-0.60475343
128	0xbf1ccbe7	-0.6124863
129	0x3eaa70b8	0.33289123
130	0x3f0e8334	0.5566895
131	0x3ee2f8b4	0.4433037
132	0x3fc881e1	1.5664636
133	0x3f6290cf	0.8850221
134	0x3dc36c8e	0.095421895
135	0xbf2426c8	-0.64121675
136	0x3e858812	0.26080376
137	0xbdc11f15	-0.094297566
138	0x3f2fa5e4	0.68612504
139	0x3ec35060	0.3814726
140	0xbedd9662	-0.43278795
141	0xbec11d07	-0.3771746
142	0x3e490aa1	0.19632961
143	0x3f153b66	0.5829376
144	0x3f905416	1.1275661
145	0x3eb6cc54	0.35702765
146	0xbed4b667	-0.41545412
147	0xbddc3270	-0.10751808
148	0xbe936d9b	-0.2879456
149	0xbe0a98ed	-0.13534899
150	0x3e24cd91	0.16094042
151	0x3f845532	1.03385
152	0xbf416595	-0.75545627
153	0xbf038e8c	-0.51389384
154	0x3ead3e01	0.33836368
155	0xbf1b9ace	-0.6078309
156	0xbf16e988	-0.5895009
157	0xbf153c37	-0.58295006
158	0x3f3d553e	0.73958194
159	0xbea47c72	-0.32126194
160	0xbf7a07f3	-0.9766838
161	0x3e1d09d7	0.15335785
162	0xbda0e930	-0.07856977
163	0x3f2d17ba	0.6761433
164	0xbfe7ed5d	-1.8119313
165	0x3ec87d36	0.39158028
166	0xbec5a69f	-0.38603684
167	0xbe58db1b	-0.21177332
168	0x3df1f223	0.11813762
169	0x3f10cb46	0.5656017
170	0x3dbd8405	0.09253696
171	0xbe8cddea	-0.27513057
172	0xbefb3d11	-0.49070027
173	0x3f1337a3	0.5750677
174	0xbf205d2d	-0.62642175
175	0xbf633c9f	-0.88764375
176	0x3eb7818d	0.35841027
177	0xbf8763ea	-1.0577366
178	0x3dc4bf2b	0.09606775
179	0xbea4bc12	-0.32174736
180	0x3f057663	0.5213377
181	0x3f388229	0.7207361
182	0xbc64da4c	-0.013968062
183	0x3e368962	0.17825845
184	0x3f44a1df	0.76809496
185	0x3f37432d	0.7158688
186	0xbf285899	-0.6576019
187	0xbf309a6a	-0.6898562
188	0xbf060c83	-0.5236284
189	0x3f841d82	1.0321505
190	0x3e170ae1	0.14750244
191	0x3f2e4518	0.6807418
192	0x3e4c34cc	0.19942015
193	0xbf2a024a	-0.6640974
194	0x3f896f61	1.0737115
195	0x3fa10fa2	1.2582896
196	0x3fb2fbad	1.3983055
197	0x3e94b171	0.29041627
198	0x3ea6fd72	0.32615238
199	0xbf727f47	-0.9472546
200	0xbe157de3	-0.14598803
201	0xbf3c801d	-0.73632985
202	0x3f6d30d9	0.9265266
203	0x3eb6a885	0.35675445
204	0xbf60c017	-0.87793106
205	0xbe9b9f99	-0.303952
206	0x3dd4bd9c	0.103877276
207	0x3d75ca1c	0.0600072
208	0x3ed38ef5	0.41320005
209	0xbd84a32e	-0.064764366
210	0xbede9c0f	-0.43478438
211	0xbe8df940	-0.27729225
212	0xbdf66573	-0.12031069
213	0x3e33c5fd	0.17555995
214	0x3f5d7b1a	0.86515963
215	0x3f0a6431	0.5405913
216	0xbf8bb274	-1.0913835
217	0xbec438f0	-0.3832469
218	0x3cd804c3	0.026369458
219	0xbf2c3d16	-0.6728071
220	0xbea4a919	-0.3216026
221	0xbebbb066	-0.3665802
222	0x3e543d1e	0.2072644
223	0xbf882fe4	-1.0639615
224	0xbf603012	-0.8757335
225	0x3ee37afe	0.44429773
226	0xbdc341e2	-0.095340505
227	0x3da7e306	0.08197598
228	0xbf3da5e4	-0.74081254
229	0x3f4705a4	0.7774298
230	0xbf6eab77	-0.93230385
231	0xbe818b3e	-0.25301546
232	0x3eeaed4f	0.45884177
233	0x3dfb0e6a	0.12258609
234	0x3ea4c2c9	0.3217986
235	0xbf1fcf54	-0.6242573
236	0xbe448300	-0.19190598
237	0x3f1a5397	0.602838
238	0xbe87fbac	-0.26559198
239	0xbe821902	-0.25409704
240	0x3f8ad50e	1.0846269
241	0xbf97ea4e	-1.1868379
242	0xbe8e65b3	-0.27811965
243	0xbf5af8f8	-0.85536146
244	0x3ed056a0	0.4069109
245	0x3edbbafe	0.429161
246	0x3e91acb8	0.28452086
247	0xbf29de63	-0.6635496
248	0x3ed99371	0.424953
249	0x3f490750	0.78526783
250	0xbf8cf35c	-1.1011767
251	0xbf791956	-0.97304285
252	0x3ec69eda	0.3879307
253	0x3ec239dd	0.3793477
254	0xbe915644	-0.28386128
255	0x3f885aec	1.0652747

weight f4 [32, 64]
0	0x3fe36e10	1.7767963
1	0xbd59ff15	-0.05322178
2	0x3f4b7f05	0.7949069
3	0x3fd9a083	1.7002109
4	0x3f657861	0.8963681
5	0x3f93701d	1.1518589
6	0xbfdd616c	-1.7295356
7	0x3fd44916	1.6584804
8	0xbf496f80	-0.7868576
9	0x400145f1	2.019894
10	0xbed544b2	-0.41653973
11	0x3f38e02c	0.7221706
12	0xbeec0dfa	-0.46104413
13	0xbd528f38	-0.051406115
14	0x3f51f2cd	0.8201111
15	0xbe820649	-0.2539542
16	0x3de85f55	0.11346308
17	0xc048f7cf	-3.140125
18	0x3f3f35cf	0.7469148
19	0xbfa4313f	-1.2827529
20	0x3fc58d43	1.5433735
21	0x3f25ca1d	0.64761525
22	0x3ea523aa	0.32253772
23	0x40152c61	2.3308337
24	0xbf5f9a74	-0.8734505
25	0xbfa1cf94	-1.2641473
26	0x3ee8a065	0.4543487
27	0xbf54db61	-0.83147246
28	0xc027fbf7	-2.6247537
29	0xbf6532e7	-0.89530796
30	0x3f8a711a	1.0815766
31	0xbface093	-1.3506035
32	0x3e8eb658	0.27873492
33	0x3f24ece0	0.6442394
34	0x3f29948c	0.6624229
35	0x3fc2b96c	1.5212836
36	0x3d8f0dc3	0.06985047
37	0x3f55afb7	0.83471245
38	0xbefc7730	-0.49309683
39	0xbefea33b	-0.4973391
40	0xbe05024b	-0.12989156
41	0xbe577139	-0.21039285
42	0xbed3a583	-0.41337213
43	0x3f3d9e6b	0.7406985
44	0x3f08082a	0.5313746
45	0x3f440c97	0.7658171
46	0x3fc666c1	1.5500108
47	0x3f3a65d2	0.72811615
48	0xbe91a613	-0.28447017
49	0x3f715be9	0.9428087
50	0xbf112548	-0.5669751
51	0xc02dca05	-2.7154553
52	0x3e3f33a7	0.18672048
53	0x3e054d32	0.13017729
54	0x407970f8	3.89752
55	0x3eab7bee	0.33492988
56	0xbf9e3275	-1.2359148
57	0x3e090238	0.13379753
58	0xbfcd13f9	-1.602172
59	0xbf8b38b7	-1.0876683
60	0xbec38bb6	-0.38192528
61	0xc01529a2	-2.330666
62	0x3fb01c99	1.3758727
63	0xbafeb08d	-0.0019431278
64	0x3f840a25	1.0315596
65	0xbfe6004e	-1.7968843
66	0xbe00656d	-0.12538691
67	0xbe17174c	-0.14754981
68	0xbe92f22e	-0.28700393
69	0x3e0e4f00	0.13897324
70	0xbfe452b0	-1.7837734
71	0xbdf8d3ec	-0.12149796
72	0xbf50461d	-0.81356984
73	0xbebf2aa9	-0.37337235
74	0xbf494300	-0.7861786
75	0xbf0ae324	-0.5425284
76	0xbf46911c	-0.7756517
77	0x3e226bbc	0.1586141
78	0xbf45bf86	-0.77245367
79	0xbd8ad708	-0.06779295
80	0x3f5ab72a	0.85435736
81	0xbfc0c5fd	-1.5060421
82	0x3ec4554a	0.3834632
83	0xbd4588cb	-0.04822616
84	0x3df32f5b	0.11874267
85	0x3fe3c97f	1.7795867
86	0xbf3f561c	-0.7474077
87	0x3e5be9b4	0.2147587
88	0xbff2253a	-1.8917611
89	0xbea78b5a	-0.32723504
90	0x3f93659c	1.1515384
91	0xbf639869	-0.88904434
92	0xbf64483f	-0.8917274
93	0x3e84966c	0.25896013
94	0x3fe05667	1.7526368
95	0xbffa6ccf	-1.9564456
96	0x3ec5e0f8	0.386482
97	0x3f4d616f	0.80226797
98	0x3f0ac79a	0.5421082
99	0xbef7af02	-0.48375708
100	0xbeadc24f	-0.33937308
101	0x3f41dada	0.75724566
102	0x3fa01e4c	1.2509246
103	0x3f6a71c1	0.91579825
104	0x3fa847df	1.3146933
105	0x3f9ab6ed	1.2087075
106	0xbd770451	-0.06030685
107	0xbcc67f3f	-0.024230598
108	0xbf5832ed	-0.84452707
109	0x3fb13806	1.3845222
110	0x40040a7b	2.0631397
111	0x3f447583	0.7674181
112	0xbf93231b	-1.1495088
113	0xbeb3f9b6	-0.35151452
114	0xbe0aa506	-0.13539514
115	0xbf8f1b26	-1.118016
116	0xbe975df5	-0.2956387
117	0x3f050909	0.5196691
118	0xbdb69311	-0.089147694
119	0x401d216d	2.4551651
120	0xbf4b70cb	-0.79468983
121	0x3f2fbd34	0.68648076
122	0x3f95fcd7	1.1717786
123	0xbf17ea47	-0.59341854
124	0x3e360247	0.17774306
125	0x3feca542	1.8487933
126	0x400b6092	2.1777692
127	0x3fef4094	1.8691583
128	0x3ea8f5bc	0.3299998
129	0xbf6d7104	-0.92750573
130	0x3d0b9cb8	0.034085006
131	0x3fae8364	1.3633847
132	0xbebef7bf	-0.3729839
133	0x3f0ef501	0.55842596
134	0xbff0028e	-1.875078
135	0xbd75d10e	-0.060013823
136	0xbeeb4804	-0.4595338
137	0x3f49d512	0.78840744
138	0xbf823290	-1.017168
139	0x3e434d97	0.19072567
140	0xbeedf19a	-0.4647339
141	0x3f8d6bf6	1.1048572
142	0xbc81a15d	-0.015824014
143	0xbd9d6d56	-0.0768687
144	0x3f9a229c	1.2041812
145	0xbf9456c8	-1.1588984
146	0xbed4e9dd	-0.41584674
147	0x3f5bad43	0.8581125
148	0x3e9cca2e	0.30623
149	0xbf963dce	-1.1737611
150	0x3f4822d1	0.78178126
151	0xbf9cb6d2	-1.2243292
152	0xbf911b60	-1.1336479
153	0xbee48c6e	-0.4463839
154	0x3e8339c5	0.25630012
155	0x3cc83745	0.024440417
156	0xbe947991	-0.28998998
157	0xbf927722	-1.1442606
158	0x3c789a2d	0.015173477
159	0x3f7d6b0a	0.98991454
160	0x3f49a42c	0.7876613
161	0x3f1a1ec2	0.6020318
162	0x3d0cd2a7	0.03438058
163	0x3fc3ebc3	1.5306324
164	0x3f316a84	0.69303155
165	0x3fe95595	1.8229243
166	0x3ec03eb3	0.37547836
167	0xbf701775	-0.9378579
168	0xbe635294	-0.2219947
169	0xbfcea269	-1.6143314
170	0xbde45528	-0.11149055
171	0x3eb8543b	0.36001763
172	0xbecfc878	-0.40582633
173	0xbf0f6a10	-0.56021214
174	0xbe2f853f	-0.17140673
175	0x3d9749c2	0.07387115
176	0x3eb42fa5	0.351926
177	0x3f80d695	1.0065485
178	0xbf4ea6ce	-0.80723274
179	0x3f00027c	0.5000379
180	0xbe9ac928	-0.30231595
181	0x3f018934	0.5059998
182	0xbf15ecf1	-0.5856467
183	0x3e61c2d2	0.22046974
184	0xbfb05b69	-1.3777896
185	0x3eed7c5e	0.46383947
186	0xbe510f8d	-0.20416088
187	0xbf45cb2a	-0.7726313
188	0xbe9a05ba	-0.30082494
189	0x3f148564	0.5801604
190	0xbea4a2c9	-0.32155445
191	0x3fecf165	1.8511168
192	0x3f938f85	1.1528174
193	0xbf5f9d63	-0.8734953
194	0xbd4143c2	-0.04718376
195	0x3e53525f	0.20636891
196	0x3df39d38	0.118952215
197	0x3f167583	0.5877306
198	0xbf5667ca	-0.8375212
199	0xbfb66b85	-1.4251562
200	0xbf8120bd	-1.0088116
201	0x3e1817ef	0.1485288
202	0xbe4a23aa	-0.19740167
203	0x3eebf1c8	0.46082902
204	0xbee193ae	-0.44057983
205	0x3e8a3a03	0.26997384
206	0xbfb427af	-1.407461
207	0xc0030afa	-2.047545
208	0xbf95ec92	-1.171282
209	0xbf379255	-0.7170766
210	0xbf40f3ce	-0.75372016
211	0xbcaf5c75	-0.021406392
212	0x3fad91c7	1.3560113
213	0xbf88ed4b	-1.0697416
214	0x3dbceb2c	0.09224543
215	0x3f0e2cf6	0.55537355
216	0x3fa30949	1.2737209
217	0x3f5edac6	0.8705257
218	0x3fb0cc21	1.3812295
219	0xbf8b7f57	-1.0898236
220	0xbee84807	-0.45367453
221	0xbf42ab39	-0.76042515
222	0x3ead59e3	0.3385764
223	0x3f981528	1.1881456
224	0xbe829407	-0.2550356
225	0x3e8b82bc	0.2724818
226	0xbf0bc17f	-0.54592127
227	0x3f2a8a95	0.6661771
228	0x3ed8d990	0.42353487
229	0x3f804c0c	1.0023208
230	0x3e169d38	0.14708412
231	0x3b4508ec	0.0030065132
232	0x3d4e1716	0.050314985
233	0x3fb6db88	1.4285746
234	0xbface80f	-1.3508319
235	0x3ed18977	0.4092519
236	0xbe92ca91	-0.2867017
237	0x3eb23b0f	0.34810683
238	0x3ec0517f	0.37562177
239	0xbf9d4544	-1.2286763
240	0x3fa70155	1.3047282
241	0x3f960954	1.1721597
242	0xbe9d8212	-0.30763298
243	0x3fed3f6c	1.853498
244	0x3ebf998d	0.37421837
245	0x3e86ed45	0.26352897
246	0xbde4651f	-0.111521
247	0xbefcd624	-0.49382126
248	0xbec0a63e	-0.37626833
249	0xbecc33b7	-0.39883205
250	0x3f095fb1	0.5366164
251	0xbf8704b4	-1.054831
252	0xbf0b5db8	-0.5443988
253	0xbdb18541	-0.08667994
254	0x3ee00c2e	0.43759292
255	0x3f0dcff2	0.55395424

tril f4 [32, 32]
0	0x3f800000	1.0
1	0x00000000	0.0
2	0x00000000	0.0
3	0x00000000	0.0
4	0x00000000	0.0
5	0x00000000	0.0
6	0x00000000	0.0
7	0x00000000	0.0
8	0x00000000	0.0
9	0x00000000	0.0
10	0x00000000	0.0
11	0x00000000	0.0
12	0x00000000	0.0
13	0x00000000	0.0
14	0x00000000	0.0
15	0x00000000	0.0
16	0x00000000	0.0
17	0x00000000	0.0
18	0x00000000	0.0
19	0x00000000	0.0
20	0x00000000	0.0
21	0x00000000	0.0
22	0x00000000	0.0
23	0x00000000	0.0
24	0x00000000	0.0
25	0x00000000	0.0
26	0x00000000	0.0
27	0x00000000	0.0
28	0x00000000	0.0
29	0x00000000	0.0
30	0x00000000	0.0
31	0x00000000	0.0
32	0x3f800000	1.0
33	0x3f800000	1.0
34	0x00000000	0.0
35	0x00000000	0.0
36	0x00000000	0.0
37	0x00000000	0.0
38	0x00000000	0.0
39	0x00000000	0.0
40	0x00000000	0.0
41	0x00000000	0.0
42	0x00000000	0.0
43	0x00000000	0.0
44	0x00000000	0.0
45	0x00000000	0.0
46	0x00000000	0.0
47	0x00000000	0.0
48	0x00000000	0.0
49	0x00000000	0.0
50	0x00000000	0.0
51	0x00000000	0.0
52	0x00000000	0.0
53	0x00000000	0.0
54	0x00000000	0.0
55	0x00000000	0.0
56	0x00000000	0.0
57	0x00000000	0.0
58	0x00000000	0.0
59	0x00000000	0.0
60	0x00000000	0.0
61	0x00000000	0.0
62	0x00000000	0.0
63	0x00000000	0.0
64	0x3f800000	1.0
65	0x3f800000	1.0
66	0x3f800000	1.0
67	0x00000000	0.0
68	0x00000000	0.0
69	0x00000000	0.0
70	0x00000000	0.0
71	0x00000000	0.0
72	0x00000000	0.0
73	0x00000000	0.0
74	0x00000000	0.0
75	0x00000000	0.0
76	0x00000000	0.0
77	0x00000000	0.0
78	0x00000000	0.0
79	0x00000000	0.0
80	0x00000000	0.0
81	0x00000000	0.0
82	0x00000000	0.0
83	0x00000000	0.0
84	0x00000000	0.0
85	0x00000000	0.0
86	0x00000000	0.0
87	0x00000000	0.0
88	0x00000000	0.0
89	0x00000000	0.0
90	0x00000000	0.0
91	0x00000000	0.0
92	0x00000000	0.0
93	0x00000000	0.0
94	0x00000000	0.0
95	0x00000000	0.0
96	0x3f800000	1.0
97	0x3f800000	1.0
98	0x3f800000	1.0
99	0x3f800000	1.0
100	0x00000000	0.0
101	0x00000000	0.0
102	0x00000000	0.0
103	0x00000000	0.0
104	0x00000000	0.0
105	0x00000000	0.0
106	0x00000000	0.0
107	0x00000000	0.0
108	0x00000000	0.0
109	0x00000000	0.0
110	0x00000000	0.0
111	0x00000000	0.0
112	0x00000000	0.0
113	0x00000000	0.0
114	0x00000000	0.0
115	0x00000000	0.0
116	0x00000000	0.0
117	0x00000000	0.0
118	0x00000000	0.0
119	0x00000000	0.0
120	0x00000000	0.0
121	0x00000000	0.0
122	0x00000000	0.0
123	0x00000000	0.0
124	0x00000000	0.0
125	0x00000000	0.0
126	0x00000000	0.0
127	0x00000000	0.0
128	0x3f800000	1.0
129	0x3f800000	1.0
130	0x3f800000	1.0
131	0x3f800000	1.0
132	0x3f800000	1.0
133	0x00000000	0.0
134	0x00000000	0.0
135	0x00000000	0.0
136	0x00000000	0.0
137	0x00000000	0.0
138	0x00000000	0.0
139	0x00000000	0.0
140	0x00000000	0.0
141	0x00000000	0.0
142	0x00000000	0.0
143	0x00000000	0.0
144	0x00000000	0.0
145	0x00000000	0.0
146	0x00000000	0.0
147	0x00000000	0.0
148	0x00000000	0.0
149	0x00000000	0.0
150	0x00000000	0.0
151	0x00000000	0.0
152	0x00000000	0.0
153	0x00000000	0.0
154	0x00000000	0.0
155	0x00000000	0.0
156	0x00000000	0.0
157	0x00000000	0.0
158	0x00000000	0.0
159	0x00000000	0.0
160	0x3f800000	1.0
161	0x3f800000	1.0
162	0x3f800000	1.0
163	0x3f800000	1.0
164	0x3f800000	1.0
165	0x3f800000	1.0
166	0x00000000	0.0
167	0x00000000	0.0
168	0x00000000	0.0
169	0x00000000	0.0
170	0x00000000	0.0
171	0x00000000	0.0
172	0x00000000	0.0
173	0x00000000	0.0
174	0x00000000	0.0
175	0x00000000	0.0
176	0x00000000	0.0
177	0x00000000	0.0
178	0x00000000	0.0
179	0x00000000	0.0
180	0x00000000	0.0
181	0x00000000	0.0
182	0x00000000	0.0
183	0x00000000	0.0
184	0x00000000	0.0
185	0x00000000	0.0
186	0x00000000	0.0
187	0x00000000	0.0
188	0x00000000	0.0
189	0x00000000	0.0
190	0x00000000	0.0
191	0x00000000	0.0
192	0x3f800000	1.0
193	0x3f800000	1.0
194	0x3f800000	1.0
195	0x3f800000	1.0
196	0x3f800000	1.0
197	0x3f800000	1.0
198	0x3f800000	1.0
199	0x00000000	0.0
200	0x00000000	0.0
201	0x00000000	0.0
202	0x00000000	0.0
203	0x00000000	0.0
204	0x00000000	0.0
205	0x00000000	0.0
206	0x00000000	0.0
207	0x00000000	0.0
208	0x00000000	0.0
209	0x00000000	0.0
210	0x00000000	0.0
211	0x00000000	0.0
212	0x00000000	0.0
213	0x00000000	0.0
214	0x00000000	0.0
215	0x00000000	0.0
216	0x00000000	0.0
217	0x00000000	0.0
218	0x00000000	0.0
219	0x00000000	0.0
220	0x00000000	0.0
221	0x00000000	0.0
222	0x00000000	0.0
223	0x00000000	0.0
224	0x3f800000	1.0
225	0x3f800000	1.0
226	0x3f800000	1.0
227	0x3f800000	1.0
228	0x3f800000	1.0
229	0x3f800000	1.0
230	0x3f800000	1.0
231	0x3f800000	1.0
232	0x00000000	0.0
233	0x00000000	0.0
234	0x00000000	0.0
235	0x00000000	0.0
236	0x00000000	0.0
237	0x00000000	0.0
238	0x00000000	0.0
239	0x00000000	0.0
240	0x00000000	0.0
241	0x00000000	0.0
242	0x00000000	0.0
243	0x00000000	0.0
244	0x00000000	0.0
245	0x00000000	0.0
246	0x00000000	0.0
247	0x00000000	0.0
248	0x00000000	0.0
249	0x00000000	0.0
250	0x00000000	0.0
251	0x00000000	0.0
252	0x00000000	0.0
253	0x00000000	0.0
254	0x00000000	0.0
255	0x00000000	0.0

weight f4 [64, 64]
0	0x3e86d776	0.2633626
1	0x3dc8ad47	0.09798675
2	0x3e69a912	0.22818401
3	0xbebfcf22	-0.37462717
4	0x3eeb5af2	0.45967823
5	0xbc9e9ca4	-0.019361801
6	0x3ea0f93f	0.3144016
7	0x3e700b57	0.23441826
8	0x3f086b9d	0.53289205
9	0x3e9063a3	0.28201017
10	0xbe8ba5d7	-0.27274963
11	0xbdbbb8d8	-0.091661155
12	0xbe9817de	-0.2970571
13	0x3b784355	0.003788193
14	0x3ed84ae9	0.42244652
15	0xbdd57505	-0.1042271
16	0x3dd8798f	0.105700605
17	0x3d95213b	0.07281729
18	0xbdb64909	-0.08900649
19	0x3e1841cc	0.1486885
20	0x3d11557b	0.03548191
21	0xbdb413bd	-0.08792827
22	0x3d386405	0.04501726
23	0xbde071a0	-0.10959172
24	0xbe495bc6	-0.19663915
25	0xbc10d604	-0.008840088
26	0xbe0611b4	-0.1309269
27	0xbd99e9d7	-0.075153045
28	0xbc01d896	-0.007925173
29	0x3cf610ca	0.030037303
30	0xbe43adbf	-0.19109248
31	0x3e36e68e	0.17861387
32	0x3cb31573	0.021860814
33	0xbd9488ac	-0.072526306
34	0x3cb32063	0.02186603
35	0x3dc616c4	0.09672311
36	0x3d52a382	0.051425464
37	0xbe118742	-0.14211753
38	0x3e8cea09	0.27522305
39	0x3dbed4bc	0.093179196
40	0x3e338ccf	0.17534183
41	0xbe01759a	-0.12642518
42	0x3e6fa251	0.23401763
43	0xbea73f14	-0.32665312
44	0x3d00e538	0.0314686
45	0xbe7f1876	-0.24911675
46	0xbe82e1d5	-0.2556292
47	0x3e98f957	0.2987773
48	0x3d5d4fe3	0.054031264
49	0xbe7bf2f4	-0.24604398
50	0xbd2a7d1f	-0.04162323
51	0xbdcbd7b9	-0.09953255
52	0x3e3925ba	0.18080798
53	0x3e3e65ec	0.18593568
54	0x3e62bc76	0.22142205
55	0x3d358a1d	0.04432117
56	0xbf0a6406	-0.54058874
57	0x3ebb892e	0.36628097
58	0xbea0e876	-0.31427354
59	0xbe1a1101	-0.15045549
60	0xbdd20f7e	-0.10256861
61	0x3d938788	0.07203585
62	0x3db44363	0.088019155
63	0xbeb38265	-0.3506042
64	0x3e5fe9e2	0.21866563
65	0x3e8534a1	0.26016715
66	0x3c94bb22	0.018155638
67	0x3f110116	0.5664228
68	0x3dc63846	0.09678702
69	0xbd126bb5	-0.03574725
70	0xbd012209	-0.0315266
71	0x3de2d594	0.11075893
72	0xbe461961	-0.19345619
73	0x3de2172d	0.11039577
74	0xbe7eb92a	-0.24875322
75	0xbe4fcdb0	-0.20293307
76	0xbee93296	-0.45546407
77	0xbdd73574	-0.10508242
78	0xbdb5306a	-0.08847125
79	0xbd95c353	-0.07312646
80	0x3e69448f	0.2278006
81	0x3e79658d	0.24355145
82	0x3ea7ac62	0.32748705
83	0x3daafb64	0.0834873
84	0xbe206001	-0.15661623
85	0x3e646a28	0.2230612
86	0x3dbf443b	0.09339186
87	0xbd7f4b9f	-0.062327977
88	0x3f4562cc	0.7710388
89	0xbaaa3f8a	-0.0012988907
90	0x3db73053	0.08944764
91	0xbd114bc1	-0.035472635
92	0xbda5b3cd	-0.08090935
93	0xbd6f68fa	-0.058449723
94	0x3d135d3c	0.035977587
95	0xbdda4a45	-0.10658697
96	0xbd9d6b5e	-0.07686494
97	0xbe2858bf	-0.16440104
98	0xbaa1484e	-0.0012304874
99	0xbdaa8b2e	-0.08327328
100	0x3d39b8e2	0.045342334
101	0xbeb7ecb5	-0.3592278
102	0xbc6765cc	-0.014123391
103	0x3ecf9e62	0.40550524
104	0xbe1d25b0	-0.15346408
105	0x3ce4d6c1	0.027934434
106	0xbe22cf32	-0.15899351
107	0x3e848c99	0.25888517
108	0x3d4ef810	0.05052954
109	0x3d6fb393	0.058520865
110	0xbd63e5f9	-0.05563924
111	0x3c2ac5cf	0.010423138
112	0x3e9386d5	0.28813806
113	0x3e33bfb7	0.17553602
114	0xbee72935	-0.45148626
115	0xbeba35f8	-0.363693
116	0x3f5e5494	0.86847806
117	0xbdd1fc75	-0.102532305
118	0x3efe6c85	0.4969217
119	0x3ca32f80	0.01992011
120	0xbd0206f4	-0.031744912
121	0xbf4730da	-0.77808917
122	0x3e43bc76	0.19114861
123	0xbd0e5d5e	-0.03475701
124	0xbdd25c5f	-0.10271525
125	0xbe9a57f5	-0.3014523
126	0xbc6f38b5	-0.014600922
127	0x3dd3af5a	0.1033618
128	0x3c8a1a00	0.0168581
129	0x3db313ca	0.08744009
130	0xbe8316d4	-0.25603354
131	0xbe16c7d1	-0.14724661
132	0xbc772388	-0.015084155
133	0xbe5c69fc	-0.21524805
134	0xbea20f01	-0.31652072
135	0x3d548016	0.051879965
136	0xbe447275	-0.19184287
137	0x3d98710b	0.07443436
138	0x3e4c7350	0.19965863
139	0xbc9ac6cb	-0.01889362
140	0xbe8c4dd2	-0.27403122
141	0x3de43e74	0.111447245
142	0xbdeed30f	-0.1166135
143	0x3e5a1790	0.21298051
144	0xbd8befdf	-0.06832861
145	0x3b56ccc2	0.0032775854
146	0xbdb39da5	-0.08770303
147	0xbdd19409	-0.102333136
148	0xbd850e91	-0.06496919
149	0x3d904570	0.07044494
150	0xbc263981	-0.010145546
151	0x3da4839d	0.08032916
152	0x3d420f23	0.047377717
153	0xbd05f46f	-0.032703813
154	0xbd429aa5	-0.04751076
155	0xbe39436e	-0.18092129
156	0xbe28dd96	-0.16490778
157	0x3e6bad30	0.23015285
158	0xbdadd7c5	-0.084884204
159	0x3e26f32d	0.16303702
160	0x3da0121d	0.07815955
161	0xbdc1f31b	-0.09470197
162	0xbd025b3c	-0.03182529
163	0xbe30d7b4	-0.17269784
164	0xbe2ffbc1	-0.1718588
165	0xbdb89229	-0.09012253
166	0xbe12cee8	-0.14336741
167	0xbd0effec	-0.034912035
168	0xbccbf0ea	-0.02489515
169	0x3dfc3059	0.12313909
170	0xbd298e3e	-0.04139542
171	0xbdeb3777	-0.114851885
172	0xbcea7185	-0.028618583
173	0x3c33a93f	0.010965644
174	0x3d6a925a	0.057268478
175	0x3e161155	0.14655049
176	0xba97427f	-0.0011540203
177	0xbe3390c3	-0.17535691
178	0x3ce41848	0.02784361
179	0xbd8cb3a3	-0.068702005
180	0xbe12da3d	-0.14341064
181	0x3d08cb3b	0.03339694
182	0x3f0fda6f	0.5619268
183	0xbc4d973c	-0.012548264
184	0x3e8aae02	0.27085882
185	0xbc7ef664	-0.015561674
186	0x3e8153de	0.25259298
187	0x3ddadfa4	0.10687187
188	0x3f2c092f	0.67201513
189	0xba743f5e	-0.0009317304
190	0x3e775f67	0.24157487
191	0xbe447bfe	-0.19187924
192	0xbe1a95fc	-0.15096277
193	0x3e2156ff	0.15755843
194	0x3ed30510	0.412148
195	0x3ebafecb	0.36522517
196	0xbe966699	-0.2937515
197	0xbd7ef684	-0.062246814
198	0xbeb4a346	-0.35280818
199	0x3d7ff2d0	0.062487423
200	0x3d9e87ec	0.07740769
201	0x3c8a3594	0.016871251
202	0x3e5fc4ea	0.2185246
203	0xbeb99916	-0.36249608
204	0x3ea64443	0.32473955
205	0xbd0c56e8	-0.034262568
206	0x3e047926	0.1293684
207	0xbe9d2493	-0.30691966
208	0xbd6daf64	-0.058028594
209	0xbe28ee5a	-0.16497174
210	0xbc10f871	-0.008848296
211	0xbe0623a9	-0.13099541
212	0x3d088baa	0.03333632
213	0x3b4f776e	0.003165688
214	0xbe3fbc5a	-0.18724194
215	0x3dfd9c04	0.12383273
216	0x3e798759	0.24368037
217	0x3dc442a9	0.09583027
218	0xbd213831	-0.03936023
219	0x3c3fa097	0.011696002
220	0x3d349763	0.044089686
221	0xbd81477b	-0.06312462
222	0xbe04228f	-0.12903808
223	0x3e634ccd	0.22197266
224	0x3d9da415	0.07697312
225	0x3e373479	0.1789111
226	0x3e1b1e7e	0.1514835
227	0xbd9f894a	-0.07789858
228	0x3d00e2e7	0.03146639
229	0xbcbd1aac	-0.023084007
230	0x3db6540a	0.08902748
231	0x3e460095	0.1933616
232	0x3cef33dc	0.029199533
233	0x3db13ffb	0.086547814
234	0x3e00f9ab	0.12595241
235	0x3e4a26e8	0.19741404
236	0xbd83808b	-0.06421002
237	0x3cd4458a	0.025912065
238	0xbe43afc2	-0.19110015
239	0xbea20250	-0.3164239
240	0xbed34445	-0.41263023
241	0x3e885986	0.266308
242	0xbe4a4ab4	-0.1975506
243	0x3e6ca948	0.2311145
244	0xbe6a17cd	-0.22860642
245	0xbf00cf54	-0.5031636
246	0x3d9ffdc9	0.078120776
247	0x3decd6f4	0.115644366
248	0x3e96a168	0.29420018
249	0xbec7a3a6	-0.3899204
250	0x39ce7a54	0.00039382523
251	0x3e310b86	0.17289552
252	0xbea330a6	-0.31873053
253	0x3d6cdc19	0.05782709
254	0xbec1633c	-0.37771022
255	0x3d00c5f6	0.03143879

bias f4 [64]
0	0x3e94dadc	0.29073226
1	0xbf93855c	-1.1525073
2	0xbb1d06be	-0.0023960317
3	0x3d3c3aac	0.04595439
4	0xbdc920bb	-0.09820696
5	0xbd15da74	-0.036585286
6	0xbf0341d3	-0.51272315
7	0x3e685c0c	0.22691363
8	0x39e08991	0.00042827104
9	0xbe48470c	-0.19558352
10	0xbd9ba6ff	-0.07600211
11	0xb8aecb80	-8.3348714e-05
12	0x3f10748a	0.56427824
13	0xbf0ce9fe	-0.55044544
14	0xbe8483c6	-0.25881785
15	0xbe912daf	-0.28355166
16	0xbe20acc5	-0.15690906
17	0xbe01e82f	-0.12686227
18	0x3e1122fa	0.14173499
19	0xbcce109c	-0.025154404
20	0x3e1174ed	0.1420476
21	0x3e34e26d	0.176645
22	0x3dcd10f1	0.10012997
23	0x3d9f5426	0.07779722
24	0x3e30c7ff	0.17263792
25	0xbe0e5c27	-0.13902341
26	0x3e523dd9	0.20531406
27	0x3d4cc809	0.049995456
28	0xbea71e99	-0.32640532
29	0xbedb08a9	-0.42780045
30	0x3f556860	0.8336239
31	0xbd6dc406	-0.05804827
32	0x3cc4beab	0.024016699
33	0x3e4bb2dc	0.19892448
34	0xbf25f2a9	-0.64823395
35	0x3d761d0f	0.060086306
36	0xbe7af4fe	-0.2450752
37	0xbdd5af5e	-0.10433839
38	0xbe172500	-0.14760208
39	0x3e1c0e92	0.15239933
40	0xbd3df5f8	-0.046377152
41	0x3d744197	0.059632864
42	0xbdb54cae	-0.08852516
43	0x3cd2667b	0.025683632
44	0x3ccce269	0.025010305
45	0xbd790e92	-0.06080491
46	0xbd3fb054	-0.04679902
47	0x3ddfa939	0.109209485
48	0xbe17165f	-0.14754628
49	0x3e5406d9	0.20705737
50	0xbd4a110d	-0.049332667
51	0x3d7acffc	0.061233506
52	0xbd7f809a	-0.062378503
53	0x3d1c612e	0.038178615
54	0x3dcdebe7	0.100547604
55	0xbf0521af	-0.5200452
56	0xbefba3fe	-0.49148554
57	0x3e339eaa	0.17540994
58	0x3c843fc6	0.01614369
59	0x3c19993a	0.009374911
60	0xbde2c08b	-0.11071881
61	0x3e4e4025	0.20141657
62	0x3d952996	0.072833225
63	0x3f2e9634	0.6819794

weight f4 [64, 64]
0	0x3d948e18	0.07253665
1	0xbfd871e1	-1.6909753
2	0x3f44fd83	0.7694933
3	0x3d6bbf04	0.057555214
4	0x3ee7eed2	0.45299393
5	0xbd9ece02	-0.077541366
6	0xbd12a963	-0.03580607
7	0x3eab7ccc	0.3349365
8	0x3f3ff900	0.7498932
9	0x3f328df5	0.6974786
10	0xbef0cf79	-0.4703329
11	0xbee9b658	-0.4564693
12	0x3f44ad07	0.7682652
13	0xbea7d564	-0.32779992
14	0xbe189f24	-0.14904457
15	0x3ed866d4	0.42265952
16	0x3eee0047	0.46484587
17	0xbe61bdcd	-0.2204506
18	0x3f5850a0	0.84498024
19	0xbea2da7b	-0.31807312
20	0x3cc1ffb7	0.023681505
21	0x3f054de6	0.5207199
22	0x3e7985f2	0.24367502
23	0x3f13282a	0.5748316
24	0xbdf855b1	-0.12125719
25	0xbc816d43	-0.01579917
26	0x3f49034a	0.78520644
27	0xbf875970	-1.0574169
28	0xbf7ec90d	-0.9952553
29	0xbf5317a2	-0.82457936
30	0xbe816902	-0.25275427
31	0xbeaee9dc	-0.34162796
32	0xbd614286	-0.054995082
33	0xbf2e95a2	-0.6819707
34	0x3e441663	0.19149165
35	0x3f178996	0.59194314
36	0xbe879502	-0.2648087
37	0x3e2f9c80	0.17149544
38	0x3dc08fd4	0.09402433
39	0x3de66e6c	0.1125153
40	0x3d648678	0.055792302
41	0xbf020a91	-0.50797373
42	0xbf6d6ee5	-0.92747337
43	0x3d2ff36f	0.042956766
44	0x3e369c40	0.17833042
45	0x3e11599e	0.14194342
46	0x3db587a6	0.088637635
47	0x3eb922b8	0.361593
48	0xbe493600	-0.19649506
49	0xbb650955	-0.003494819
50	0xbdf8199c	-0.121142596
51	0xbdc302d7	-0.09522026
52	0xbd2be7f4	-0.041969255
53	0xbea08a00	-0.31355286
54	0xbdf4c748	-0.119520724
55	0x3f7ca327	0.9868645
56	0x3dc3ad55	0.09554545
57	0x3ea15893	0.3151289
58	0x3cfb0869	0.030643659
59	0xbd5e0c85	-0.05421116
60	0xbde5bce2	-0.11217667
61	0x3e16af4f	0.14715312
62	0xbeb18092	-0.34668404
63	0x3e95bcce	0.2924561
64	0x3e17d783	0.14828305
65	0xbd2f37f8	-0.042777985
66	0xbe2455a2	-0.16048291
67	0x3cb087ca	0.021549124
68	0xbe98fb5b	-0.2987927
69	0x3f14da57	0.5814566
70	0xbdee8368	-0.116461575
71	0xbee8a1de	-0.45435995
72	0xbf88b95c	-1.0681567
73	0x3e67e62b	0.22646396
74	0x3ec0d3bc	0.3766154
75	0xbf06579f	-0.5247745
76	0xbede1eb8	-0.43382812
77	0xbfb6393f	-1.423622
78	0x3eebc90e	0.4605183
79	0xbef3255f	-0.4748945
80	0xbf0607d2	-0.5235568
81	0x3f59ad4d	0.8503006
82	0x3db7d533	0.089762114
83	0xbdf5357a	-0.119730905
84	0x3cd8c801	0.026462557
85	0xbf41b623	-0.75668544
86	0xbf23f379	-0.64043385
87	0xbef37416	-0.47549504
88	0x3d7ef748	0.062247545
89	0x3e76a7d9	0.24087466
90	0xbd27f169	-0.04100171
91	0x3f9d5915	1.2292811
92	0x3ee464b3	0.44608077
93	0x3eb2dbdb	0.3493336
94	0x3dc4fc81	0.09618474
95	0x3dd70c26	0.10500364
96	0xbf8ed860	-1.1159782
97	0x3e4cb670	0.1999147
98	0x3e388741	0.18020345
99	0x3e82cfb4	0.2554909
100	0xbe42c2f5	-0.19019683
101	0x3e26ab43	0.16276269
102	0x3ccdaeca	0.02510776
103	0x3ea19980	0.31562424
104	0xbe1d1cd8	-0.15343034
105	0x3e7dfaf0	0.24802756
106	0x3f53c6e7	0.82725376
107	0x3e10b584	0.14131743
108	0xbe7d0b29	-0.24711289
109	0x3f529193	0.8225338
110	0x3e2232df	0.15839718
111	0x3ef7eb8f	0.48421904
112	0x3f0ce369	0.550345
113	0xbf428a73	-0.75992507
114	0xbe13afa9	-0.14422478
115	0xbf50290d	-0.8131264
116	0xbea1aee3	-0.3157874
117	0xbe7737c0	-0.2414236
118	0x3f14eb1e	0.5817126
119	0x3e24cb3d	0.16093154
120	0x3ef05fca	0.4694808
121	0xbec2d2d0	-0.38051462
122	0xbe22c276	-0.15894493
123	0xbeee72f0	-0.46572065
124	0xbf610fcd	-0.87914735
125	0x3df9534d	0.121740915
126	0x3f2f444f	0.68463606
127	0x3e15e31e	0.1463742
128	0x3c443b1f	0.011976986
129	0xbe553d3c	-0.2082414
130	0xbf39e955	-0.7262166
131	0x3f45a37a	0.7720257
132	0xbf600b0d	-0.8751686
133	0x3f106fe2	0.5642072
134	0xbf1f1586	-0.6214222
135	0x3e60a08b	0.21936242
136	0x3e1acf65	0.15118177
137	0xbdaccfdf	-0.08438086
138	0xbf1fbb13	-0.6239483
139	0xbe8c8295	-0.27443376
140	0x3d83d444	0.06436971
141	0x3f6af146	0.91774404
142	0xbf09dde8	-0.5385423
143	0x3e8f5fa6	0.2800266
144	0x3e323e47	0.1740657
145	0xbeaa702d	-0.33288708
146	0x3e1c4d1b	0.15263788
147	0x3ec43360	0.38320446
148	0x3ecbd518	0.39811015
149	0xbf6dfa5d	-0.9296015
150	0x3eb4f061	0.35339645
151	0x3dd8c4a7	0.105843835
152	0xbe9b42e0	-0.3032446
153	0xbc5c7f3f	-0.013458072
154	0x3e4b26e6	0.19839057
155	0xba85536c	-0.0010171956
156	0x3f839888	1.0280924
157	0xbe553979	-0.20822705
158	0xbd96353c	-0.073343724
159	0x3e81a071	0.2531772
160	0xbd77e2a8	-0.06051889
161	0x3e6d3b55	0.23167165
162	0xbe3c8144	-0.18408686
163	0x3f76e86c	0.964484
164	0x3eeffdb9	0.46873263
165	0x3f5a40c3	0.8525507
166	0x3f33dbfc	0.70257545
167	0xbe0379a9	-0.12839378
168	0xbeb1ed8d	-0.3475155
169	0xbe9e6bed	-0.30941716
170	0xbe0ad795	-0.135588
171	0xbe6f68bb	-0.23379795
172	0xbe8fd346	-0.28090876
173	0x3f5ff4df	0.8748302
174	0xbce4be76	-0.02792285
175	0xbe33a4b9	-0.17543305
176	0xbeb86fb2	-0.36022717
177	0x3dc552a6	0.096349046
178	0xbedc8212	-0.43067986
179	0xbf26badb	-0.6512887
180	0xbd7b14ee	-0.061299257
181	0x3fcb62bb	1.5889505
182	0xbe1b8f24	-0.15191323
183	0x3d7c2813	0.061561655
184	0x3f7f5500	0.99739075
185	0x3f2782c0	0.65433884
186	0xbea7f3c8	-0.32803178
187	0xbe320385	-0.17384155
188	0xbed15b0e	-0.40889782
189	0xbf214248	-0.6299176
190	0xbe0ab811	-0.13546778
191	0x3f33381a	0.7000748
192	0xbf8b0e98	-1.0863829
193	0xbe093492	-0.1339896
194	0x3f0e0abb	0.55485123
195	0xbd893fd5	-0.06701628
196	0x3dcf812f	0.10132062
197	0xbf3b787a	-0.7323071
198	0xbe0bafad	-0.13641234
199	0xbd9071de	-0.070529684
200	0xbf4cbf2c	-0.79979205
201	0x3e5171b7	0.20453535
202	0x3d840987	0.0644713
203	0xbf215cb9	-0.6303211
204	0xbd164775	-0.03668924
205	0x3e28f923	0.16501288
206	0x3e8489ad	0.25886288
207	0xbf6f36a7	-0.9344277
208	0xbd1915ed	-0.037374426
209	0xbf607e7c	-0.87693
210	0xbf02ecfb	-0.51142853
211	0x3d0f4d21	0.034985665
212	0xbed424dc	-0.4143437
213	0x3e8aa910	0.2708211
214	0x3f4a6ae5	0.7906936
215	0xbec59ceb	-0.3859628
216	0xbd8a5724	-0.06754902
217	0x3e326401	0.17420961
218	0x3ecd247d	0.400669
219	0x3f3bf02c	0.7341335
220	0xbf3453e1	-0.7044049
221	0xbf065aa0	-0.5248203
222	0xbf310d5c	-0.6916101
223	0x3e9755c0	0.2955761
224	0x3eb01a90	0.34395266
225	0x3f5827c2	0.84435666
226	0x3dfd30af	0.12362801
227	0x3f7ff805	0.9998782
228	0xbe12151f	-0.1426587
229	0x3ca7d7a2	0.020488564
230	0xbf05096d	-0.5196751
231	0x3dc7dafb	0.09758564
232	0xbe4b8297	-0.19874035
233	0x3e22503d	0.15850921
234	0x3ee9ab5f	0.45638558
235	0x3e8cc9d5	0.27497736
236	0x3ee245db	0.4419392
237	0x3e2fd465	0.17170866
238	0x3eb24ce0	0.34824276
239	0x3ed27756	0.4110667
240	0x3ebe0439	0.37112597
241	0xbeab1354	-0.33413184
242	0x3e392d3b	0.1808366
243	0x3ea53d2a	0.32273227
244	0xbee8899b	-0.45417485
245	0x3f5abc50	0.8544359
246	0x3e5088e9	0.20364727
247	0xbe2dc9c3	-0.16971497
248	0x3ef34aa2	0.47517878
249	0x3e9626d4	0.29326499
250	0x3dec8712	0.115492
251	0x3e4d094f	0.20023082
252	0xbf333812	-0.7000743
253	0xbe90d58b	-0.2828792
254	0x3dc42fb8	0.09579414
255	0x3e1b4d2b	0.15166156

weight f4 [64, 64]
0	0x3e983a30	0.29731894
1	0x3dd0b9ef	0.10191714
2	0x3f31f04c	0.6950729
3	0xbe3e2bd0	-0.185714
4	0xbe8e6071	-0.27807954
5	0xbf1faab8	-0.6236987
6	0xbf351832	-0.70740044
7	0xbd860ef3	-0.0654582
8	0x3db40dfc	0.0879173
9	0xbdc3e38b	-0.09564885
10	0xbf0a0fad	-0.5393017
11	0x3ead6b14	0.33870757
12	0xbed56768	-0.41680455
13	0x3ef0eb86	0.4705469
14	0xbf3803a1	-0.7188054
15	0x3eca7dd4	0.39549124
16	0xbf34693d	-0.7047308
17	0xbf39f0c1	-0.72632986
18	0x3fa9e03d	1.3271557
19	0x3ebcebef	0.36898753
20	0x3ee643e9	0.44973686
21	0xbee68fb7	-0.4503152
22	0xbd6f76c2	-0.058462866
23	0x3e704bd6	0.23466429
24	0xbe871b57	-0.26388046
25	0xbd9ad71e	-0.075605616
26	0x3f10891d	0.5645922
27	0x3ed5c21a	0.4174965
28	0x3fba43dd	1.455196
29	0xbedf5ac8	-0.43623948
30	0x3e6fc236	0.2341393
31	0x3f035dfb	0.5131528
32	0xbf371371	-0.7151404
33	0xbd2ad47e	-0.041706555
34	0xbe77071b	-0.24123804
35	0x3f7b78ad	0.9823101
36	0x3e87e885	0.26544586
37	0x3f125248	0.571568
38	0x3efd3548	0.49454713
39	0xbf08f284	-0.5349505
40	0xbebfe39b	-0.37478337
41	0xbeba5099	-0.36389616
42	0xbe89e53f	-0.26932713
43	0x3e859a3c	0.26094234
44	0xbe900a87	-0.28133032
45	0xbb209622	-0.0024503549
46	0xbd85467f	-0.06507587
47	0x3f0c6fec	0.5485828
48	0xbe836c16	-0.256684
49	0xbdc9cd25	-0.09853581
50	0xbcdab5fe	-0.026698109
51	0x3eb9b3d6	0.36270016
52	0x3e890b5c	0.2676648
53	0xbd4feb87	-0.050761726
54	0x3da9e5a7	0.08295756
55	0x3d45610a	0.048188247
56	0x3ecce43a	0.40017873
57	0xbf0ceaff	-0.55046076
58	0xbef05b53	-0.46944675
59	0x3ceeb072	0.02913687
60	0xbe3b7f30	-0.18310237
61	0xbea317d9	-0.31854132
62	0xbf131dc0	-0.5746727
63	0x3fa6d23e	1.3032911
64	0x3f833ba8	1.0252581
65	0x3cce8db8	0.025214061
66	0xbe97053e	-0.29496187
67	0x3e09a8ed	0.13443346
68	0x3e2bc48c	0.16774195
69	0x3c81edeb	0.015860518
70	0x3efd8c2a	0.49521
71	0x3edad4df	0.42740533
72	0x3d874637	0.06605189
73	0x3ee4c1b4	0.44679034
74	0x3e98ceeb	0.29845366
75	0xbf93fccf	-1.1561526
76	0x3f5c3f0a	0.8603369
77	0xbd66cee2	-0.056349643
78	0xbd3fa42a	-0.04678742
79	0xbe77625e	-0.24158618
80	0xbeef0a94	-0.46687758
81	0x3f97663e	1.1828077
82	0xbec77bf9	-0.3896177
83	0xbecf15bf	-0.40446278
84	0x3dd9704a	0.106171206
85	0xbec92a39	-0.39290026
86	0x3f37f065	0.7185119
87	0x3f0d8fea	0.5529772
88	0x3f7dea8a	0.99186003
89	0x3e38ff9a	0.18066254
90	0xbebb423a	-0.36573964
91	0xbfacbd09	-1.3495189
92	0xbfa4e89a	-1.2883484
93	0xbe9f999e	-0.31171888
94	0xbea12c6a	-0.31479198
95	0xbf19a361	-0.6001492
96	0xbdf70bdb	-0.12062808
97	0xbd9a0783	-0.07520964
98	0xbb386f6d	-0.0028142587
99	0xb9bd01f4	-0.00036050344
100	0x3d895664	0.06705931
101	0x3eec84e5	0.4619514
102	0x3d637890	0.0555349
103	0x3d693660	0.05693662
104	0x3ea0784a	0.31341773
105	0x3ee1f7f7	0.44134495
106	0xbe88ab06	-0.2669298
107	0x3e85d955	0.26142374
108	0x3f410aa7	0.7540688
109	0x3eca70b0	0.395391
110	0xbf03078f	-0.5118341
111	0xbf80ae09	-1.0053111
112	0xbf065700	-0.524765
113	0x3ecbb023	0.3978282
114	0xbc2af4ec	-0.0104343705
115	0xbf2d88e1	-0.67786986
116	0xbf125d45	-0.5717357
117	0x3e83c9c9	0.25739887
118	0xbebd5f6a	-0.36986858
119	0xbd05d242	-0.03267122
120	0xbd6235df	-0.055227157
121	0x3f4e1f0d	0.8051613
122	0x3e9828f9	0.2971876
123	0x3e636613	0.22206907
124	0x3ddf59af	0.10905778
125	0xbee5f559	-0.44913748
126	0x3ea5a38c	0.3235134
127	0xbe8c7283	-0.27431116
128	0xbf428d31	-0.7599669
129	0xbd9326f6	-0.071851656
130	0x3f915b17	1.1355923
131	0xbdf406a0	-0.11915326
132	0x3ebcf22d	0.36903515
133	0xbea1d806	-0.31610125
134	0x3f69b8df	0.91297716
135	0x3ecde9c2	0.40217406
136	0xbe348c1e	-0.17631575
137	0x3ec244ec	0.37943208
138	0xbc6da86a	-0.014505485
139	0x3ebe3c7e	0.37155527
140	0x3e8ef76e	0.2792315
141	0xbe729dee	-0.23693058
142	0xbdfc3358	-0.123144805
143	0x3ef3052a	0.47464877
144	0xbcd04964	-0.02542562
145	0xbef63cfd	-0.48093405
146	0xbf429b9c	-0.7601869
147	0xbd62ac27	-0.05533996
148	0x3da74d70	0.08169067
149	0xbece8e36	-0.40342873
150	0x3d67df7c	0.056609616
151	0x3ea14ec2	0.315054
152	0x3d540723	0.05176462
153	0x3ec6426e	0.38722557
154	0x3da1d3d4	0.07901731
155	0xbf5098a0	-0.8148289
156	0x3e8b90fc	0.27259052
157	0xbf1b66e1	-0.60703856
158	0xbf34dfba	-0.7065388
159	0xbf1f2337	-0.6216311
160	0x3eee784a	0.46576148
161	0xbf205836	-0.626346
162	0x3e3807f4	0.17971784
163	0x3e465e50	0.19371915
164	0x3f32db44	0.6986582
165	0x3d3d1ec3	0.046171915
166	0x3eaa4917	0.33258888
167	0xbe922636	-0.28544778
168	0x3e3a4dec	0.18193787
169	0x3f3c5846	0.73572195
170	0xbe13de55	-0.14440282
171	0xbd444c49	-0.047924314
172	0x3f15f35c	0.5857446
173	0x3db105f6	0.08643715
174	0x3f43c446	0.76471364
175	0xbd964996	-0.07338254
176	0xbebc54c4	-0.3678342
177	0xbf8469fc	-1.0344844
178	0xbedb4179	-0.4282339
179	0xbe3f83d7	-0.18702637
180	0xbeaac3fe	-0.33352655
181	0xbea419a8	-0.32050824
182	0xbeb73b03	-0.3578721
183	0x3f3d1297	0.7385649
184	0x3e5de22c	0.21668309
185	0x3ee5a1d0	0.44850016
186	0x3e8dd481	0.2770119
187	0xbe47f42d	-0.1952674
188	0x3f0614bd	0.52375394
189	0xbf41b30b	-0.7566382
190	0x3ed2f029	0.41198853
191	0xbed2c893	-0.4116865
192	0xbf6964eb	-0.91169614
193	0xbf64c9bf	-0.8937034
194	0x3e849371	0.2589374
195	0x3f312cfc	0.69209266
196	0xbe7d8f62	-0.24761727
197	0xbefd52ce	-0.49477237
198	0xbe98e16a	-0.29859477
199	0xbde8e7e8	-0.113723576
200	0xbe376623	-0.17910056
201	0x3f01db86	0.5072559
202	0x3e221a50	0.1583035
203	0xbec88c58	-0.39169574
204	0x3f0e13a0	0.55498695
205	0x3ef7a372	0.48366886
206	0x3e78be24	0.24291283
207	0xbe95b736	-0.2924134
208	0xbe1487f5	-0.14504988
209	0x3f2b58d1	0.669324
210	0xbe7e2242	-0.24817756
211	0x3e01f93a	0.12692729
212	0xbe36f9d5	-0.17868741
213	0xbe83d15d	-0.2574567
214	0x3ded18bf	0.115769856
215	0xbf160850	-0.58606434
216	0xbe502fdf	-0.20330761
217	0xbd5ddf71	-0.05416817
218	0xbe5f17d7	-0.21786438
219	0x3d60b51f	0.05486023
220	0xbf09b203	-0.5378725
221	0xbed44651	-0.41459897
222	0xbf30e1b5	-0.690944
223	0x3e6453a4	0.22297531
224	0xbea3745b	-0.3192471
225	0xbdc983ff	-0.098396294
226	0x3f1c85ce	0.6114167
227	0x3f19eca2	0.601267
228	0x3f31656b	0.69295377
229	0xbe164c88	-0.14677632
230	0x3d90516a	0.070467785
231	0x3f914202	1.1348269
232	0xbeb285b1	-0.34867623
233	0x3df00be2	0.117210165
234	0xbf63f276	-0.8904184
235	0xbefba236	-0.49147195
236	0x3d9873cb	0.07443961
237	0x3f21eb2a	0.63249457
238	0x3f6c8afa	0.9239956
239	0x3deef9e2	0.11668755
240	0xbf2d75d4	-0.67757916
241	0xbf622f5d	-0.8835352
242	0x3ecf3928	0.40473294
243	0xbe63b26e	-0.22236034
244	0xbe52de4a	-0.20592609
245	0x3d979235	0.07400934
246	0x3e4a48a5	0.19754274
247	0x3d71bdb5	0.05901881
248	0x3f200dde	0.6252116
249	0x3f475141	0.7785836
250	0x3f36cc22	0.7140523
251	0xbd94810c	-0.07251176
252	0xbe909896	-0.28241414
253	0xbf708e50	-0.9396715
254	0x3ee7706d	0.45202962
255	0x3ee758d3	0.45184955

weight f4 [64, 64]
0	0x3dccbbab	0.09996732
1	0x3e58b62b	0.21163242
2	0x3d1891f6	0.037248574
3	0xbe1c146a	-0.15242162
4	0xbe8ec4a2	-0.27884394
5	0xbe510f4d	-0.20415993
6	0x3e3acdec	0.18242615
7	0x3d8df919	0.06932277
8	0x3e0eb8f6	0.13937744
9	0x3e0a1e99	0.13488235
10	0xbbefb361	-0.007315085
11	0x3e0d4db7	0.13799177
12	0xbd071c6b	-0.032986086
13	0x3795e800	1.7870218e-05
14	0x3c442606	0.011971956
15	0xbe458922	-0.19290593
16	0xbe38ac2d	-0.1803443
17	0xbe6381a5	-0.22217424
18	0x3e40c84e	0.1882641
19	0xbe269195	-0.16266473
20	0x3e17cc84	0.1482411
21	0x3c1b8532	0.009492205
22	0xbe2026c6	-0.15639791
23	0x3d77feaa	0.0605456
24	0x3d4f2e83	0.050581466
25	0xbdf0dfb7	-0.1176142
26	0x3e80a9d7	0.25129578
27	0xbd9bd7df	-0.076095335
28	0xbe337f0d	-0.17528935
29	0xbc175f9c	-0.009239104
30	0x3e161fa1	0.14660503
31	0xbe8078d4	-0.25092185
32	0x3e2635f4	0.16231519
33	0xbd1b8026	-0.03796401
34	0xbe2a6ade	-0.16642329
35	0x3e8fbc11	0.2807317
36	0x3def1a6a	0.1167496
37	0xbdb44b0a	-0.08803375
38	0xbdf4cd0a	-0.119531706
39	0x3e6cf27b	0.23139374
40	0x3daa8231	0.08325613
41	0xbe09176f	-0.13387845
42	0x3e0f4705	0.13991936
43	0x3e4d789c	0.2006554
44	0x3bc936b1	0.006140553
45	0xbe07ddcd	-0.13268204
46	0xbdfe4b06	-0.12416653
47	0x3b934884	0.0044947285
48	0xbe51d31c	-0.20490688
49	0x3eb3d881	0.35126117
50	0xbe84b7e0	-0.25921535
51	0x3e0195b9	0.12654771
52	0x3e50a136	0.20373997
53	0x3d999fb3	0.07501163
54	0x3e7e38f4	0.24826413
55	0xbe185c62	-0.14878991
56	0xbec08ca2	-0.37607294
57	0x3e009fd7	0.12560974
58	0xbe0dd423	-0.13850455
59	0x3d604ccf	0.05476075
60	0xbe07ea5e	-0.13272998
61	0xbd46a441	-0.04849649
62	0xbe234399	-0.15943755
63	0xbd8bed5e	-0.068323836
64	0x3d0f54ad	0.034992862
65	0x3cab5950	0.020916611
66	0x3a0c62fc	0.0005355326
67	0xbd6330b1	-0.055466358
68	0xbc0af114	-0.008480329
69	0x3dd4cc86	0.10390572
70	0x3df617dd	0.1201627
71	0xbd5b96c0	-0.053610563
72	0xbd707225	-0.058702607
73	0x3cdfcf8d	0.027320648
74	0xbdd0131a	-0.10159893
75	0xbe6fff13	-0.23437147
76	0x3deca292	0.11554445
77	0xbda3c138	-0.07995838
78	0x3def14db	0.116739
79	0xbe0bfdab	-0.13670985
80	0xbc19db00	-0.009390593
81	0xbdd4db88	-0.10393435
82	0xbde9a016	-0.11407487
83	0x3d965ed3	0.07342305
84	0xbd0a5d80	-0.033780575
85	0xbc9dba5c	-0.019253902
86	0xbd12054b	-0.03564958
87	0xbe05e946	-0.13077268
88	0x3db50a7a	0.08839889
89	0x3e33d521	0.17561771
90	0xbee27378	-0.4422872
91	0x3d8e0372	0.06934251
92	0x3e13a9bd	0.14420219
93	0xbed68361	-0.4189711
94	0xbc8e0bfc	-0.017339699
95	0x3d838f40	0.06423807
96	0x3d1d8104	0.038453117
97	0xbe401fa9	-0.18762077
98	0x3efe0559	0.49613455
99	0x3c8ee5de	0.017443594
100	0xba23df00	-0.0006251186
101	0x3e02d347	0.12775908
102	0xbcc961ed	-0.024582827
103	0xbe35c9da	-0.17752782
104	0x3ca94118	0.020660922
105	0x3d6a508a	0.057205714
106	0xbd3a7c92	-0.045528956
107	0xbd40deda	-0.047087528
108	0x3e3c4a3d	0.18387695
109	0x3e06514d	0.13116951
110	0x3be4f97d	0.006987749
111	0x3ddccc58	0.10781163
112	0xbc2e70be	-0.010646997
113	0xbe956f57	-0.29186508
114	0x3e54d0f8	0.2078284
115	0xbeb0b9b5	-0.34516683
116	0xbc103ad8	-0.008803092
117	0xbe3aec0c	-0.18254107
118	0xbdf0562d	-0.11735187
119	0xbbe090c8	-0.006853197
120	0x3da20b97	0.07912367
121	0xbd09b94d	-0.033623982
122	0xbddff73a	-0.109358266
123	0x3d5a4162	0.05328501
124	0x3e4bde5f	0.19909047
125	0x3d99a9d5	0.07503096
126	0x3d814964	0.06312826
127	0xbdc84449	-0.09778649
128	0x3e4997b7	0.19686781
129	0xbe22b802	-0.15890506
130	0x3aaa0c5c	0.0012973654
131	0x3eb87751	0.3602853
132	0xbd0428bc	-0.03226541
133	0x3e5cd8ad	0.2156703
134	0x3cc786b5	0.024356226
135	0xbe1e03a9	-0.15431084
136	0xbe1548ed	-0.145786
137	0xbea380ef	-0.31934306
138	0x3ccbce00	0.024878502
139	0xbe869bfa	-0.26290876
140	0x3bcc354f	0.006231941
141	0x3d27f927	0.041009095
142	0xbdb35b05	-0.08757595
143	0xbedf4967	-0.4361069
144	0x3e048beb	0.12944
145	0xbe7b9fbb	-0.24572651
146	0xbe0d412b	-0.13794391
147	0x3d87f07c	0.06637666
148	0x3e5d38f1	0.21603753
149	0x3d9ec848	0.07753044
150	0x3e642fc3	0.22283845
151	0x3df23fb5	0.118285574
152	0x3ea11f6e	0.3146929
153	0x3e8a4c61	0.27011397
154	0xbea495ff	-0.32145688
155	0x3c96b000	0.01839447
156	0xbd6169a2	-0.05503238
157	0xbedcdb70	-0.43136168
158	0xbe0e1c62	-0.13878015
159	0xbe7978cc	-0.24362487
160	0x3ed18104	0.40918744
161	0x3d1cf564	0.03831996
162	0x3ea8d1a7	0.32972452
163	0xbdb62124	-0.0889304
164	0xbcc93626	-0.024561953
165	0x3dae6533	0.08515396
166	0x3ebb0cdf	0.36533257
167	0xbeb64fda	-0.35607797
168	0x3e0697d0	0.1314385
169	0xbd5054fd	-0.0508623
170	0xbdc605e0	-0.09669089
171	0x3eaec9de	0.34138387
172	0x3f2c64f4	0.6734154
173	0xbd128083	-0.03576709
174	0xbda46f08	-0.0802899
175	0xbd0b60c0	-0.034027815
176	0xbea383f8	-0.31936622
177	0xbe489ac9	-0.19590296
178	0xbe81c4aa	-0.25345355
179	0xbe881af1	-0.26583055
180	0x3dcaa53e	0.09894799
181	0x3d6aff40	0.05737233
182	0xbd9077cb	-0.07054099
183	0xbc15f779	-0.00915324
184	0xbdc56cd4	-0.09639898
185	0x3c08380a	0.008314142
186	0x3e1d0499	0.15333785
187	0x3ddd0ab1	0.10793055
188	0x3e07b10e	0.13251135
189	0x3e3b75ff	0.1830673
190	0x3e0874fe	0.13325879
191	0x3e376445	0.17909344
192	0xbe8934de	-0.26798147
193	0x3e2755bf	0.16341303
194	0x3d2efacf	0.04271966
195	0x3de315e8	0.11088163
196	0x3da19e3c	0.07891509
197	0xbe5c3aa7	-0.21506749
198	0x3efb082b	0.4902967
199	0xba59edf5	-0.00083133514
200	0x3e6d0ce4	0.23149449
201	0xbe8d8279	-0.27638605
202	0x3daa2e52	0.08309616
203	0x3e8c3b07	0.27388784
204	0xbe37d0db	-0.17950766
205	0xbd012622	-0.031530507
206	0x3ebdd366	0.37075347
207	0x3eeebfd9	0.46630743
208	0xbdbd172c	-0.09232935
209	0x3eb6c611	0.35697988
210	0x3e26a7fa	0.16275015
211	0x3d915dce	0.0709797
212	0xbd1b74d3	-0.03795321
213	0x3d51b040	0.051193476
214	0xbd4b7de2	-0.049680598
215	0xbcc58dad	-0.024115408
216	0xbe3c69c8	-0.18399727
217	0x3e0ebcae	0.13939163
218	0xbde07c4f	-0.1096121
219	0xbd8550db	-0.065095626
220	0x3b920356	0.004455964
221	0x3eec350c	0.46134222
222	0xbe2c46b2	-0.16823843
223	0xbd1cea38	-0.038309306
224	0xbe12e76a	-0.1434609
225	0x3d5448ac	0.051827118
226	0xbef47c9d	-0.47751322
227	0xbce6e3a0	-0.028184712
228	0xbdd5d135	-0.10440294
229	0xbd9e11aa	-0.07718213
230	0xbcd86695	-0.026416102
231	0x3ed32d96	0.41245717
232	0xbe438659	-0.19094218
233	0xbe7feca6	-0.24992618
234	0x3de48919	0.11158962
235	0x3e07d7fa	0.13265982
236	0xbdb0fcb8	-0.08641952
237	0xbd9d4c01	-0.07680512
238	0x3e1a6d11	0.15080668
239	0xbe8f1368	-0.27944493
240	0xbc892743	-0.016742354
241	0xbd76de90	-0.060270846
242	0xbdf30dd8	-0.11867875
243	0x3de66cda	0.112512305
244	0x3e47adad	0.19499846
245	0xbd21eed2	-0.039534397
246	0x3e33ab4b	0.17545812
247	0xbe6f0f76	-0.23345742
248	0xbe251d2f	-0.16124414
249	0xbd25052c	-0.040288135
250	0xbc800cef	-0.015631167
251	0x3ee42fe3	0.44567785
252	0x3dc3b571	0.095560916
253	0xbe1ff502	-0.15620807
254	0xbd612d1d	-0.054974664
255	0xbe6cc056	-0.23120245

weight f4 [64]
0	0x3ee4ab13	0.4466177
1	0x3ea72fcb	0.3265365
2	0x3f2dd544	0.6790354
3	0x3ef6f746	0.4823553
4	0x3d5bcb72	0.053660817
5	0x3efb9148	0.49134278
6	0x3eb71dc5	0.357649
7	0x3e4cceca	0.20000759
8	0x3ec2a517	0.3801658
9	0x3ed261e1	0.410903
10	0xbc605fca	-0.013694713
11	0x3f119a8f	0.5687646
12	0x3e93461e	0.28764433
13	0x3f47418e	0.77834404
14	0x3f03cea9	0.51487213
15	0x3eae4d3d	0.34043303
16	0x3f0b2dd2	0.5436679
17	0x3ec1185b	0.37713894
18	0x3f18de4c	0.597142
19	0x3e543a0b	0.20725267
20	0x3e91fc00	0.28512573
21	0x3d96477a	0.07337852
22	0x3e74eaf3	0.23917751
23	0xbc82a889	-0.015949504
24	0x3e331eaa	0.17492166
25	0x3e766145	0.24060543
26	0x3ea02ba9	0.3128331
27	0x3f2d3b82	0.67668927
28	0x3ef0f695	0.47063127
29	0x3e1458ac	0.1448695
30	0xbd412a7b	-0.047159653
31	0x3db64992	0.08900751
32	0x3e885324	0.2662593
33	0x3eca39f9	0.39497355
34	0x3ec67bf6	0.3876645
35	0x3e92ee6b	0.28697523
36	0x3eb53cb9	0.3539789
37	0x3f0ec6da	0.55772173
38	0x3eb32aff	0.3499374
39	0x3ea877e2	0.32903963
40	0x3e9a8d43	0.301859
41	0x3e95421b	0.29151997
42	0x3f5e4cf4	0.8683617
43	0x3e9832b4	0.29726183
44	0xbcf9bb03	-0.030484682
45	0x3e37ff3b	0.17968456
46	0x3f1de059	0.6167045
47	0x3e60e4f2	0.21962336
48	0x3e8c53ba	0.27407628
49	0x3ea02c80	0.3128395
50	0x3e23f3c1	0.16010953
51	0x3e0d2180	0.1378231
52	0x3f2a22f0	0.6645956
53	0x3eb72c9f	0.3577623
54	0xbd891058	-0.066925704
55	0x3d95ff7f	0.07324123
56	0xbc1e7222	-0.009670766
57	0x3f0f840d	0.5606087
58	0x3e2f3f1d	0.1711392
59	0x3ee19fe9	0.44067314
60	0x3ee415db	0.44547924
61	0x3e6816ef	0.22664998
62	0x3e9533a1	0.29140952
63	0x3ec70eba	0.38878423

bias f4 [64]
0	0xbd5bb6c2	-0.05364109
1	0xbca6d53b	-0.020365348
2	0xbd4edc16	-0.05050286
3	0xbe9c3671	-0.30510285
4	0xbc154d51	-0.009112672
5	0x3bab42ea	0.0052264826
6	0x3de239a2	0.11046149
7	0x39b58081	0.00034618753
8	0x3dc12b7a	0.094321206
9	0xbd932e91	-0.07186616
10	0xbd256f22	-0.040389188
11	0xbe09c6be	-0.1345472
12	0x3e3a9ec9	0.18224634
13	0x3decce84	0.11562827
14	0xbc4aaa8e	-0.012369765
15	0x3d42245b	0.047397953
16	0xbd840ae2	-0.06447388
17	0x3e5e4d2f	0.2170913
18	0xbc71f901	-0.01476884
19	0x3dc1b2a3	0.094579004
20	0xbd5dbf6d	-0.054137636
21	0x3d59ff6c	0.053222105
22	0xbc572bb0	-0.0131329745
23	0xbdcc7252	-0.09982742
24	0x3cff959a	0.031199265
25	0x3db8b080	0.0901804
26	0xbcf6dd58	-0.030134842
27	0x3e14ab34	0.14518434
28	0x3b5f247a	0.0034048841
29	0x3d3e3233	0.046434592
30	0xbd58ca28	-0.052927166
31	0x3d9af956	0.07567088
32	0x3d735b9e	0.059413545
33	0xbd9fe9c6	-0.078082606
34	0x3ce08d70	0.027411193
35	0xbe64fe34	-0.22362596
36	0x3cf75176	0.03019021
37	0xbe482bab	-0.19547908
38	0x3db2b61c	0.08726141
39	0x3e0daad2	0.13834694
40	0xbd9cde88	-0.07659632
41	0xbbf77730	-0.00755205
42	0x3db22b2f	0.08699643
43	0xbe1a0a92	-0.15043095
44	0xbd8ad3ac	-0.067786545
45	0xbdc3799e	-0.09544681
46	0xbd512587	-0.05106118
47	0x3d7d0410	0.061771452
48	0x3d913a30	0.070911765
49	0x3d817e49	0.06322915
50	0x38f00304	0.000114446535
51	0x3e44efda	0.19232121
52	0xbbc81b96	-0.006106804
53	0xbdd6717e	-0.10470866
54	0xbcb6c0d5	-0.022308746
55	0xbd9bac08	-0.07601172
56	0xbdca5aa4	-0.098805696
57	0xbd712237	-0.05887052
58	0xbcdc2db1	-0.026877256
59	0x3e5bdf78	0.21471965
60	0xbc964adf	-0.018346248
61	0x3c5f5649	0.013631412
62	0xbd8b1d37	-0.06792682
63	0xbe73c2df	-0.23804806
