calculator/models/model_add2_2024-07-23-12-36.pth (torch, 243874 bytes, 60 tensors)

weight f4 [13, 32]
-0.75000775 -0.1686082 -0.54747415 -1.1194274 -0.37690127 0.35372955 0.22414008 0.120577775
0.19608925 0.4296771 -1.0866693 0.24026538 -0.66131866 0.6873179 -0.413022 1.0843889
2.1083357 1.7927305 1.5425164 0.00040102983 -1.6858809 0.20288643 1.4301264 1.1665899
1.0092149 -0.9172054 -0.038460605 -0.9303204 -0.34577304 -1.1474032 0.9552447 2.5977206
-0.90463215 -0.54830384 0.3038949 -0.2289577 -0.6679001 0.21671963 -0.34867236 -0.953227
-0.22279052 -0.49184048 -0.13499236 -1.0158683 -0.73183405 0.44222367 -0.35576862 -0.2735854
1.7763265 -0.69924915 1.4575268 -0.660884 -1.8210859 0.9790398 2.0343168 -0.60222363
1.1242142 -1.0448291 1.0420496 -0.1177715 -0.017807882 1.0047336 0.5730112 -0.6359834
-0.92040676 0.37391278 -0.048671316 -0.5234347 -0.30785608 0.03722322 -0.9846474 -0.6953995
1.1526377 0.070326775 1.0351887 0.31679577 -0.63823265 1.1319388 0.13846308 -0.16005601
3.1476626 0.03985091 0.99739957 -0.46794632 -1.152405 0.74645793 0.53741956 0.078529075
1.3644886 -0.39435285 0.6249605 -0.37297115 -0.35792723 -0.18994844 0.48882928 -0.6508017
-1.2023466 0.24855779 0.05698071 0.015108744 -0.33682817 0.1447291 -1.4314632 -0.9580866
0.9085398 0.22694395 0.85377777 0.6742246 -0.69516003 0.91504216 0.036819454 -0.48351732
2.5303812 0.1885941 0.65721196 -0.3055986 -0.46695536 0.62367463 -0.6417621 0.80175436
1.1666907 -0.35977277 0.33699965 -0.9239273 -0.9246366 0.033473358 0.6837844 -1.1268377
-1.5814632 0.44191074 0.26949123 0.6552235 -0.027934423 0.5349739 -1.4155792 -0.83401084
1.0657499 -0.46549502 0.81966704 0.61308926 -0.49406096 0.10829716 -0.07501448 -0.33906466
1.9982244 0.32703596 -0.25929055 0.14319794 -0.1059555 0.7580075 -0.8532321 0.9895496
0.4955394 -0.11186047 0.56887406 -1.1730499 -1.2050515 -0.40226302 0.79519475 -1.1208057
-1.4616351 0.016076025 0.37171036 1.7905722 -0.25896508 0.17556946 -1.5724759 -0.47563773
0.75480336 -0.5626934 0.478504 0.5796642 -0.7296986 -0.093069255 -0.107210375 -0.44199103
0.8615296 0.2724203 -0.37672758 -0.045210186 0.49852252 0.8337927 -0.97925353 1.3760765
0.578295 0.093476504 -0.050513834 -1.5866877 -1.2114646 0.051653437 0.58502257 -0.4049983
-1.0693383 -0.06856593 0.67997783 1.8060786 0.29659748 -0.17911398 -1.4902064 0.004229645
0.57587665 -1.0536397 0.25372028 0.41734284 -0.8704412 -0.5059239 -0.1262972 -0.1830317
0.37607306 0.37191877 -0.8941525 0.19295721 0.86435264 1.169374 -0.59942955 1.0519136
0.10070993 0.327715 -0.25702196 -1.8838068 -0.6159878 -0.34416386 0.3110228 0.16358823
-0.8188429 -0.09207558 0.29734185 1.6743265 0.61296755 -0.43592006 -1.2452726 0.25178733
0.4866976 -1.4172534 0.14907281 -0.023214819 -1.0801519 -1.0024761 -0.31288993 -0.27357286
0.24211855 0.33959427 -1.3068049 0.033187788 1.1665576 1.0089085 0.10849301 0.30541813
-0.6745267 0.5949319 -0.8868589 -2.124469 -0.3524369 -0.25767177 -0.15627505 0.3375796
00000000: 8200 40bf a1a7 2cbe 4427 0cbf 6649 8fbf
00000010: 34f9 c0be 0a1c b53e fa84 653e 7bf1 f63d
00000020: 9fcb 483e a3fe db3e fb17 8bbf 2108 763e
00000030: 2e4c 29bf 11f4 2f3f 9f77 d3be 41cd 8a3f
00000040: f9ee 0640 3178 e53f 2d71 c53f 5041 d239
00000050: f2ca d7bf 76c1 4f3e 620e b73f d152 953f
00000060: f42d 813f f9cd 6abf de88 1dbd 7a29 6ebf
00000070: 2a09 b1be 1cde 92bf eb8a 743f 0e41 2640
00000080: f995 67bf a45d 0cbf 1d98 9b3e e373 6abe
00000090: 80fb 2abf c0eb 5d3e 2f85 b2be af06 74bf
000000a0: 3323 64be 84d2 fbbe 703b 0abe f907 82bf
000000b0: 7a59 3bbf 246b e23e 4e27 b6be 6313 8cbe
000000c0: ab5e e33f fe01 33bf 3d90 ba3f b22f 29bf
000000d0: 5819 e9bf 5aa2 7a3f 3f32 0240 542b 1abf
000000e0: 40e6 8f3f f6bc 85bf e261 853f 2f32 f1bd
000000f0: d6e1 91bc 1c9b 803f ddb0 123f cfcf 22bf
00000100: c79f 6bbf 7f71 bf3e 935b 47bd d1ff 05bf
00000110: 509f 9dbe 6077 183d da11 7cbf b405 32bf
00000120: a289 933f 7c07 903d 1081 843f 0e33 a23e
00000130: 3763 23bf 5fe3 903f 44c9 0d3e b9e5 23be
00000140: 4e73 4940 b53a 233d 9455 7f3f a996 efbe
00000150: 0282 93bf de17 3f3f 5494 093f dad3 a03d
00000160: 90a7 ae3f 9ee8 c9be 69fd 1f3f 13f6 bebe
00000170: 3d42 b7be d881 42be d547 fa3e f19a 26bf
00000180: 7ee6 99bf ef85 7e3e 9b64 693d aa8a 773c
00000190: be74 acbe dd33 143e 303a b7bf 2a45 75bf
000001a0: 1096 683f ff63 683e 2e91 5a3f fc99 2c3f
000001b0: 02f6 31bf 3440 6a3f ffcf 163d 958f f7be
000001c0: c4f1 2140 d01e 413e 0b3f 283f 6b77 9cbe
000001d0: c614 efbe 24a9 1f3f 854a 24bf c63f 4d3f
000001e0: 1f56 953f 2334 b8be 388b ac3e 8086 6cbf
000001f0: fcb4 6cbf 5c1b 093d 7f0c 2f3f 383c 90bf
00000200: 636d cabf 2042 e23e c1fa 893e babc 273f
00000210: bbd6 e4bc 0df4 083f b331 b5bf bc81 55bf
00000220: 7e6a 883f 5d55 eebe b3d5 513f 6bf3 1c3f
00000230: 8ff5 fcbe e7ca dd3d 31a1 99bd e299 adbe
00000240: d1c5 ff3f 4271 a73e bbc1 84be 7ba2 123e
00000250: 32ff d8bd c80c 423f 6b6d 5abf 1f53 7d3f
00000260: 57b7 fd3e 1a17 e5bd bba1 113f 8026 96bf
00000270: 213f 9abf 6bf5 cdbe e291 4b3f 9076 8fbf
00000280: dc16 bbbf deb1 833c d250 be3e 7831 e53f
00000290: 1297 84be 7bc8 333e e446 c9bf ca86 f3be
000002a0: cb3a 413f ad0c 10bf 7afe f43e df64 143f
000002b0: 87cd 3abf 189b bebd 1d91 dbbd a64c e2be
000002c0: 348d 5c3f ac7a 8b3e 70e2 c0be 512e 39bd
000002d0: 583e ff3e 7073 553f 5cb0 7abf 4623 b03f
000002e0: 240b 143f 9c70 bf3d 98e7 4ebd 9518 cbbf
000002f0: 4611 9bbf 8e92 533d 0ac4 153f f05b cfbe
00000300: 14e0 88bf 4b6c 8cbd 0713 2e3f 952d e73f
00000310: a0db 973e a869 37be 15bf bebf d598 8a3b
00000320: a76c 133f aadd 86bf a0e7 813e f6ad d53e
00000330: 3cd5 5ebf 3b84 01bf 0e54 01be a96c 3bbe
00000340: a68c c03e 236c be3e 2ee7 64bf 9396 453e
00000350: 3746 5d3f 0cae 953f 3774 19bf 1ba5 863f
00000360: 0241 ce3d 43ca a73e 6298 83be 9520 f1bf
00000370: 60b1 1dbf 3f36 b0be 613e 9f3e ac83 273e
00000380: b09f 51bf 1f92 bcbd 313d 983e 5550 d63f
00000390: 71eb 1c3f ea30 dfbe 1865 9fbf 45ea 803e
000003a0: 6e30 f93e 8f68 b5bf 8ba6 183e 012d bebc
000003b0: 6b42 8abf 2351 80bf 1c33 a0be be11 8cbe
000003c0: eded 773e 4ddf ad3e 6245 a7bf ebef 073d
000003d0: c251 953f ea23 813f 9531 de3d c45f 9c3e
000003e0: c8ad 2cbf 754d 183f 2f09 63bf 4df7 07c0
000003f0: 9c72 b4be 8eed 83be 9106 20be 3cd7 ac3e

weight f4 [16, 32]
-0.07426861 0.54486686 -1.2401849 -0.141963 0.072678685 1.3274391 -3.931909 -0.41029593
0.9749292 -0.8274338 -0.9352264 0.7142473 0.19048561 -1.2343361 0.4951618 0.52992254
-0.7243283 0.5646588 -0.30997247 -1.2004288 -0.5096499 2.0684776 0.2863708 -0.82716674
1.0312179 0.58488786 0.013188785 -0.94808406 1.0529829 0.015291314 0.62713075 0.1232466
-0.31103286 -0.6848682 0.8574569 -0.49278167 -0.81622875 -1.5389787 -1.9215041 0.27517322
-0.13383946 0.7346075 0.46745428 -0.51925623 -0.8112534 -0.113516554 0.3023649 -0.12208839
1.0361271 -0.5237882 -1.8693708 -0.92307043 0.072677195 0.92611605 0.0007192474 0.41677517
0.426653 0.029500822 -0.05234661 -1.3074436 1.3290869 -0.37077016 1.9533399 0.3690466
-0.47950193 -0.6381439 -1.0059446 0.5501312 1.2231147 0.036255933 -0.78548265 -0.15520139
0.89387196 -0.8801517 0.19581902 -0.99504197 0.14033082 0.052491892 -0.7898008 0.87515
0.45802674 0.38316846 -0.139814 -1.1496496 0.32905653 -0.19579032 -0.43412492 0.94741714
0.7432586 0.2297648 0.49231303 -0.13256344 0.8765879 0.41847157 0.6346382 -0.39105323
-0.8928548 1.1089128 0.33800855 0.44668 1.7630994 -1.031381 -1.1418378 0.3484163
0.98600304 0.8856017 -1.437542 -0.7202953 -0.5930624 -0.43428347 -0.40469715 -0.22571616
0.7835695 -0.9869868 -0.13844602 -1.3743218 0.82595277 -0.21938409 -0.1424824 0.40413082
0.90578914 -0.39716956 -0.15666226 -0.6869787 0.35458758 0.7082747 1.1043375 -0.07455929
-0.4190564 -0.552029 0.32922664 0.3262722 0.6780061 0.0061726565 0.17501816 0.2507596
0.4238081 -1.2124616 -0.24083567 -0.17675294 -1.6646686 -0.4759821 0.8741129 1.4254501
1.3073117 -0.506672 -0.0067161797 -1.0128202 0.39963275 0.7586848 -1.6097605 0.760933
0.5144487 0.3350924 -0.003399372 0.018539539 -0.22100729 0.94531184 0.049810503 0.08162357
-1.0706556 0.21927124 -0.8653017 0.732601 0.4207728 -1.8180758 -0.6942548 0.49680552
-0.32528296 -1.3469267 -0.19024734 0.14128296 0.5632094 -0.2687938 0.04298502 -0.26903015
0.526877 0.03683432 -0.75469464 0.7310258 -1.0056783 -0.45560357 -0.081633106 0.5076704
0.6170673 0.25117055 0.1600089 0.012246889 -0.45462617 0.7593537 0.8789281 -0.5427583
0.28753895 -1.177909 0.6911571 -0.6197149 0.12795204 -0.7755928 0.15341292 0.09418027
1.9000131 -0.10848955 0.2793986 0.18471803 -0.1396517 -0.23800348 -0.86688215 0.18923007
0.012739789 0.03322907 0.01099797 -0.07671818 0.001071911 1.8201573 -0.7486486 -0.26757094
0.13713957 -0.533904 -0.016657576 -0.5535062 -1.134041 0.6909681 0.13137268 0.032341354
-0.20059451 0.17244302 0.69900924 -0.36669025 -0.033334397 0.17619032 -1.3283268 0.26721594
0.5253584 -1.2297 -0.4893093 0.014260016 -0.47382402 -0.26287755 0.35454914 0.12346583
0.2717262 -0.29154408 1.0899618 0.5992025 0.0015613122 0.030323768 -0.19753377 0.19366977
0.2956763 1.5660167 -0.040429175 -0.6293646 -1.0580827 0.34972182 -0.7085558 -0.18838224
00000000: 241a 98bd 657c 0b3f 61be 9ebf c05e 11be
00000010: 90d8 943d 86e9 a93f 66a4 7bc0 4f12 d2be
00000020: f694 793f b4d2 53bf ff6a 6fbf e9d8 363f
00000030: a90e 433e bafe 9dbf d985 fd3e 01a9 073f
00000040: 946d 39bf 7b8d 103f b6b4 9ebe a7a7 99bf
00000050: 6a78 02bf f061 0440 329f 923e 33c1 53bf
00000060: f3fe 833f 36bb 153f c615 583c a3b5 72bf
00000070: 25c8 863f 6b88 7a3c a48b 203f b768 fc3d
00000080: b33f 9fbe 8653 2fbf 4c82 5b3f e14d fcbe
00000090: 5ef4 50bf 41fd c4bf d9f3 f5bf 81e3 8c3e
000000a0: 360d 09be 3d0f 3c3f 2b56 ef3e faed 04bf
000000b0: 4eae 4fbf 5e7b e8bd 92cf 9a3e 7a09 fabd
000000c0: d09f 843f fc16 06bf 8b47 efbf 584e 6cbf
000000d0: c8d7 943d f115 6d3f e08b 3c3a 8e63 d53e
000000e0: 4372 da3e b5ab f13c 6669 56bd 505a a7bf
000000f0: 851f aa3f 96d5 bdbe 0b07 fa3f adf3 bc3e
00000100: 4781 f5be 665d 23bf cbc2 80bf 66d5 0c3f
00000110: 068f 9c3f 1a81 143d 6415 49bf 1ded 1ebe
00000120: cbd4 643f 9f51 61bf c884 483e 12bb 7ebf
00000130: e2b2 0f3e bd01 573d 6330 4abf d509 603f
00000140: 7b82 ea3e a82e c43e 672b 0fbe b827 93bf
00000150: 197a a83e 427d 48be 9f45 debe ee89 723f
00000160: 3246 3e3f 7747 6b3e 7410 fc3e b6be 07be
00000170: 1168 603f e841 d63e a677 223f 2138 c8be
00000180: 2292 64bf dbf0 8d3f 750f ad3e 3eb3 e43e
00000190: 3ead e13f 4b04 84bf be27 92bf 9f63 b23e
000001a0: b26a 7c3f cbb6 623f 6001 b8bf 4665 38bf
000001b0: f0d2 17bf 675a debe 7734 cfbe 2322 67be
000001c0: 0398 483f 2bab 7cbf cbc4 0dbe c7e9 afbf
000001d0: a471 533f 39a6 60be e8e6 11be 3cea ce3e
000001e0: cce1 673f cf59 cbbe 126c 20be d6dd 2fbf
000001f0: 818c b53e 7e51 353f ee5a 8d3f 8bb2 98bd
00000200: 8f8e d6be c651 0dbf 6590 a83e 260d a73e
00000210: cf91 2d3f ff43 ca3b f637 333e 9063 803e
00000220: 60fd d83e f131 9bbf a09d 76be b9fe 34be
00000230: dc13 d5bf edb3 f3be ddc5 5f3f 2675 b63f
00000240: fd55 a73f 42b5 01bf 6613 dcbb 18a4 81bf
00000250: aa9c cc3e 2b39 423f a20c cebf 81cc 423f
00000260: e9b2 033f 3b91 ab3e 00c8 5ebb 3be0 973c
00000270: bc4f 62be f5ff 713f 1906 4c3d 422a a73d
00000280: 3e0b 89bf a488 603e 6a84 5dbf bd8b 3b3f
00000290: 886f d73e b5b6 e8bf afba 31bf 4b5d fe3e
000002a0: 7d8b a6be 1868 acbf 33d0 42be 7bac 103e
000002b0: 7e2e 103f 579f 89be 0f11 303d 52be 89be
000002c0: 69e1 063f 95df 163d ab33 41bf 8224 3b3f
000002d0: 11ba 80bf df44 e9be 422f a7bd b0f6 013f
000002e0: 1ff8 1d3f 6d99 803e 60d9 233e 2da7 483c
000002f0: c3c4 e8be 0165 423f 6f01 613f 35f2 0abf
00000300: 4e38 933e b9c5 96bf acef 303f a3a5 1ebf
00000310: dc05 033e 408d 46bf 4718 1d3e 96e1 c03d
00000320: a133 f33f c52f debd 550d 8f3e b926 3d3e
00000330: db00 0fbe 2fb7 73be fdeb 5dbf 87c5 413e
00000340: 8cba 503c 351b 083d d430 343c 6c1e 9dbd
00000350: 5d7f 8c3a eafa e83f 6fa7 3fbf 0fff 88be
00000360: 516e 0c3e efad 08bf 7875 88bc 95b2 0dbf
00000370: 4128 91bf 49e3 303f 8f86 063e 5e78 043d
00000380: a668 4dbe e794 303e 45f2 323f d3be bbbe
00000390: a689 08bd 3c6b 343e 9d06 aabf 87d0 883e
000003a0: e37d 063f cf66 9dbf c086 fabe d8a2 693c
000003b0: 1099 f2be e397 86be 7787 b53e a7db fc3d
000003c0: b21f 8b3e 4445 95be de83 8b3f 5665 193f
000003d0: f2a4 cc3a 8d69 f83c 4b46 4abe 5e51 463e
000003e0: e262 973e 3c73 c83f 1099 25bd 0a1e 21bf
000003f0: 416f 87bf bd0e b33e ea63 35bf 46e7 40be

tril f4 [16, 16]
1.0 0.0 0.0 0.0 0.0 0.0 0.0 0.0
0.0 0.0 0.0 0.0 0.0 0.0 0.0 0.0
1.0 1.0 0.0 0.0 0.0 0.0 0.0 0.0
0.0 0.0 0.0 0.0 0.0 0.0 0.0 0.0
1.0 1.0 1.0 0.0 0.0 0.0 0.0 0.0
0.0 0.0 0.0 0.0 0.0 0.0 0.0 0.0
1.0 1.0 1.0 1.0 0.0 0.0 0.0 0.0
0.0 0.0 0.0 0.0 0.0 0.0 0.0 0.0
1.0 1.0 1.0 1.0 1.0 0.0 0.0 0.0
0.0 0.0 0.0 0.0 0.0 0.0 0.0 0.0
1.0 1.0 1.0 1.0 1.0 1.0 0.0 0.0
0.0 0.0 0.0 0.0 0.0 0.0 0.0 0.0
1.0 1.0 1.0 1.0 1.0 1.0 1.0 0.0
0.0 0.0 0.0 0.0 0.0 0.0 0.0 0.0
1.0 1.0 1.0 1.0 1.0 1.0 1.0 1.0
0.0 0.0 0.0 0.0 0.0 0.0 0.0 0.0
1.0 1.0 1.0 1.0 1.0 1.0 1.0 1.0
1.0 0.0 0.0 0.0 0.0 0.0 0.0 0.0
1.0 1.0 1.0 1.0 1.0 1.0 1.0 1.0
1.0 1.0 0.0 0.0 0.0 0.0 0.0 0.0
1.0 1.0 1.0 1.0 1.0 1.0 1.0 1.0
1.0 1.0 1.0 0.0 0.0 0.0 0.0 0.0
1.0 1.0 1.0 1.0 1.0 1.0 1.0 1.0
1.0 1.0 1.0 1.0 0.0 0.0 0.0 0.0
1.0 1.0 1.0 1.0 1.0 1.0 1.0 1.0
1.0 1.0 1.0 1.0 1.0 0.0 0.0 0.0
1.0 1.0 1.0 1.0 1.0 1.0 1.0 1.0
1.0 1.0 1.0 1.0 1.0 1.0 0.0 0.0
1.0 1.0 1.0 1.0 1.0 1.0 1.0 1.0
1.0 1.0 1.0 1.0 1.0 1.0 1.0 0.0
1.0 1.0 1.0 1.0 1.0 1.0 1.0 1.0
1.0 1.0 1.0 1.0 1.0 1.0 1.0 1.0
00000000: 0000 803f 0000 0000 0000 0000 0000 0000
00000010: 0000 0000 0000 0000 0000 0000 0000 0000
00000020: 0000 0000 0000 0000 0000 0000 0000 0000
00000030: 0000 0000 0000 0000 0000 0000 0000 0000
00000040: 0000 803f 0000 803f 0000 0000 0000 0000
00000050: 0000 0000 0000 0000 0000 0000 0000 0000
00000060: 0000 0000 0000 0000 0000 0000 0000 0000
00000070: 0000 0000 0000 0000 0000 0000 0000 0000
00000080: 0000 803f 0000 803f 0000 803f 0000 0000
00000090: 0000 0000 0000 0000 0000 0000 0000 0000
000000a0: 0000 0000 0000 0000 0000 0000 0000 0000
000000b0: 0000 0000 0000 0000 0000 0000 0000 0000
000000c0: 0000 803f 0000 803f 0000 803f 0000 803f
000000d0: 0000 0000 0000 0000 0000 0000 0000 0000
000000e0: 0000 0000 0000 0000 0000 0000 0000 0000
000000f0: 0000 0000 0000 0000 0000 0000 0000 0000
00000100: 0000 803f 0000 803f 0000 803f 0000 803f
00000110: 0000 803f 0000 0000 0000 0000 0000 0000
00000120: 0000 0000 0000 0000 0000 0000 0000 0000
00000130: 0000 0000 0000 0000 0000 0000 0000 0000
00000140: 0000 803f 0000 803f 0000 803f 0000 803f
00000150: 0000 803f 0000 803f 0000 0000 0000 0000
00000160: 0000 0000 0000 0000 0000 0000 0000 0000
00000170: 0000 0000 0000 0000 0000 0000 0000 0000
00000180: 0000 803f 0000 803f 0000 803f 0000 803f
00000190: 0000 803f 0000 803f 0000 803f 0000 0000
000001a0: 0000 0000 0000 0000 0000 0000 0000 0000
000001b0: 0000 0000 0000 0000 0000 0000 0000 0000
000001c0: 0000 803f 0000 803f 0000 803f 0000 803f
000001d0: 0000 803f 0000 803f 0000 803f 0000 803f
000001e0: 0000 0000 0000 0000 0000 0000 0000 0000
000001f0: 0000 0000 0000 0000 0000 0000 0000 0000
00000200: 0000 803f 0000 803f 0000 803f 0000 803f
00000210: 0000 803f 0000 803f 0000 803f 0000 803f
00000220: 0000 803f 0000 0000 0000 0000 0000 0000
00000230: 0000 0000 0000 0000 0000 0000 0000 0000
00000240: 0000 803f 0000 803f 0000 803f 0000 803f
00000250: 0000 803f 0000 803f 0000 803f 0000 803f
00000260: 0000 803f 0000 803f 0000 0000 0000 0000
00000270: 0000 0000 0000 0000 0000 0000 0000 0000
00000280: 0000 803f 0000 803f 0000 803f 0000 803f
00000290: 0000 803f 0000 803f 0000 803f 0000 803f
000002a0: 0000 803f 0000 803f 0000 803f 0000 0000
000002b0: 0000 0000 0000 0000 0000 0000 0000 0000
000002c0: 0000 803f 0000 803f 0000 803f 0000 803f
000002d0: 0000 803f 0000 803f 0000 803f 0000 803f
000002e0: 0000 803f 0000 803f 0000 803f 0000 803f
000002f0: 0000 0000 0000 0000 0000 0000 0000 0000
00000300: 0000 803f 0000 803f 0000 803f 0000 803f
00000310: 0000 803f 0000 803f 0000 803f 0000 803f
00000320: 0000 803f 0000 803f 0000 803f 0000 803f
00000330: 0000 803f 0000 0000 0000 0000 0000 0000
00000340: 0000 803f 0000 803f 0000 803f 0000 803f
00000350: 0000 803f 0000 803f 0000 803f 0000 803f
00000360: 0000 803f 0000 803f 0000 803f 0000 803f
00000370: 0000 803f 0000 803f 0000 0000 0000 0000
00000380: 0000 803f 0000 803f 0000 803f 0000 803f
00000390: 0000 803f 0000 803f 0000 803f 0000 803f
000003a0: 0000 803f 0000 803f 0000 803f 0000 803f
000003b0: 0000 803f 0000 803f 0000 803f 0000 0000
000003c0: 0000 803f 0000 803f 0000 803f 0000 803f
000003d0: 0000 803f 0000 803f 0000 803f 0000 803f
000003e0: 0000 803f 0000 803f 0000 803f 0000 803f
000003f0: 0000 803f 0000 803f 0000 803f 0000 803f

weight f4 [32, 32]
0.69760156 0.120338425 0.41880158 -0.053335227 -0.248055 -0.054206155 0.6651781 0.062495627
-0.50521266 -0.19708467 0.0720967 0.22172078 -0.12813205 0.1388253 -0.22511426 -0.043831285
-0.07523424 -0.048254926 -0.11578441 -0.06594179 0.057852987 0.112634644 0.117514335 0.09743316
0.09145377 -0.15423481 0.154907 0.018067472 -0.09430757 -0.089240715 -0.10269393 -0.17308415
-0.09485258 0.35152966 -0.13573729 0.08163041 -0.17768063 -0.14638402 -0.13513243 -0.13914424
-0.017272849 0.15395023 0.2140627 -0.1557969 0.07229167 0.0561489 -0.19496281 0.021220647
-0.06299429 0.4782415 0.051239043 -0.16347906 -0.45732054 -0.096606724 -0.19633071 0.7705999
0.7431014 0.035337094 -0.16119033 -0.41485327 -0.39497223 -0.26828507 0.15921883 -0.17984283
0.20544375 0.36721638 0.04427828 -0.14691919 -0.012258062 -0.021413758 0.009494882 0.14523007
-0.4301901 -0.0032173863 0.0028088165 -0.10226371 0.3703961 0.1601526 -0.176391 -0.0057741893
-0.018695848 -0.18330632 -0.04506576 -0.07806639 0.63597363 -0.038873423 0.5155943 0.16318822
0.09439875 -0.56411403 0.018465104 0.16349496 -0.13118221 -0.12133064 -0.07419657 -0.40810472
-0.48233086 0.20721334 -0.2850166 -0.017406525 0.11214459 0.011664195 -0.15839186 -0.18623878
0.28914258 0.033839192 0.029611088 -0.0033748206 -0.17001808 -0.14863355 0.012396657 0.07015793
-0.12558466 0.34269363 0.14067549 0.06916669 0.020531908 0.076077305 -0.50657135 0.32686585
0.1569257 0.2173789 -0.31712466 0.09151638 -0.06259903 0.13644205 0.14138688 -0.21960558
-0.33346084 -0.71309656 0.2665865 -0.0069833254 0.20054679 -0.06842705 -0.6069059 -0.28050846
-0.11088974 -0.13218853 0.015159049 -0.4577277 0.2501942 0.09100148 -0.030675704 0.04633131
-0.21749201 0.21125242 -0.06880882 0.099044755 -0.10690037 0.22423238 -0.2655822 0.2956606
0.22883493 0.14641549 -0.09164539 -0.089801595 -0.012044465 0.2787555 -0.18459512 -0.19325335
-0.20347774 0.33772945 -0.109921545 0.056504942 0.12609498 0.048248567 -0.011850588 -0.23095275
-0.2939584 -0.048436485 0.0725007 0.04798997 0.27489385 0.05864633 -0.1339906 -0.102517515
0.24841863 -0.50242335 0.26310086 0.041940782 -0.06093889 0.37640738 -0.043321963 0.26723206
-0.26391578 -0.1726315 -0.15292959 0.18417954 0.019899743 0.24577925 0.037952602 -0.13351075
0.086021855 -0.017285325 -0.34099838 -0.23580861 0.375138 0.095569715 0.5719105 0.23588862
-0.26450795 -0.0038292757 -0.032161422 0.3923383 0.20800774 -0.17627454 0.10700997 -0.04482843
0.07096631 -0.05183941 -0.35872748 -0.43076652 -0.41475558 0.16024454 -0.016918182 -0.16571201
-0.2033258 0.20160288 -0.0577376 -0.6119044 0.20115212 -0.14990626 -0.29731983 -0.015109029
0.011541651 0.18530439 -0.0482704 -2.142135e-05 0.20797113 -0.1058121 0.3146991 0.028789919
0.09034265 0.13702843 0.037050292 -0.025915472 0.09258865 0.009331213 -0.03098104 0.023750318
0.11833072 0.30862066 0.18981346 0.57755554 -0.10803613 0.3186547 0.32186812 0.31308922
0.16271259 0.16949788 0.14184377 0.08729489 -0.7064259 -0.24822916 0.079560824 0.18072906
00000000: 0496 323f fe73 f63d 296d d63e 0a76 5abd
00000010: 2102 7ebe 4607 5ebd 1d49 2a3f 6afb 7f3d
00000020: 9e55 01bf 90d0 49be 6fa7 933d c60a 633e
00000030: 0c35 03be 3828 0e3e 5a84 66be 6f88 33bd
00000040: 6914 9abd f5a6 45bd 6020 edbd 7d0c 87bd
00000050: 41f7 6c3d feac e63d 5bab f03d 098b c73d
00000060: 1d4c bb3d bbef 1dbe f19f 1e3e 3c02 943c
00000070: 5424 c1bd d6c3 b6bd 3251 d2bd f93c 31be
00000080: 1242 c2bd b2fb b33e b7fe 0abe d82d a73d
00000090: e9f1 35be b1e5 15be 2860 0abe d47b 0ebe
000000a0: ca7f 8dbc 21a5 1d3e 4133 5b3e 3989 1fbe
000000b0: a80d 943d 64fc 653d 55a4 47be ecd6 ad3c
000000c0: 2603 81bd 12dc f43e 08e0 513d 0e67 27be
000000d0: eb25 eabe bfd9 c5bd eb0a 49be 0946 453f
000000e0: e53b 3e3f a1bd 103d 140f 25be a667 d4be
000000f0: cd39 cabe a95c 89be 430a 233e b828 38be
00000100: d95f 523e c903 bc3e 245d 353d fc71 16be
00000110: 0ad6 48bc e86b afbc 6c90 1b3c 31b7 143e
00000120: e041 dcbe c9da 52bb 1f14 383b a36f d1bd
00000130: 8fa4 bd3e 0bff 233e d89f 34be 6935 bdbb
00000140: 0928 99bc a7b4 3bbe e096 38bd 45e1 9fbd
00000150: 2bcf 223f bd39 1fbd fdfd 033f d01a 273e
00000160: 2254 c13d c769 10bf 2144 973c 396b 273e
00000170: a154 06be 337c f8bd 5ff4 97bd 1af3 d0be
00000180: 12f4 f6be bc2f 543e b2ed 91be 2198 8ebc
00000190: 10ac e53d 2e1b 3f3c 7a31 22be 61b5 3ebe
000001a0: 7f0a 943e f79a 0a3d f492 f23c 182c 5dbb
000001b0: 3819 2ebe 6533 18be 591b 4b3c f6ae 8f3d
000001c0: 4499 00be 8a75 af3e 3c0d 103e 44a7 8d3d
000001d0: 8832 a83c 6bce 9b3d a9ae 01bf f65a a73e
000001e0: 21b1 203e 9398 5e3e 2a5e a2be f16c bb3d
000001f0: ec33 80bd 77b7 0b3e b9c7 103e 49e0 60be
00000200: 61bb aabe 7f8d 36bf 077e 883e 61d4 e4bb
00000210: 235c 4d3e 7b23 8cbd 2f5e 1bbf ce9e 8fbe
00000220: 291a e3bd 6e5c 07be a95d 783c 495b eabe
00000230: 7419 803e fc5e ba3d 9d4b fbbc e6c5 3d3d
00000240: 3ab6 5ebe 8e52 583e a3eb 8cbd fad7 ca3d
00000250: 95ee dabd 2c9d 653e 64fa 87be d360 973e
00000260: b453 6a3e f1ed 153e 94b0 bbbd e6e9 b7bd
00000270: 2656 45bc 0ab9 8e3e 8106 3dbe 35e4 45be
00000280: 785c 50be e0ea ac3e 8c1e e1bd ba71 673d
00000290: 0b1f 013e 4aa0 453d f828 42bc e17e 6cbe
000002a0: b781 96be 5665 46bd 3f7b 943d 2191 443d
000002b0: e3be 8c3e 2237 703d d534 09be b4f4 d1bd
000002c0: 7461 7e3e d19e 00bf 28b5 863e 19ca 2b3d
000002d0: 0f9b 79bd 78b8 c03e 5f72 31bd a4d2 883e
000002e0: f81f 87be 50c6 30be 9399 1cbe 9099 3c3e
000002f0: c904 a33c 8ead 7b3e 3074 1b3d 0bb7 08be
00000300: 3a2c b03d f499 8dbc 5797 aebe d077 71be
00000310: 1712 c03e 0eba c33d ba68 123f c98c 713e
00000320: 966d 87be 96f4 7abb b2bb 03bd 91e0 c83e
00000330: fbff 543e 5081 34be 0b28 db3d 049e 37bd
00000340: c956 913d 9055 54bd 21ab b7be 6e8d dcbe
00000350: d85a d4be 2517 243e 0098 8abc 69b0 29be
00000360: a334 50be fc70 4e3e 437e 6cbd c4a5 1cbf
00000370: d2fa 4d3e 0781 19be 4e3a 98be dc8b 77bc
00000380: 3119 3d3c 6fc0 3d3e 2fb7 45bd 00b2 b3b7
00000390: 62f6 543e 04b4 d8bd 3e20 a13e d6d8 eb3c
000003a0: 9105 b93d 2e51 0c3e 0cc2 173d af4c d4bc
000003b0: 1e9f bd3d f2e1 183c f3cb fdbc 0790 c23c
000003c0: 6057 f23d 8703 9e3e 765e 423e aeda 133f
000003d0: 0c42 ddbd b526 a33e e6cb a43e 3b4d a03e
000003e0: 219e 263e da90 2d3e 7e3f 113e aac7 b23d
000003f0: 54d8 34bf c92f 7ebe c9f0 a23d 0a11 393e

bias f4 [32]
0.019481886 0.048143394 0.27403608 0.44199008 0.1359759 0.39758343 -0.67930555 0.3525628
0.020673733 -0.10370479 0.706862 -0.23245895 0.2580307 -0.13205054 -0.076513655 -0.05407527
0.06672656 -0.21028113 -0.045165505 -0.3601707 0.116631 0.4806437 -0.25000656 -0.51063704
0.025232872 0.058214713 -0.7169624 0.24668942 -0.13378818 -0.18301632 0.36691114 -0.3967679
00000000: 7a98 9f3c 0232 453d 754e 8c3e 864c e23e
00000010: 443d 0b3e 0e90 cb3e f8e6 2dbf 1c83 b43e
00000020: f65b a93c 2d63 d4bd e8f4 343f b809 6ebe
00000030: 9a1c 843e 4238 07be 31b3 9cbd 087e 5dbd
00000040: efa7 883d f053 57be 77ff 38bd 4b68 b8be
00000050: 3cdc ee3d ee16 f63e dc00 80be 1cb9 02bf
00000060: 2bb5 ce3c 8d72 6e3d d98a 37bf 279c 7c3e
00000070: c5ff 08be a168 3bbe c7db bb3e 2a25 cbbe

weight f4 [32, 32]
-0.08862217 -0.33478367 -0.93833005 0.6702205 -0.0579057 -0.62894636 0.7506779 -0.12648313
-0.45592463 0.12513652 1.3602768 -0.18664633 0.31955022 0.38875556 -0.66676986 -0.60537
0.02793641 0.48270607 -0.655448 -0.29622918 0.017903078 0.2811628 -0.093154535 0.10794204
-0.3887824 -0.74889404 0.4230435 0.31552795 0.75230634 -0.6990511 0.40783668 -0.39440998
-0.318699 0.89880985 -1.3029143 1.2327312 0.51466405 0.092616126 0.092456885 -0.0076347548
-0.8996157 -0.5715937 0.358674 -0.09125203 0.37605166 0.13191627 -0.22318922 -0.44989452
-0.35509074 0.805564 0.46675205 0.18004923 -0.25068462 -0.78434694 -0.060452297 0.17961456
-0.37588176 0.5638601 0.8970177 0.051266998 0.20355378 -0.7949757 -0.74730676 -0.24463816
0.47714746 0.21230648 0.124029376 -0.004180538 0.518817 0.12244672 0.093791336 0.9153063
1.0202309 1.0489641 -0.21188141 -0.12211624 -0.2633311 -0.14783776 -1.4689164 -0.9268549
-0.2857262 -0.25085 0.29914534 0.4656759 0.045384325 0.0011691386 0.38801405 -0.40532625
-0.94409955 -0.6132399 0.5079341 -0.22273411 -0.7197057 0.1652541 -0.19023716 -0.6461017
-0.01539191 0.076643355 0.16005087 0.21775328 0.95616585 -0.14380252 0.47662425 0.42053652
0.5443014 0.38642535 -0.20047723 -0.36085653 0.46855816 -0.8494689 -0.94586515 -0.6206024
-0.059617657 0.16526105 0.07855311 -0.08158943 -0.2438928 -0.73145515 -0.46314174 -0.34286118
0.4469807 0.45696923 -0.046083473 0.21044692 -0.42886847 0.4210237 -0.1537939 -0.22889039
0.20115054 0.615124 -1.2901856 0.17443202 0.37037078 -0.14076258 0.16177942 -0.03253676
0.26923403 -0.2519142 0.20823081 -0.13582759 0.2329232 -0.07413088 -0.84142673 -0.25483143
-0.30525059 0.3619236 -0.38607278 0.1442908 -0.18028702 -0.078657985 0.4113746 -0.26935506
0.18182193 -0.88363785 -0.32562172 0.37164173 0.4194596 0.26439476 0.51086646 -0.13206695
-0.015741477 -0.34756374 0.59252876 -0.10862202 -0.20270994 -0.3609084 1.1973602 -0.35500324
-0.33056504 -0.9331274 1.1105987 -0.11590769 -0.08964304 -0.12215079 -0.2500831 -0.3297698
0.42840883 0.017068448 0.29992366 0.5167082 0.048319973 -0.085877866 -0.77280587 0.2940275
0.5569612 -0.014747379 -0.19950283 0.013081773 -0.08865101 -0.07487648 -0.750386 0.37156796
-0.11986397 -0.028970525 -0.21273941 0.28846705 0.69170535 0.726717 -0.32480788 -0.6470911
0.20758782 0.8357027 -0.85084677 0.2732691 0.15025465 -0.3264419 -0.19053039 0.465333
-0.060039617 0.17399268 0.75019735 -1.3193775 0.17321984 0.21372521 -0.30436108 -0.25134185
-0.681383 0.67003244 0.3633277 -0.46791238 -0.046552137 -0.09231468 -0.8558318 0.012432204
-0.19181412 1.0516055 1.0170119 0.35997894 -0.70966655 -0.1612827 0.22501367 0.37545523
-0.7371976 0.4782326 0.12267461 0.6727942 -0.28696254 0.34321654 0.87205124 -0.44642574
0.031150403 -0.08188461 0.45710754 0.4499244 0.36270848 0.06641406 0.23727855 -0.011947355
-0.952869 -0.6605481 -0.395723 -0.0582754 -1.0556095 -0.40511036 -0.9019471 0.10746015
00000000: 8a7f b5bd c468 abbe 6636 70bf 9293 2b3f
00000010: 872e 6dbd a102 21bf 6d2c 403f cb84 01be
00000020: f46e e9be ca23 003e 8d1d ae3f 3720 3fbe
00000030: 169c a33e f80a c73e 6eb1 2abf 87f9 1abf
00000040: e6da e43c 4025 f73e 71cb 27bf 5aab 97be
00000050: 7aa9 923c 92f4 8f3e cec7 bebd b710 dd3d
00000060: 7d0e c7be 85b7 3fbf 2899 d83e e18c a13e
00000070: 2697 403f 03f5 32bf f8cf d03e 1bf0 c9be
00000080: 842c a3be 6718 663f e5c5 a6bf 23ca 9d3f
00000090: 06c1 033f 86ad bd3d 095a bd3d f72c fabb
000000a0: 374d 66bf f753 12bf 1ea4 b73e 58e2 babd
000000b0: d889 c03e 0f15 073e b78b 64be 9358 e6be
000000c0: 74ce b5be 7139 4e3f 20fa ee3e d35e 383e
000000d0: bc59 80be f6ca 48bf d49c 77bd e1ec 373e
000000e0: 9373 c0be 2359 103f f4a2 653f 58fd 513d
000000f0: 6770 503e 8783 4bbf 7f4f 3fbf 6d82 7abe
00000100: ac4c f43e df66 593e 1d03 fe3d e5fc 88bb
00000110: 31d1 043f 59c5 fa3d ac15 c03d 8451 6a3f
00000120: ed96 823f 7544 863f 71f7 58be 1418 fabd
00000130: 55d3 86be c862 17be 7405 bcbf 5d46 6dbf
00000140: b44a 92be 696f 80be 9429 993e 126d ee3e
00000150: eae4 393d c83d 993a c7a9 c63e ec86 cfbe
00000160: 82b0 71bf 4afd 1cbf f807 023f 6914 64be
00000170: a23e 38bf 5f38 293e 88cd 42be ec66 25bf
00000180: 5a2e 7cbc 31f7 9c3d 60e4 233e b7fa 5e3e
00000190: 49c7 743f f840 13be 1808 f43e 9050 d73e
000001a0: 5657 0b3f 8bd9 c53e e749 4dbe 30c2 b8be
000001b0: dbe6 ef3e cb76 59bf 3824 72bf cddf 1ebf
000001c0: a531 74bd 313a 293e 74e0 a03d 5c18 a7bd
000001d0: 09bf 79be a540 3bbf ea20 edbe 808b afbe
000001e0: a8da e43e dff7 e93e 06c2 3cbd 667f 573e
000001f0: a694 dbbe 6b90 d73e 267c 1dbe 3e62 6abe
00000200: 68fa 4d3e c478 1d3f cd24 a5bf 4f9e 323e
00000210: 3da1 bd3e 1124 10be 81a9 253e 4445 05bd
00000220: 0bd9 893e e6fa 80be 753a 553e 6316 0bbe
00000230: 6b83 6e3e eed1 97bd be67 57bf 4479 82be
00000240: ce49 9cbe 0d4e b93e 55ab c5be f8c0 133e
00000250: 299d 38be 7017 a1bd b19f d23e e8e8 89be
00000260: 872f 3a3e 1736 62bf e4b7 a6be d347 be3e
00000270: 69c3 d63e c05e 873e 25c8 023f 8f3c 07be
00000280: 45f4 80bc e0f3 b1be f7af 173f 3975 debd
00000290: 3293 4fbe fcc8 b8be 1943 993f fcc2 b5be
000002a0: d23f a9be 70e1 6ebf 1928 8e3f 0361 edbd
000002b0: c596 b7bd 322a fabd e40a 80be 96d7 a8be
000002c0: 6758 db3e 21d3 8b3c 988f 993e fd46 043f
000002d0: 2aeb 453d bce0 afbd 9bd6 45bf c68a 963e
000002e0: 0295 0e3f fe9e 71bc 784a 4cbe ef54 563c
000002f0: a98e b5bd d758 99bd 4c19 40bf 283e be3e
00000300: 3e7b f5bd 9853 edbc 5cd8 59be f4b1 933e
00000310: 9a13 313f 200a 3a3f 384d a6be c3a7 25bf
00000320: e791 543e 9df0 553f 18d1 59bf ede9 8b3e
00000330: 5bdc 193e 6523 a7be 661a 43be 2140 ee3e
00000340: 1aec 75bd 232b 323e ef0c 403f 5de1 a8bf
00000350: 8b60 313e c8da 5a3e 37d5 9bbe e1af 80be
00000360: 1e6f 2ebf 3f87 2b3f 1706 ba3e 3692 efbe
00000370: 74ad 3ebd 7b0f bdbd cb17 5bbf 71b0 4b3c
00000380: ec6a 44be 029b 863f 722d 823f 294f b83e
00000390: b5ac 35bf 4b27 25be fc69 663e ab3b c03e
000003a0: fbb8 3cbf e7da f43e d33c fb3d 3e3c 2c3f
000003b0: c1ec 92be 14ba af3e c03e 5f3f ea91 e4be
000003c0: 212f ff3c 1eb3 a7bd 000a ea3e 7e5c e63e
000003d0: edb4 b93e 1804 883d 26f9 723e d7be 43bc
000003e0: 39ef 73bf ae19 29bf 349c cabe 30b2 6ebd
000003f0: 361e 87bf a06a cfbe 01e6 66bf 1114 dc3d

weight f4 [32, 32]
0.5277554 0.7514639 0.26322913 0.088345215 0.6505464 0.7621926 -0.4056347 0.25439167
1.2772255 0.33912453 -1.097349 -0.34951964 -0.35863295 -0.12434945 -0.8331199 0.09446302
-0.44664901 -0.48397487 0.552886 0.0039421935 0.21869613 -0.65693295 0.44202963 -0.033264834
-0.055701338 -0.34758 -0.33604786 -0.39056233 -0.59832656 0.3816559 0.20778769 -0.5769654
0.6923765 0.05595251 1.0750281 -0.20601724 0.19352913 -0.5138043 0.47195497 0.24208629
0.17647126 1.2959213 0.03092068 0.22506975 -0.118877694 0.050383437 -0.1541071 -0.90864486
0.50180984 -0.8919254 -0.21560545 -0.13656154 0.47669867 0.57859254 0.33085293 -0.012144538
-0.53504246 -1.3530962 -0.0038156228 -0.2544106 -0.8036078 -0.30773786 0.42268595 0.36842707
0.10483843 0.8411483 0.7183912 0.62128603 -0.2035622 0.2907082 0.5578751 -0.04489815
-0.34953496 -0.27655795 -0.028544143 -0.1868311 -1.2445828 0.29246113 0.9275865 0.98154354
0.0003738092 0.014121502 1.2420948 -0.8278867 0.09618633 -0.3169288 -0.3722225 0.05140318
-0.4170503 0.4268619 0.28661537 -0.41503906 -0.8668377 0.030084936 -0.7385367 0.21682815
-0.34683838 -0.28812212 0.39777935 -0.49512535 -0.3113144 -0.8667452 0.5241475 -0.38055778
0.027128069 0.16739714 -0.025315292 0.09677679 -0.66868174 -0.32924715 0.43314117 0.7919203
0.36590356 -0.12866132 0.165162 -0.23015918 0.45361504 0.5601118 -0.1671088 -0.16027842
0.51472616 -0.06219437 -0.22594105 -0.06045094 -0.31531298 0.5089994 -0.20929217 0.7771173
0.07707605 0.33924535 0.8768539 -0.2522725 -0.08320338 0.5139142 -0.16201656 0.5714522
0.39560065 0.88286746 -0.10820637 -0.019115439 -0.80185324 -0.5239709 -0.4693484 -0.05980919
-0.012226852 0.029228803 0.205787 -0.49525452 -0.21022464 0.34355575 0.07310577 -0.6912354
0.0011422635 0.36328545 0.07058462 -0.13427146 -0.34914845 0.1932706 0.15604275 0.16982017
0.13131334 0.3954812 -0.13665344 0.1957989 0.31605983 -1.2972336 0.7485632 -0.51733524
0.6478868 -0.7014533 -0.08145179 -0.30907372 0.007157555 0.24869493 -0.77176744 -0.36689863
0.2863258 -0.5103921 0.40219295 0.80861664 0.20632654 -0.22431658 -0.047275897 0.5880324
0.5244036 0.049582098 0.099865876 -0.43311316 -0.30369622 0.41926336 -0.283424 0.16284405
-0.06659613 0.66573435 0.40392405 -0.47777155 -0.47275135 -0.050945666 -0.46462137 0.3351243
-0.6557201 0.009175944 -0.3286387 -0.03277346 -0.03705971 0.15314944 1.2354274 0.19776063
0.24850507 -0.6043871 -0.61880153 0.22294487 0.058818188 -0.28384677 0.0935738 0.021989685
0.5309017 -0.64027417 -0.5710808 0.26509905 0.5237739 -0.05275904 0.7737606 0.32718518
0.19474451 -0.013492279 -0.9505482 0.83012867 -0.87139577 0.5912018 0.79733115 0.46142644
-0.43774822 -1.2263268 1.6677768 0.22705854 -0.61624926 1.2798917 -0.41136336 0.19767922
0.17217033 0.49468726 0.19460808 0.4026876 -0.17192878 0.16490379 0.10189482 0.8026035
-1.227683 -0.63848394 0.012581761 0.15662828 -0.36139187 -0.2390372 -0.36142692 -0.6317341
00000000: fa1a 073f f05f 403f f8c5 863e 56ee b43d
00000010: 358a 263f 0e1f 433f 5aaf cfbe a03f 823e
00000020: 207c a33f bba1 ad3e ef75 8cbf 3df4 b2be
00000030: bd9e b7be edaa febd 5947 55bf d475 c13d
00000040: 2eaf e4be 8ecb f7be f089 0d3f 842d 813b
00000050: e1f1 5f3e c22c 28bf b551 e23e b540 08bd
00000060: 1627 64bd 01f6 b1be 770e acbe c9f7 c7be
00000070: ee2b 19bf 6768 c33e 4cc6 543e 01b4 13bf
00000080: 963f 313f 762e 653d 859a 893f 2ff6 52be
00000090: 802c 463e ae88 03bf 15a4 f13e 78e5 773e
000000a0: e2b4 343e c0e0 a53f 5e4d fd3c af78 663e
000000b0: 2676 f3bd dd5e 4e3d 40ce 1dbe f39c 68bf
000000c0: 9c76 003f 3955 64bf adc7 5cbe cad6 0bbe
000000d0: d911 f43e a41e 143f 8e65 a93e e2f9 46bc
000000e0: 8bf8 08bf 4232 adbf 870f 7abb 1b42 82be
000000f0: 3eb9 4dbf d18f 9dbe 4b6a d83e 79a2 bc3e
00000100: 88b5 d63d 7f55 573f 7ce8 373f 9a0c 1f3f
00000110: 9c72 50be b5d7 943e e7d0 0e3f 1fe7 37bd
00000120: 3ff6 b2be 0199 8dbe 68d5 e9bc a750 3fbe
00000130: 7d4e 9fbf 77bd 953e 4f76 6d3f 7046 7b3f
00000140: d2fb c339 df5d 673c f6fc 9e3f 62f0 53bf
00000150: 57fd c43d 7e44 a2be f393 bebe 248c 523d
00000160: 9e87 d5be a58d da3e 40bf 923e 0080 d4be
00000170: 13e9 5dbf af74 f63c be10 3dbf 3308 5e3e
00000180: cd94 b1be be84 93be bca9 cb3e 1281 fdbe
00000190: 9a64 9fbe 03e3 5dbf 882e 063f 78d8 c2be
000001a0: af3b de3c 286a 2b3e 0462 cfbc e932 c63d
000001b0: ba2e 2bbf 1593 a8be aec4 dd3e 4abb 4a3f
000001c0: b657 bb3e cbbf 03be 3a20 293e d9ae 6bbe
000001d0: 3b40 e83e 7d63 0f3f 921e 2bbe 0720 24be
000001e0: 18c5 033f 86bf 7ebd 175d 67be 689b 77bd
000001f0: b470 a1be c94d 023f b050 56be 29f1 463f
00000200: 0cda 9d3d 91b1 ad3e 7f79 603f dc29 81be
00000210: 8966 aabd e28f 033f abe7 25be b14a 123f
00000220: 2b8c ca3e 9a03 623f 4d9b ddbd fb97 9cbc
00000230: 4146 4dbf f522 06bf 6f4e f0be 7bfa 74bd
00000240: 2253 48bc 3e71 ef3c d4b9 523e 0092 fdbe
00000250: 2145 57be 8ae6 af3e 7ab8 953d cef4 30bf
00000260: 01b8 953a 8d00 ba3e ab8e 903d 757e 09be
00000270: 96c3 b2be bae8 453e acc9 1f3e 57e5 2d3e
00000280: 0177 063e 837c ca3e e1ee 0bbe 827f 483e
00000290: 98d2 a13e c00b a6bf d6a1 3f3f 1570 04bf
000002a0: e9db 253f 7292 33bf 32d0 a6bd e93e 9ebe
000002b0: ec89 ea3b e2a9 7e3e 8d92 45bf 23da bbbe
000002c0: 4c99 923e 0fa9 02bf 3cec cd3e 8001 4f3f
000002d0: 4447 533e 3fb3 65be 5fa4 41bd 4b89 163f
000002e0: 503f 063f 9916 4b3d 7b86 cc3d 02c1 ddbe
000002f0: 127e 9bbe b0a9 d63e f31c 91be 97c0 263e
00000300: 8d63 88bd 916d 2a3f 22cf ce3e 799e f4be
00000310: 770c f2be 67ac 50bd dae2 edbe 6a95 ab3e
00000320: 46dd 27bf b356 163c 5543 a8be 773d 06bd
00000330: eccb 17bd 35d3 1c3e 7c22 9e3f c381 4a3e
00000340: 1d78 7e3e 1db9 1abf c769 1ebf a94b 643e
00000350: 57eb 703d 5d54 91be 9fa3 bf3d b623 b43c
00000360: 2ce9 073f 02e9 23bf 5a32 12bf 10bb 873e
00000370: 0c16 063f dd19 58bd 2d15 463f d184 a73e
00000380: 1b6b 473e b80e 5dbc 2057 73bf 5083 543f
00000390: cb13 5fbf 0059 173f e51d 4c3f 1640 ec3e
000003a0: 8920 e0be 47f8 9cbf b679 d53f 0982 683e
000003b0: 83c2 1dbf 7ed3 a33f 389e d2be 6c6c 4a3e
000003c0: 6b4d 303e a647 fd3e 5747 473e 122d ce3e
000003d0: 190e 30be 8adc 283e 3bae d03d 6c77 4d3f
000003e0: b724 9dbf af73 23bf bb23 4e3c 2a63 203e
000003f0: 5b08 b9be 2bc6 74be f30c b9be 53b9 21bf

weight f4 [32, 32]
-0.15659449 -0.10149859 -0.104497656 -0.14273496 -0.26637653 -0.40136856 -0.21361499 -0.25376445
0.119536914 -0.14364477 -0.18620954 0.17854433 -0.4957212 0.6870417 0.11021711 0.17133255
0.31375906 -0.27998513 -0.03324319 0.32312495 0.38427123 0.27346516 0.3208496 0.11279579
-0.19679709 0.04113452 0.35329652 -0.095104195 0.2972887 0.19596365 0.30476466 -0.15363088
0.46667948 0.0684458 -0.00022716774 -0.05071937 -0.15115286 0.13410881 0.07247999 0.3076492
-0.21769266 -0.11593201 -0.036086723 0.17273211 0.18533492 0.47680768 -0.06617542 0.57279253
-0.2626905 -0.4962713 0.121385396 0.17586802 -0.5273143 0.06458559 -0.23713304 -0.2773604
0.035570193 0.11951269 0.051381525 0.12789026 0.40372074 0.14822294 -0.36445063 0.11744711
-0.9857813 -0.09094954 0.025030702 -0.27465343 -0.2014824 -0.04610172 -0.11663528 -0.1147784
0.12295652 0.010673465 -0.17034067 0.2233475 -0.32393894 -0.21061957 -0.21292111 0.19295347
0.3387839 0.3422548 -0.0033390347 -0.20470017 0.052389577 0.021176571 0.90668297 0.2172625
0.17719029 -0.07207952 -0.13115989 -0.01953924 -0.3320159 0.48760146 -0.072461 0.1501907
-0.17896852 0.004516361 -0.10436815 0.022433233 -0.05046077 0.06507217 -0.004757762 -0.058090355
-0.13734522 0.037001528 -0.054273576 -0.06615959 0.06787001 -0.14055607 -0.010326126 -0.08169992
0.07246453 -0.08461603 0.055566322 -0.04347524 0.0335478 -0.042967167 0.074495465 0.1437956
0.035066094 0.013119291 0.059764262 0.0447514 0.012750208 0.024767127 -0.08613594 0.06479116
0.31281435 -0.099513434 0.25550926 0.05905003 0.021660635 0.077473655 0.051769402 -0.18676016
0.06542943 -0.106412366 -0.097551845 -0.22150627 -0.13331483 0.023371411 0.07719382 -0.16148607
0.013760968 -0.018088194 0.14722958 0.0011125881 0.08289596 -0.12937555 0.026417045 0.23390156
-0.1386416 -0.18609282 -0.023809405 -0.12560661 -0.025090389 -0.13438722 0.16591784 0.20436567
0.06338246 -0.008280885 -0.094372585 -0.07220659 -0.112268224 -0.009676243 0.016911732 -0.05529724
0.021496937 0.058861688 0.11930874 0.043877244 -0.021064566 0.016222833 0.011184895 -0.023572374
-0.16027543 0.07969487 -0.008370999 -0.010862893 0.0018428406 -0.027296467 -0.073852494 0.0031183776
0.030277606 -0.041834287 0.030261246 0.006908331 -0.065341495 0.14576258 -0.008521239 -0.06482657
-0.119909786 -0.0961358 -0.061312295 0.098209664 -0.025228463 -0.33111882 -0.14812438 -0.22138183
0.13637061 0.03413902 -0.46092927 0.30281073 -0.3268985 0.93877494 -0.1756796 0.29596505
-0.022489453 -0.19638091 0.51855505 0.23499586 0.14971843 0.16537857 -0.14713627 0.30668238
-0.39747715 0.19462056 0.5402043 -0.26731595 0.11541319 -0.25757843 0.13885337 0.17828983
-0.20873713 -0.17043473 -0.09410096 -0.112581976 -0.04308316 0.0884276 -0.068936065 0.24140427
0.17691626 -0.06853753 0.1058767 -0.018047683 -0.05958965 0.15438594 -0.12174468 0.12839107
-0.07103677 -0.08810558 -0.13605574 0.007578122 -0.039867036 0.10309699 0.2718279 -0.12638178
-0.040234983 -0.28415728 -0.100117125 0.22129476 0.011657763 0.38748318 -0.07836655 -0.3261884
00000000: 4e5a 20be 7ede cfbd de02 d6bd 1d29 12be
00000010: 8162 88be 2e80 cdbe e3bd 5abe 6aed 81be
00000020: c5cf f43d 9d17 13be b7ad 3ebe 53d4 363e
00000030: 2bcf fdbe f7e1 2f3f 82b9 e13d cd71 2f3e
00000040: 07a5 a03e 365a 8fbe 032a 08bd a270 a53e
00000050: 33bf c43e a003 8c3e 6646 a43e 7b01 e73d
00000060: 2d85 49be ac7c 283d 48e3 b43e fdc5 c2bd
00000070: 3936 983e b2aa 483e 1d0a 9c3e 6a51 1dbe
00000080: 9df0 ee3e 502d 8c3d e033 6eb9 1dbf 4fbd
00000090: d1c7 1abe d253 093e 6470 943d 3284 9d3e
000000a0: d3ea 5ebe c36d edbd accf 13bd b0e0 303e
000000b0: 70c8 3d3e 2320 f43e fb86 87bd 88a2 123f
000000c0: 5f7f 86be 4617 febe e898 f83d bf16 343e
000000d0: 12fe 06bf 7345 843d 01d3 72be 2f02 8ebe
000000e0: 0db2 113d 12c3 f43d 6f75 523d aaf5 023e
000000f0: 7cb4 ce3e c1c7 173e 4699 babe 1c88 f03d
00000100: 2a5c 7cbf c143 babd 300d cd3c 609f 8cbe
00000110: 6751 4ebe 28d5 3cbd 7ade eebd f010 ebbd
00000120: a1d0 fb3d c2df 2e3c c96d 2ebe 35b5 643e
00000130: 53db a5be a8ac 57be fe07 5abe 9895 453e
00000140: 1575 ad3e 053c af3e b5d3 5abb ec9c 51be
00000150: 7496 563d 7d7a ad3c 601c 683f 107a 5e3e
00000160: 5f71 353e 6d9e 93bd c74e 06be c210 a0bc
00000170: fdfd a9be e6a6 f93e 6f66 94bd 97cb 193e
00000180: 8643 37be fbfd 933b f8be d5bd e6c5 b73c
00000190: f4af 4ebd 8f44 853d 00e7 9bbb 27f0 6dbd
000001a0: 3aa4 0cbe ea8e 173d f84d 5ebd ae7e 87bd
000001b0: 6fff 8a3d eeed 0fbe e92e 29bc 4a52 a7bd
000001c0: 4968 943d 2b4b adbd 8399 633d 1813 32bd
000001d0: 6b69 093d 57fe 2fbd 1491 983d 273f 133e
000001e0: 77a1 0f3d 4bf2 563c 5fcb 743d 3e4d 373d
000001f0: 40e6 503c 6ee4 ca3c 0a68 b0bd 3ab1 843d
00000200: 3429 a03e b3cd cbbd 1cd2 823e 72de 713d
00000210: a571 b13c 82aa 9e3d 270c 543d 0e3e 3fbe
00000220: ddff 853d baee d9bd 43c9 c7bd 8ad2 62be
00000230: af83 08be 6775 bf3c cb17 9e3d 9b5c 25be
00000240: af75 613c b12d 94bc 5ac3 163e 43d4 913a
00000250: 5bc5 a93d 067b 04be 8f68 d83c e483 6f3e
00000260: 10f8 0dbe 1e8f 3ebe f10b c3bc 059f 00be
00000270: 5c8a cdbc ce9c 09be 5ee6 293e 3c45 513e
00000280: aace 813d 8dac 07bc 6a46 c1bd 0ce1 93bd
00000290: e2ec e5bd 1b89 1ebc 798a 8a3c 5c7f 62bd
000002a0: 581a b03c f418 713d 2458 f43d a0b8 333d
000002b0: 998f acbc bfe5 843c da40 373c da1a c1bc
000002c0: 3e1f 24be 1037 a33d 8426 09bc 47fa 31bc
000002d0: 788b f13a d79c dfbc fa3f 97bd b25d 4c3b
000002e0: be08 f83c 6e5a 2bbd 6fe6 f73c 485f e23b
000002f0: c3d1 85bd c942 153e ab9c 0bbc cbc3 84bd
00000300: 4393 f5bd d9e2 c4bd 9a22 7bbd 2622 c93d
00000310: ecab cebc 6888 a9be ebad 17be ebb1 62be
00000320: bda4 0b3e 5bd5 0b3d ecfe ebbe 020a 9b3e
00000330: 3d5f a7be 8e53 703f 5ae5 33be bb88 973e
00000340: cd3b b8bc 1418 49be 06c0 043f c1a2 703e
00000350: ca4f 193e 0059 293e e4aa 16be 7905 9d3e
00000360: 2082 cbbe 9d4a 473e d44a 0a3f a3dd 88be
00000370: c05d ec3d 52e1 83be 942f 0e3e 9c91 363e
00000380: 30bf 55be 7186 2ebe 01b8 c0bd 6191 e6bd
00000390: f877 30bd 8819 b53d 5a2e 8dbd ae32 773e
000003a0: 8929 353e 685d 8cbd e2d5 d83d bcd8 93bc
000003b0: 4714 74bd 5917 1e3e 4655 f9bd f378 033e
000003c0: ba7b 91bd b370 b4bd 3252 0bbe e551 f83b
000003d0: 9e4b 23bd 8424 d33d 072d 8b3e 3a6a 01be
000003e0: 70cd 24bd 107d 91be 350a cdbd 189b 623e
000003f0: 3400 3f3c 3264 c63e a47e a0bd 2a02 a7be

weight f4 [32]
0.3349158 0.5145266 0.46835443 0.2251872 0.20024468 0.3670504 0.2181594 0.34670484
0.49425668 0.45189014 0.37611917 0.16994423 0.4918669 0.33551073 0.7415852 0.50297475
0.1663547 0.37924036 0.46501693 0.42794767 0.69862914 0.2237005 0.28051776 0.25598693
0.47541136 0.6530554 0.39854956 0.047611218 0.4033424 0.21244161 0.37844607 0.11861412
00000000: 157a ab3e 04b8 033f 27cc ef3e 7997 663e
00000010: f10c 4d3e 08ee bb3e 2e65 5f3e 4c83 b13e
00000020: 360f fd3e 255e e73e b192 c03e dc05 2e3e
00000030: fad5 fb3e 10c8 ab3e 87d8 3d3f f4c2 003f
00000040: e358 2a3e cb2b c23e b316 ee3e f51b db3e
00000050: 5cd9 323f be11 653e 06a0 8f3e b810 833e
00000060: 1e69 f33e a42e 273f b00e cc3e fb03 433d
00000070: e582 ce3e 4b8a 593e afc3 c13e f6eb f23d

bias f4 [32]
0.14970407 -0.12453563 -0.08784318 -0.13166332 -0.087517604 0.08452466 0.38834217 -0.027547967
-0.3144857 0.26449358 -0.05222178 -0.023483727 0.22978152 0.16965799 0.11960593 0.107407585
-0.09513738 0.07438852 0.09863949 0.06852379 -0.08416373 -0.23566498 0.02414284 -0.051726136
-0.21636283 -0.12259087 0.115850374 0.07201634 0.09380308 -0.10690189 -0.12751223 0.035548963
00000000: 064c 193e 890c ffbd 20e7 b3bd c0d2 06be
00000010: 6e3c b3bd 441b ad3d c9d4 c63e 46ac e1bc
00000020: 4504 a1be b46b 873e 81e6 55bd f260 c0bc
00000030: d94b 6b3e d3ba 2d3e f4f3 f43d 82f8 db3d
00000040: 63d7 c2bd 0259 983d 8003 ca3d 3356 8c3d
00000050: 095e acbd 2952 71be 35c7 c53c c9de 53bd
00000060: 388e 5dbe ec10 fbbd f642 ed3d 4e7d 933d
00000070: d41b c03d 61ef dabd 9192 02be ca9b 113d

weight f4 [128, 32]
0.13954766 0.1151148 0.0011749037 -0.08386562 -0.03780284 0.01801722 0.056964174 -0.24093424
-0.25751218 0.064149715 0.07712597 0.057071574 0.03722084 -0.0714196 0.09644518 -0.0047708433
-0.37168255 0.15608042 -0.035443153 0.03645236 -0.11988027 -0.17177507 0.11045809 0.121361084
-0.1885259 0.14698125 0.067413926 -0.0768186 -0.045552142 0.07372604 0.019602926 0.043233685
-0.25556514 0.15056227 -0.63937515 -0.20429046 0.13863109 0.45055985 -0.4785778 -0.11105301
0.4596218 0.23971945 0.0006211974 0.60983604 0.2676776 -0.09323522 -0.0336463 -0.13881549
-0.581205 0.31759825 -0.2520907 -0.3037296 -0.43014613 -0.058103643 -0.34864986 0.3048491
0.14507873 0.19989379 0.6724082 -0.23247543 0.31028023 0.20867902 0.21102199 0.13402195
0.10806928 -0.0701347 -0.33260152 -0.21831802 -0.21906595 -0.46892515 0.5063222 -1.0319103
0.22419614 -0.2284523 -0.08297226 -0.10814558 -0.20428878 0.5555675 -0.0412377 -0.12931694
0.11151263 0.32838225 0.0024985457 -0.2122408 -0.07924474 0.057655953 0.46478432 -0.057408255
0.018550562 0.18207338 0.5546387 -0.10298881 -0.009032864 -0.15687111 -0.45371005 0.13613172
0.11591081 -0.3033101 -0.028142277 -0.09561074 -0.10535153 -0.02499986 0.14577764 -0.10742798
0.23520733 0.16264422 -0.047412682 0.061176103 0.06328718 0.09024899 0.053315718 0.09344913
-0.2483094 0.09533144 -0.14133848 -0.060110576 -0.08956307 -0.13060737 0.012173431 0.022014985
-0.119910136 -0.0077011567 0.16807234 -0.019250274 0.058681 -0.029043688 -0.27420676 0.06354895
-0.0673652 -1.0040704 -0.5441279 -0.021094386 0.17992505 0.1374531 -0.18100365 -1.2599086
0.467791 0.4091268 -0.14286767 0.37471238 -0.034460906 0.52099556 -0.0652743 -0.50777215
0.18869098 -0.010690547 -0.2454404 0.27343008 0.3590111 -0.0056268796 0.39523867 0.03889162
-0.25578055 -0.18825592 0.30519715 -0.22767143 -0.43384507 0.58868736 -0.020738032 0.20925705
0.14598708 -0.6030052 -0.5024579 -0.2831504 -0.26561972 -0.13826106 -0.043982785 -0.72949624
0.11169376 0.42842683 -0.16631256 0.5181517 0.12803367 0.4315914 0.012147672 -0.12841415
-0.11487327 -0.16757777 -0.1697034 -0.101307854 0.23672138 0.0043382235 0.8037657 -0.08404767
-0.5604008 0.34084406 0.5358401 0.23157391 -0.23229142 0.2831473 -0.08103739 0.45525527
0.31100523 -1.1246349 0.14629307 -0.48805982 0.05170856 0.7176514 0.1592394 -0.45468542
-0.065342955 0.66076994 -0.1691298 0.2821517 0.9570488 -0.20639548 0.18866207 0.32673168
-0.12969242 -0.119981065 -0.3037711 0.6497641 0.22182138 -0.59399754 0.062465753 -0.16944657
0.107039854 -0.18943433 -0.1431144 0.27491477 -0.15484071 -0.49368608 -0.13479975 0.39168918
-0.08152602 0.39072135 -0.15960377 -0.018596241 -0.19133769 -0.15158203 -0.018883286 0.17905165
0.13891287 -0.28471982 -0.02421918 0.08244574 0.14850275 0.26833674 -0.106222205 0.31797382
-0.4380115 -0.1372083 0.042552095 0.3312891 -0.18892758 -0.040409584 -0.063498616 0.30636808
-0.062817015 0.30512336 0.40786168 -0.16939951 0.15889704 0.6404139 -0.15601955 0.12519842
00000000: 95e5 0e3e 4fc1 eb3d 3aff 993a bdc1 abbd
00000010: 27d7 1abd d998 933c 4453 693d 77b7 76be
00000020: a3d8 83be ed60 833d 38f4 9d3d e2c3 693d
00000030: e174 183d 7044 92bd 0d85 c53d bc54 9cbb
00000040: 2d4d bebe 8cd3 1f3e d72c 11bd 124f 153d
00000050: c983 f5bd cee5 2fbe da37 e23d 298c f83d
00000060: ef0c 41be 4182 163e 5010 8a3d 1253 9dbd
00000070: e294 3abd aefd 963d 5196 a03c ce15 313d
00000080: 6fd9 82be ff2c 1a3e 17ae 23bf 8531 51be
00000090: 4ff5 0d3e c8af e63e 2608 f5be c36f e3bd
000000a0: 8c53 eb3e 0479 753e dad7 223a 371e 1c3f
000000b0: 0a0d 893e 1bf2 bebd b4d0 09bd a625 0ebe
000000c0: dac9 14bf 3d9c a23e 0812 81be 7282 9bbe
000000d0: 1d3c dcbe 16fe 6dbd 3c82 b2be 2e15 9c3e
000000e0: 858f 143e f5b0 4c3e f222 2c3f 0a0e 6ebe
000000f0: 0ddd 9e3e f4af 553e 2616 583e 0d3d 093e
00000100: 6d53 dd3d c8a2 8fbd bf4a aabe c28e 5fbe
00000110: d352 60be f516 f0be 559e 013f a315 84bf
00000120: ac93 653e 66ef 69be 5ced a9bd 6e7b ddbd
00000130: 1431 51be ac39 0e3f dde8 28bd a96b 04be
00000140: bc60 e43d b821 a83e a4be 233b a755 59be
00000150: 114b a2bd a628 6c3d 36f8 ed3e eb24 6bbd
00000160: 59f7 973c 7271 3a3e cdfc 0d3f cceb d2bd
00000170: 94fe 13bc d2a2 20be af4c e8be 1d66 0b3e
00000180: a662 ed3d 764b 9bbe a28a e6bc 90cf c3bd
00000190: 8bc2 d7bd 82cc ccbc bc46 153e 3303 dcbd
000001a0: 31da 703e 358c 263e cd33 42bd cb93 7a3d
000001b0: b69c 813d 76d4 b83d 9561 5a3d 4262 bf3d
000001c0: d244 7ebe 213d c33d 09bb 10be 8236 76bd
000001d0: d86c b7bd f0bd 05be 1273 473c c558 b43c
000001e0: 7293 f5bd fc59 fcbb 281b 2c3e c0b2 9dbc
000001f0: 7d5b 703d 07ed edbc d464 8cbe f425 823d
00000200: c4f6 89bd 6185 80bf f74b 0bbf 22ce acbc
00000210: 463e 383e 81c0 0c3e 0559 39be af44 a1bf
00000220: 4d82 ef3e 1179 d13e e74b 12be 4dda bf3e
00000230: e126 0dbd f75f 053f 88ae 85bd 5bfd 01bf
00000240: 3538 413e 6727 2fbc ba54 7bbe 07ff 8b3e
00000250: 4ed0 b73e b061 b8bb b95c ca3e d24c 1f3d
00000260: abf5 82be 29c6 40be cd42 9c3e b322 69be
00000270: f120 debe 37b4 163f cee2 a9bc 7b47 563e
00000280: a37d 153e 8c5e 1abf 15a1 00bf 17f9 90be
00000290: 4fff 87be 4f94 0dbe 4b27 34bd 44c0 3abf
000002a0: b3bf e43d c35a db3e d74d 2abe 97a5 043f
000002b0: 421b 033e 8cf9 dc3e 0707 473c 007f 03be
000002c0: ad42 ebbd 8299 2bbe bac6 2dbe 7e7a cfbd
000002d0: 1767 723e a827 8e3b 97c3 4d3f 2f21 acbd
000002e0: 6d76 0fbf 1d83 ae3e d12c 093f b621 6d3e
000002f0: cddd 6dbe aff8 903e eef6 a5bd 3817 e93e
00000300: 143c 9f3e 09f4 8fbf dacd 153e fae2 f9be
00000310: 5bcc 533d 01b8 373f a70f 233e 87cc e8be
00000320: 87d2 85bd 3828 293f 5d30 2dbe 3076 903e
00000330: 2601 753f 5659 53be a130 413e 6049 a73e
00000340: 17ce 04be a2b8 f5bd e387 9bbe f156 263f
00000350: 2525 633e 3910 18bf 17dc 7f3d 6783 2dbe
00000360: b637 db3d 13fb 41be 958c 12be a1c1 8c3e
00000370: 908e 1ebe 6cc4 fcbe f208 0abe 7c8b c83e
00000380: 1df7 a6bd a10c c83e 2c6f 23be 2557 98bc
00000390: 07ee 43be 5238 1bbe 1fb1 9abc 5159 373e
000003a0: 2d3f 0e3e ccc6 91be 4d67 c6bc 50d9 a83d
000003b0: 1b11 183e 6f63 893e 078b d9bd 77cd a23e
000003c0: 0b43 e0be 5580 0cbe 1b4b 2e3d ba9e a93e
000003d0: 3b76 41be 8584 25bd 900b 82bd 47dc 9c3e
000003e0: 35a6 80bd 2139 9c3e 3fd3 d03e 1177 2dbe
000003f0: e8b5 223e 2af2 233f 97c3 1fbe 0434 003e
