calculator/models/model_add_2024-07-22-22-50.pth (torch, 239650 bytes, 60 tensors)

weight f4 [13, 32]
0	0x3e759034	0.2398079
1	0xbc85539e	-0.016275223
2	0xbf939151	-1.1528722
3	0xbec221c3	-0.37916383
4	0x3ef25dd4	0.4733721
5	0xbe0acf87	-0.13555728
6	0xbe39993b	-0.18124859
7	0xbe00bc21	-0.12571765
8	0x3def1662	0.11674191
9	0x3f2ebf3f	0.6826057
10	0xbfb2bd68	-1.3964052
11	0xbeec3784	-0.46136105
12	0xbf1a8fb2	-0.6037551
13	0x3f1a28ab	0.60218304
14	0x3e0fd89e	0.14047477
15	0x3fae04ad	1.3595177
16	0x3f1b013f	0.60548776
17	0x3e1c3e23	0.15258078
18	0x3f08a68a	0.5337912
19	0x3e9f5482	0.31119162
20	0xbfffa0cf	-1.997095
21	0x3e9e5b30	0.30928946
22	0x3f93c55a	1.1544602
23	0x3f80ba1d	1.0056797
24	0x3ec50b06	0.38484973
25	0xbf9a37ee	-1.2048318
26	0xbf13295f	-0.57485
27	0xbeba9643	-0.36442766
28	0x3ec318b3	0.38104782
29	0xbfa4d7ac	-1.2878318
30	0x400d7b51	2.2106516
31	0x40180f49	2.375933
32	0xbe9a8e20	-0.30186558
33	0xbe489e1b	-0.19591562
34	0x3ef52682	0.47880942
35	0x3f2bfa5e	0.67178905
36	0x3e40d739	0.18832101
37	0x3ee919c2	0.45527464
38	0xbf93de6b	-1.1552252
39	0xbe83c6a8	-0.257375
40	0xbe1d0548	-0.15334046
41	0xbf6d0f22	-0.92601216
42	0x3dce7725	0.10081319
43	0xbf8d5d14	-1.104403
44	0xbf1e822f	-0.61917394
45	0x3f692613	0.9107372
46	0xbe9f96b1	-0.31169656
47	0xbde71da9	-0.11284954
48	0x3fbb19b1	1.4617215
49	0xbf4e48c7	-0.805798
50	0x3f883fab	1.064443
51	0xbde2a26b	-0.11066135
52	0xbfeb849a	-1.8399842
53	0x3f7c424c	0.9853866
54	0x4014d9a9	2.325785
55	0xbf630c5c	-0.88690734
56	0x3f7c7f62	0.9863187
57	0xbfbc8298	-1.4727354
58	0x3f2dc77c	0.67882514
59	0x3e8cf620	0.27531528
60	0x3e813c97	0.2524154
61	0x3f891730	1.0710201
62	0x3fe27664	1.769238
63	0xbeea9659	-0.4581783
64	0xbf917e69	-1.1366702
65	0x3e3feca3	0.18742613
66	0xbcb61cce	-0.022230532
67	0xbf3bab01	-0.73307806
68	0xbdf75a35	-0.120777525
69	0x3f268754	0.65050244
70	0xbf940535	-1.1564089
71	0xbed5dfe8	-0.4177239
72	0x3fea118a	1.8286602
73	0x3e173773	0.14767246
74	0xbd54a19c	-0.051911935
75	0x3f2fa505	0.68611175
76	0xbf1278cd	-0.5721558
77	0x3fe44a6d	1.7835213
78	0x3f49099c	0.7853029
79	0x3e9868d2	0.29767472
80	0x3fe9953b	1.8248667
81	0xbfbd6b70	-1.4798412
82	0x3f915fc3	1.1357349
83	0xbf5259f0	-0.82168484
84	0xbfca28a0	-1.5793648
85	0xbf2806a1	-0.65635115
86	0x3df15981	0.1178465
87	0xbebf8934	-0.37409365
88	0x3fb38278	1.4024191
89	0xbf2ab34f	-0.66679853
90	0x3fbb8b8f	1.4651965
91	0xbf76f8fc	-0.9647367
92	0xbe269173	-0.16266422
93	0xbf1f1e6f	-0.6215581
94	0xbda8217b	-0.08209511
95	0xbf80c920	-1.0061378
96	0xc012707e	-2.288116
97	0xbe1d8559	-0.153829
98	0x3c706591	0.014672653
99	0xbe1289d8	-0.14310396
100	0xbc924fa7	-0.017860247
101	0xbdff9b26	-0.12480764
102	0xbfd582c2	-1.6680529
103	0xbe84f1d4	-0.2596575
104	0x3f31fae5	0.6952346
105	0x3ee417c8	0.44549394
106	0xbd931bcb	-0.071830355
107	0x3fc04a87	1.5022744
108	0xbe8eefae	-0.27917236
109	0x3fdc1261	1.7193109
110	0x3f050d20	0.5197315
111	0xbe495609	-0.19661726
112	0x3ed0024d	0.40626755
113	0xbf7916dc	-0.97300506
114	0x3f6a010b	0.9140784
115	0xbfd29511	-1.6451741
116	0xbecada4e	-0.39619678
117	0x3d7dbf05	0.06194975
118	0xbfb99c9d	-1.450092
119	0x3f01edbb	0.5075337
120	0x3fbf38fd	1.4939266
121	0xbdd70763	-0.10499456
122	0x3fbe01ef	1.484434
123	0xbeffea31	-0.4998336
124	0xbef494f1	-0.47769883
125	0xbead7f55	-0.3388621
126	0x3e7e8b15	0.24857743
127	0xbf45984d	-0.7718552
128	0xc005863a	-2.0863175
129	0x3f899f90	1.075182
130	0x3eaa39b9	0.33247164
131	0x3d245c31	0.040126983
132	0x3f117f40	0.56834793
133	0x3f5b5c10	0.8568735
134	0xc00f9fe2	-2.2441335
135	0xbf798d68	-0.97481394
136	0x3eda468d	0.4263195
137	0xbe4d9c27	-0.20079099
138	0x3f1bc063	0.60840434
139	0x3f9e04b9	1.2345191
140	0xbf018302	-0.5059053
141	0x3e9f8467	0.31155702
142	0xbe9983e3	-0.29983434
143	0x3decbdc1	0.1155963
144	0x3f30f472	0.69122994
145	0xbe89e61d	-0.26933375
146	0xbeaf49c5	-0.3423597
147	0xbf436682	-0.7632829
148	0x3d694c27	0.05695739
149	0x3e90747c	0.2821387
150	0xbfce1ec4	-1.6103139
151	0x3fa9a906	1.3254707
152	0x3defb023	0.11703517
153	0x3ee306ea	0.44341213
154	0x3fc1c200	1.5137329
155	0xbee8aefa	-0.45445997
156	0xbf3b17a6	-0.7308296
157	0x3ccbf954	0.024899162
158	0x3f12be32	0.57321465
159	0xbf52259b	-0.8208863
160	0xbfa00938	-1.2502813
161	0x3f457a4a	0.77139723
162	0x3ed4e206	0.41578692
163	0x3f962433	1.1729797
164	0xbf8ae31d	-1.085056
165	0x3ecde4fb	0.4021376
166	0xbff751c0	-1.9321823
167	0xbf29de0e	-0.66354454
168	0x3f025198	0.5090575
169	0x3ed88362	0.42287737
170	0x3e7617de	0.24032542
171	0x3f274541	0.6534005
172	0xbf52ea2d	-0.82388574
173	0xbe522212	-0.2052081
174	0xbf76889d	-0.96302205
175	0xbf31f19d	-0.695093
176	0xbdda8d09	-0.106714316
177	0x3e8a17e2	0.26971346
178	0xbed2f01c	-0.41198814
179	0xbf0bca15	-0.5460523
180	0x3f1030a8	0.56324244
181	0x3f5ebe2d	0.87008935
182	0xbfe8497f	-1.8147429
183	0x3fff20c9	1.993188
184	0x3f59a3cb	0.85015553
185	0x3f0804c4	0.5313227
186	0x3f5f5781	0.87242895
187	0xbfb5dc47	-1.4207848
188	0xbf3cef0c	-0.73802257
189	0x3ee76c54	0.45199835
190	0x3e79513d	0.24347396
191	0x3e40f374	0.1884287
192	0xbea0892c	-0.31354654
193	0x3f82da7b	1.0222925
194	0x3f10e7f4	0.5660393
195	0x3fc19bbe	1.5125654
196	0x3e31da73	0.17368488
197	0x3da46227	0.080265336
198	0xbfb2f132	-1.3979857
199	0xbf07e267	-0.5307984
200	0x3e33591b	0.1751446
201	0xbf892a78	-1.0716085
202	0x3f404007	0.750977
203	0x3f0d9c3e	0.5531653
204	0xbf86f589	-1.0543681
205	0xbf69a292	-0.9126369
206	0xbfb2fb5f	-1.3982962
207	0xbcf91002	-0.030403141
208	0xbe2d5dcc	-0.16930312
209	0x3e82d598	0.25553584
210	0xbfa52cc2	-1.2904284
211	0xbf0a82df	-0.54105943
212	0x3ec8963f	0.3917713
213	0x3f8bb350	1.0914097
214	0xbf1aa8c8	-0.6041379
215	0x3ff0dbcb	1.8817075
216	0x3eebfe8a	0.46092635
217	0x3f7183f3	0.94341964
218	0x3e51fe41	0.20507146
219	0xc00dee0a	-2.2176538
220	0xbe283681	-0.16427042
221	0x3d8b3bc1	0.067985065
222	0xbf01bdfe	-0.5068053
223	0x3ed8fe8f	0.42381713
224	0xbd2e4ba1	-0.042552594
225	0x3f886b58	1.0657759
226	0xbdafe9c6	-0.085895106
227	0x3f913938	1.1345587
228	0x3d8c3692	0.06846346
229	0x3d939e33	0.072079085
230	0xbf369a33	-0.7132904
231	0xbebe636c	-0.37185228
232	0x3c51cbec	0.012804966
233	0xbfb2a3de	-1.3956258
234	0x3ea29642	0.31755263
235	0xbe50c984	-0.20389372
236	0xbf779568	-0.9671235
237	0xbf5f87df	-0.873167
238	0xbfad4505	-1.3536688
239	0xbf32db78	-0.6986613
240	0x3f9c25f8	1.2199087
241	0x3f26ffeb	0.6523425
242	0xbfd8cb1e	-1.6936986
243	0xbddfe753	-0.109327935
244	0x3f35b539	0.7097965
245	0x3eef6efc	0.46764362
246	0xbee31108	-0.4434893
247	0x3ec889d6	0.3916766
248	0xbec6cc6b	-0.38827834
249	0x3f737fe3	0.95117015
250	0xbf887bdb	-1.0662798
251	0xbfea4d8c	-1.8304915
252	0x3f1ee459	0.6206718
253	0xbee61d26	-0.44944113
254	0xbf820444	-1.0157552
255	0x3ed82722	0.42217356

weight f4 [8, 32]
0	0x3ec383b4	0.3818642
1	0x3fb9e1b9	1.452201
2	0xbfcdf983	-1.609177
3	0xbf484c71	-0.7824164
4	0x3ce5462d	0.027987564
5	0x4017531c	2.3644476
6	0xc0950fac	-4.658163
7	0xbe57de53	-0.21080904
8	0x3ebff58f	0.37492034
9	0xbf9e2ef2	-1.2358077
10	0xbe724504	-0.2365914
11	0x3e02624c	0.1273281
12	0x3e01b780	0.12667656
13	0xbf525d48	-0.82173586
14	0x3f3897ed	0.7210682
15	0x3f3c2413	0.73492545
16	0xbf847046	-1.0346763
17	0x3f239efd	0.6391447
18	0xbe1cfe70	-0.15331435
19	0xbffbe450	-1.967905
20	0xbef6ea9b	-0.48225865
21	0x4009fe53	2.1561477
22	0x3e9f2364	0.31081688
23	0xbfa317da	-1.2741654
24	0x3fea4834	1.8303285
25	0x3e6b71b8	0.22992599
26	0x3e11ed2a	0.14250627
27	0xbf54b360	-0.83086205
28	0x3ff17636	1.88642
29	0x3e2be66d	0.16787119
30	0x3ea2ef11	0.31823018
31	0x3c0f09d4	0.008730371
32	0xbe02d062	-0.12774804
33	0x3ef553c5	0.47915474
34	0x3f0d393c	0.5516546
35	0xbec835f4	-0.39103663
36	0xbf2fef5b	-0.687246
37	0xbf039994	-0.51406217
38	0xc022afb4	-2.541974
39	0xbd6262c0	-0.055269957
40	0xbf6d579d	-0.9271181
41	0x3e5fda04	0.2186051
42	0x3e4838ef	0.19552968
43	0xbe22982d	-0.15878363
44	0xbf0e591f	-0.5560474
45	0x3d88892a	0.06666787
46	0x3f2c7bfb	0.6737668
47	0x3e637e17	0.22216068
48	0x3d79e7f5	0.061012227
49	0xbf01da03	-0.50723284
50	0xbfb285d6	-1.3947093
51	0xbf9902f1	-1.1954023
52	0x3e944da0	0.28965473
53	0x3d3d5c9f	0.04623091
54	0x3e71fe53	0.23632173
55	0xbe72592c	-0.23666829
56	0x3ec32e47	0.38121244
57	0x3e6256b3	0.22103386
58	0xbce2fc11	-0.027708085
59	0xbf53f079	-0.8278881
60	0x3f080ace	0.53141487
61	0xbf5dbf7c	-0.86620307
62	0x3f734cec	0.9503925
63	0x3f3599c2	0.7093774
64	0x3e44df55	0.1922582
65	0x3df70b9d	0.12062762
66	0xbedd5e59	-0.43236044
67	0x3c670786	0.014100915
68	0x3f053edc	0.5204904
69	0x3e9b11f1	0.30287126
70	0xbfa3c57a	-1.279464
71	0xbf01ddb7	-0.50728935
72	0x3f4a858f	0.79110044
73	0xbf820e50	-1.0160618
74	0xbe175ed8	-0.14782274
75	0xbf67c4f4	-0.905349
76	0x3ef4736f	0.4774432
77	0x3f07d121	0.5305348
78	0xbf1db4b1	-0.6160384
79	0x3f9f0c5c	1.2425647
80	0xbed8b938	-0.4232881
81	0xbe48e254	-0.19617587
82	0x3ecea49e	0.40359968
83	0xbfc8b9e0	-1.5681725
84	0x3ef0d68d	0.4703869
85	0x3ebbf686	0.3671152
86	0x3ea42fa1	0.32067588
87	0x3f3914e8	0.72297525
88	0x3eb96847	0.3621237
89	0xbe515b62	-0.20445016
90	0x3f3069c7	0.68911403
91	0xbf06090e	-0.52357566
92	0x3f6d08b4	0.92591405
93	0x3dcf1663	0.10111692
94	0x3e0f47a4	0.13992172
95	0x3de42305	0.11139492
96	0xbf1cdb59	-0.612722
97	0x3f9ab32d	1.208593
98	0x3e59ee51	0.21282317
99	0x3e08a6a1	0.13344814
100	0x3f95dc7e	1.1707914
101	0xbebb251e	-0.36551756
102	0xbf7cc9ec	-0.9874561
103	0x3e8e7b38	0.27828383
104	0x3e7a81f8	0.24463642
105	0x3f7799cc	0.9671905
106	0xbfbf2b88	-1.493516
107	0xbf5f5b8e	-0.87249076
108	0xbea533e9	-0.32266167
109	0xbef17da8	-0.4716618
110	0xbe2c723f	-0.16840456
111	0xbf0fd1a0	-0.5617924
112	0x3eadef0a	0.33971435
113	0xbf1f7de5	-0.62301475
114	0x3e899b9d	0.26876536
115	0xbf55f1f4	-0.83572316
116	0x3f2d91ae	0.67800415
117	0xbf1e8f6f	-0.6193761
118	0xbe8d9fc6	-0.2766096
119	0x3ea75fed	0.32690373
120	0x3f42f47e	0.76154315
121	0xbd433470	-0.04765743
122	0xbddbea06	-0.10737996
123	0xbf2dcd52	-0.6789142
124	0x3e4fdbfc	0.20298761
125	0x3c91d174	0.01780007
126	0x3f1a4da4	0.6027472
127	0xbe1739fa	-0.1476821
128	0x3eb72932	0.35773617
129	0xbf763bf8	-0.96185255
130	0xbdd2304f	-0.102631204
131	0x3e836fee	0.25671333
132	0x3e4a4d3d	0.19756027
133	0x3edb5a50	0.4284234
134	0x3f0a1eb6	0.5395311
135	0x3f03f384	0.5154345
136	0x3e4b195c	0.19833893
137	0xbf79d89a	-0.9759613
138	0x3ebfa4e9	0.37430504
139	0x3e820384	0.25393307
140	0xbf8e31c9	-1.1108943
141	0xbe2f6590	-0.17128587
142	0x3e183db9	0.14867295
143	0x3f188dd5	0.5959142
144	0x3eea2695	0.4573256
145	0xbe959aa9	-0.2921956
146	0x3eb38a50	0.35066462
147	0xbef483e0	-0.47756863
148	0x3e99d7ac	0.30047357
149	0x3f308c64	0.6896422
150	0xbf914336	-1.1348636
151	0x3f927b1d	1.1443821
152	0x3e3c31c3	0.18378358
153	0xbc9b52ba	-0.018960346
154	0x3e4e4bae	0.20146057
155	0xbe0222a4	-0.12708527
156	0xbd8ca32a	-0.068670586
157	0x3f20d0d2	0.62818635
158	0x3e86da6b	0.26338515
159	0xbf0750f3	-0.52857894
160	0xbf4e758f	-0.8064813
161	0x3f633486	0.8875202
162	0xbda85b47	-0.08220535
163	0x3ea3a8de	0.31964773
164	0x3e6bca6f	0.23026441
165	0xbfcbbbb7	-1.5916661
166	0xbce9b00b	-0.028526327
167	0x3f238326	0.6387199
168	0xbe89668d	-0.26836053
169	0xbf1556a9	-0.5833536
170	0xbf1ed6f0	-0.6204672
171	0x3e9148dd	0.28375903
172	0x3ed2d5e2	0.41178805
173	0xbf0d7543	-0.5525705
174	0xbe02d41b	-0.12776224
175	0xbea54204	-0.32276928
176	0x3ca7e1ce	0.020493414
177	0xbdfc4974	-0.123186976
178	0xbe24ff66	-0.16113052
179	0x3f84ee88	1.0385294
180	0xbf5a0746	-0.8516735
181	0xbfbeb24a	-1.489816
182	0xbf2eea5c	-0.68326354
183	0x3eb4ec79	0.35336664
184	0x3f5df839	0.8670688
185	0x3ecd28ca	0.40070182
186	0x3d097089	0.033554588
187	0xbe0e75d8	-0.13912141
188	0xbf1aaf3f	-0.60423654
189	0x3ecda900	0.40168
190	0x3de37d86	0.11107926
191	0xbe8c2e65	-0.27379146
192	0x3e6035bd	0.218955
193	0xbf75ff87	-0.9609303
194	0x3e95f5b4	0.2928902
195	0xbe782ab6	-0.24235043
196	0x3ee79630	0.4523177
197	0xbf24b35f	-0.643362
198	0x3fa9027d	1.3203884
199	0xbe80c85e	-0.25152868
200	0x3fc381f9	1.527404
201	0xbd73d4aa	-0.059528984
202	0xbe2f946c	-0.17146462
203	0x3ed3bb22	0.41353709
204	0xbee32376	-0.44362992
205	0xbf0240bd	-0.5088003
206	0xbf5d70d4	-0.8650029
207	0xbcf0eab9	-0.0294088
208	0x3d561524	0.052266255
209	0xbed181fe	-0.4091949
210	0xbcb58faf	-0.02216324
211	0x3edab012	0.42712456
212	0x3ea218f1	0.31659654
213	0x3f984534	1.1896119
214	0xbfaa5db4	-1.3309846
215	0x3edd65e4	0.432418
216	0xbe071c7c	-0.1319446
217	0xbedaa74f	-0.4270577
218	0x3d936589	0.07197101
219	0xbdba1beb	-0.09087356
220	0xbf87b342	-1.060158
221	0x3f2d62d6	0.67728937
222	0xbee34964	-0.4439193
223	0xbd026e43	-0.031843435
224	0xbf34b887	-0.70594066
225	0xbeb52769	-0.3538163
226	0x3f5427d3	0.82873267
227	0x3e2c6244	0.1683436
228	0x3db83763	0.08994939
229	0xbe8f89bd	-0.28034773
230	0xbf64c69e	-0.89365566
231	0x3dd52f49	0.104094096
232	0x3eb33aad	0.35005704
233	0xbfd0c286	-1.6309364
234	0xbf7497d4	-0.9554417
235	0xbd16af93	-0.036788534
236	0xbf6a901f	-0.9162616
237	0xbf611483	-0.87921923
238	0x3e9b6e9a	0.3035782
239	0x3e8b8094	0.27246535
240	0x3eadc5b7	0.33939907
241	0xbe511865	-0.20419462
242	0x3f286b71	0.6578894
243	0x3f815616	1.0104396
244	0xbc35728e	-0.011074675
245	0xbf351964	-0.7074187
246	0xbf854204	-1.0410771
247	0x3f3971a0	0.72439003
248	0x3ee33384	0.4437524
249	0x3fd0c844	1.6311116
250	0x3dc53281	0.096287735
251	0xbe88e0ae	-0.26733917
252	0xbf6f9adc	-0.9359567
253	0x3e81d5e6	0.25358504
254	0xbecb49d5	-0.39704767
255	0x3e887796	0.26653737

tril f4 [8, 8]
0	0x3f800000	1.0
1	0x00000000	0.0
2	0x00000000	0.0
3	0x00000000	0.0
4	0x00000000	0.0
5	0x00000000	0.0
6	0x00000000	0.0
7	0x00000000	0.0
8	0x3f800000	1.0
9	0x3f800000	1.0
10	0x00000000	0.0
11	0x00000000	0.0
12	0x00000000	0.0
13	0x00000000	0.0
14	0x00000000	0.0
15	0x00000000	0.0
16	0x3f800000	1.0
17	0x3f800000	1.0
18	0x3f800000	1.0
19	0x00000000	0.0
20	0x00000000	0.0
21	0x00000000	0.0
22	0x00000000	0.0
23	0x00000000	0.0
24	0x3f800000	1.0
25	0x3f800000	1.0
26	0x3f800000	1.0
27	0x3f800000	1.0
28	0x00000000	0.0
29	0x00000000	0.0
30	0x00000000	0.0
31	0x00000000	0.0
32	0x3f800000	1.0
33	0x3f800000	1.0
34	0x3f800000	1.0
35	0x3f800000	1.0
36	0x3f800000	1.0
37	0x00000000	0.0
38	0x00000000	0.0
39	0x00000000	0.0
40	0x3f800000	1.0
41	0x3f800000	1.0
42	0x3f800000	1.0
43	0x3f800000	1.0
44	0x3f800000	1.0
45	0x3f800000	1.0
46	0x00000000	0.0
47	0x00000000	0.0
48	0x3f800000	1.0
49	0x3f800000	1.0
50	0x3f800000	1.0
51	0x3f800000	1.0
52	0x3f800000	1.0
53	0x3f800000	1.0
54	0x3f800000	1.0
55	0x00000000	0.0
56	0x3f800000	1.0
57	0x3f800000	1.0
58	0x3f800000	1.0
59	0x3f800000	1.0
60	0x3f800000	1.0
61	0x3f800000	1.0
62	0x3f800000	1.0
63	0x3f800000	1.0

weight f4 [32, 32]
0	0xbdcec59e	-0.10096286
1	0x3d4bccbb	0.049755793
2	0x3d483808	0.04888156
3	0xbd3cc075	-0.04608198
4	0xbe6e997c	-0.23300737
5	0x3e0b89a2	0.13626722
6	0xbd331b2a	-0.043727078
7	0xbe13ae4f	-0.14421962
8	0xbd425ff2	-0.04745478
9	0xbed65a6a	-0.41865855
10	0x3d08d8c9	0.033409867
11	0x3f295135	0.6613954
12	0xbda0547d	-0.07828615
13	0xba6aff64	-0.0008964448
14	0x3dc10f9f	0.094268076
15	0x3e01ccaf	0.12675737
16	0x3da88d08	0.082300246
17	0xbd8f0d29	-0.06984932
18	0xbd717671	-0.058950845
19	0x3cd21978	0.02564691
20	0xbdecc398	-0.11560744
21	0x3de426eb	0.111402355
22	0xbd8c6815	-0.068557896
23	0xbe54e6f1	-0.20791222
24	0xbd557a9f	-0.052118894
25	0x3eb0c702	0.3452683
26	0x3eb39076	0.35071152
27	0xbe1ba7e8	-0.1520077
28	0xbde91fdd	-0.113830306
29	0x3baeca3b	0.0053341663
30	0xbdbdf211	-0.09274686
31	0x3bb4658b	0.005505269
32	0x3e65e3f1	0.22450234
33	0x3e982b07	0.29720327
34	0xbc4339c1	-0.011915625
35	0x3e5e2a37	0.21695791
36	0xbe2ff595	-0.17183526
37	0xbf02c71a	-0.51085055
38	0x3c75f900	0.0150129795
39	0x3dffa626	0.12482862
40	0x3dc40e5b	0.095730506
41	0xbeb670c6	-0.35632914
42	0xbe9fc58a	-0.31205398
43	0x3d84ad58	0.06478375
44	0x3e5075a5	0.20357378
45	0xbe52a623	-0.20571189
46	0x3eea1282	0.45717245
47	0x3e07204a	0.13195911
48	0x3f27ce8f	0.6554956
49	0xbd9fc4c2	-0.078012004
50	0x3e5a1b5f	0.21299504
51	0x3de426a2	0.11140181
52	0xbb9d6c1e	-0.0048041483
53	0x3db7baba	0.08971162
54	0xbc713328	-0.014721669
55	0xbe85b619	-0.26115492
56	0xbdbfc27b	-0.09363266
57	0x3dcfb439	0.101417966
58	0x3b99181e	0.0046720644
59	0xbd6f2d09	-0.05839256
60	0x3c7981f3	0.015228736
61	0xbcb83f3c	-0.02249109
62	0x3e6791ca	0.22614208
63	0x3ec23fc1	0.37939265
64	0xbe2872da	-0.16450062
65	0x3b29980d	0.0025877983
66	0xbdee7448	-0.11643273
67	0xbdc38b2a	-0.09548028
68	0x3dd0cf93	0.10195842
69	0xbca99534	-0.020701028
70	0xbdc8a2b3	-0.097966574
71	0xbd2a62a8	-0.041597992
72	0x3dceafe1	0.1009214
73	0xbf4995b4	-0.78744054
74	0xbd9a5951	-0.07536567
75	0x3e99ecea	0.30063564
76	0xbe554ccb	-0.20830075
77	0xbe86e692	-0.26347786
78	0xbe3b2dc6	-0.1827918
79	0x3ec396ba	0.38200933
80	0x3e1509e0	0.14554548
81	0x3d1d61dd	0.038423408
82	0xbe4df3a0	-0.20112467
83	0x3dc9a6fb	0.09846302
84	0x3dfaaebf	0.122403614
85	0x3d97e23d	0.074161984
86	0xbdb60ab6	-0.08888762
87	0xbe4949ed	-0.19657107
88	0x3e6f1ed9	0.23351611
89	0xbd41ea97	-0.047342863
90	0x3d25b214	0.04045303
91	0x3ddfceff	0.10928153
92	0x3c3db351	0.011578397
93	0xbe7c5c6f	-0.24644636
94	0x3e525808	0.20541394
95	0x3de9434e	0.113897905
96	0xbe6a6c36	-0.22892842
97	0xbe36d6de	-0.17855403
98	0xbde625ae	-0.112376556
99	0xbdfe488a	-0.124161795
100	0x3ee88748	0.4541571
101	0x3e9594ba	0.29215032
102	0xbe7b0fdd	-0.2451777
103	0xbda5218b	-0.080630384
104	0x3d81e77d	0.06342981
105	0x3f065b9e	0.52483547
106	0x3bb0bf62	0.0053939084
107	0xbeb0256f	-0.3440356
108	0xbe8672ea	-0.26259547
109	0x3d6f4ba9	0.058421765
110	0x3da43b38	0.080191076
111	0x3bfcabf6	0.007710929
112	0xbf19e582	-0.60115826
113	0xbd946d22	-0.07247378
114	0x3e0adc94	0.13560706
115	0xbc72d8aa	-0.014822165
116	0xbc0eebb9	-0.008723193
117	0xbd398f4c	-0.045302674
118	0x3cbe7cc2	0.023252849
119	0x3c716fbf	0.014736115
120	0xbe36e53d	-0.17860885
121	0x3a98e877	0.001166596
122	0xbd4b4bcb	-0.04963283
123	0x3e357098	0.17718732
124	0x3e7b026e	0.24512646
125	0xbe25d66e	-0.1619508
126	0x3d3dde44	0.046354547
127	0x3dacd16b	0.08438381
128	0xbd071113	-0.032975268
129	0xbe34dd6a	-0.17662588
130	0xbd7c8799	-0.061652754
131	0xbcec8c77	-0.028875573
132	0x3ea18079	0.3154333
133	0x3e8da872	0.27667576
134	0x3e3c2bd0	0.18376088
135	0xbd01d3ba	-0.03169606
136	0xbd24cdc2	-0.04023529
137	0x3d0311be	0.031999342
138	0xbcb3e53d	-0.021959895
139	0xbf0cf6e2	-0.55064213
140	0xbd5316c1	-0.05153537
141	0xbef68858	-0.48150897
142	0xbdabf5ff	-0.083965294
143	0xbe58d3f5	-0.21174605
144	0xbde1b55a	-0.11020918
145	0x3dcac5ee	0.09901033
146	0x3c2b18ab	0.010442893
147	0xbe29babb	-0.16575138
148	0xbed5291e	-0.41632932
149	0x3e7367a9	0.23770012
150	0xba479de0	-0.0007614773
151	0x3c9cb543	0.019129401
152	0xbea75b38	-0.32686782
153	0xbb0ecb04	-0.0021788487
154	0xbea97f66	-0.3310501
155	0x3d04434b	0.032290738
156	0xbdde1e1f	-0.10845589
157	0x3d637c3b	0.055538397
158	0xbd8ea9af	-0.06965958
159	0x3d354056	0.04425081
160	0x3e9432e5	0.2894508
161	0x3e9de02e	0.30835098
162	0x3e40d3cf	0.18830799
163	0x3d07beae	0.03314083
164	0xbf04fab3	-0.51945037
165	0x3cd27f3a	0.025695432
166	0x3e98ab11	0.29818013
167	0x3d6adff5	0.05734249
168	0xbd61847a	-0.05505798
169	0xbe077704	-0.13228995
170	0xbdffa729	-0.12483055
171	0x3e48b08e	0.195986
172	0xbd96e909	-0.07368667
173	0xbdc90eda	-0.09817286
174	0xbc990fa1	-0.01868421
175	0xbbe9184b	-0.0071134917
176	0xbe09d387	-0.13459598
177	0xbd1ac59a	-0.037786104
178	0x3ea4e8f7	0.32208988
179	0xbde0e946	-0.109819934
180	0xbd0eb781	-0.03484297
181	0xbe40b113	-0.18817548
182	0x3c655d54	0.013999302
183	0x3ea0f467	0.31436464
184	0x3da79a5f	0.08183741
185	0x3d88578d	0.06657324
186	0x3e66df28	0.22546065
187	0xbe3c539a	-0.18391266
188	0x3e82235c	0.25417602
189	0x3eaa4f73	0.3326374
190	0x3d43dece	0.047819905
191	0x3d4e9b59	0.05044112
192	0xbde21f03	-0.11041071
193	0xbbe46432	-0.006969952
194	0xbd0bb76d	-0.034110475
195	0xbdbf8232	-0.09351005
196	0xbe312cc7	-0.17302237
197	0x3d848332	0.06470336
198	0x3d80b401	0.06284333
199	0xbbc6ddc1	-0.0060689156
200	0xbde25c95	-0.11052815
201	0x3d67600e	0.05648809
202	0x3e4a4b55	0.197553
203	0xbd7ccb0c	-0.061717078
204	0xbcecbd46	-0.028898846
205	0xbe9f5926	-0.31122702
206	0xbd57612e	-0.052582912
207	0xbf0524c2	-0.5200921
208	0xbe1c269b	-0.15249102
209	0x3de8162c	0.11332354
210	0xbdde42f6	-0.108526155
211	0xbdd7e7ce	-0.1054226
212	0x3dc5165a	0.09623404
213	0x3b963b0e	0.0045846766
214	0x3dcc0bbe	0.09963177
215	0x3df0665f	0.11738276
216	0xbe1ab6c6	-0.15108785
217	0x3db2a84a	0.08723505
218	0x3e917bd8	0.28414798
219	0x3b2d1516	0.0026410273
220	0xbf006d08	-0.5016637
221	0x3da445de	0.080211386
222	0xbd24209c	-0.04007016
223	0xbda47f4a	-0.08032091
224	0x3bc8b766	0.0061253784
225	0xbd8667e0	-0.06562781
226	0xbdc05244	-0.09390691
227	0x3e1b5a1b	0.15171091
228	0xbe62c425	-0.22145136
229	0xbeb17da4	-0.3466617
230	0xbe68e8ba	-0.22745028
231	0x3dd5d5af	0.104411475
232	0x3ce19067	0.027534677
233	0x3da8c678	0.0824098
234	0xbda774b6	-0.08176558
235	0x3e80160b	0.25016817
236	0x3db56684	0.08857444
237	0x3eb15ca6	0.34640998
238	0x3ca27468	0.019830897
239	0xbeebdaa6	-0.46065253
240	0x3e0285d8	0.1274637
241	0x3d983557	0.07432049
242	0xbac7b71d	-0.0015237067
243	0x3c720026	0.014770543
244	0xbdfe1368	-0.12406045
245	0xbd81560c	-0.0631524
246	0x3dce81a0	0.10083318
247	0x3e15911a	0.14606133
248	0x3e224e89	0.15850271
249	0x3df6b66f	0.12046515
250	0xbdbf44c8	-0.09339291
251	0xbe44400a	-0.19165054
252	0x3d3f3e17	0.046690073
253	0x3e1cffb5	0.1533192
254	0xbde837cd	-0.11338768
255	0x3bf86ac5	0.0075810873

bias f4 [32]
0	0xbe417a6f	-0.18894361
1	0x3f289ce7	0.65864414
2	0x3e3a86dd	0.18215509
3	0xbe7a7cfc	-0.2446174
4	0xbe042fc2	-0.12908843
5	0x3dcb529b	0.09927865
6	0xbecd4215	-0.4008948
7	0xbc1642b4	-0.009171177
8	0x3d1c9eca	0.03823737
9	0xbe1fe8c3	-0.15616135
10	0xbd6fa371	-0.05850548
11	0x3eb686f2	0.3564983
12	0x3e3be4ee	0.18349048
13	0xbbf8b8eb	-0.0075904033
14	0xbc20b300	-0.009808302
15	0x3e87532a	0.26430637
16	0xbe5c8337	-0.2153443
17	0xbd5fbb1d	-0.054621805
18	0x3cb3873a	0.021915067
19	0xbebb0524	-0.3652736
20	0xbe25fbf7	-0.16209398
21	0x3e3f2579	0.18666638
22	0xbee672a8	-0.4500935
23	0x3e141239	0.14460076
24	0x3eaab3e4	0.3334037
25	0xbd58a6f6	-0.0528936
26	0x3d5161de	0.051118724
27	0xbe6f8b28	-0.23392928
28	0x3e4ea938	0.2018174
29	0x3d15bf96	0.036559664
30	0xbd53b8ca	-0.0516899
31	0xbe4314f8	-0.19050968

weight f4 [32, 32]
0	0xbd6e98ef	-0.058251318
1	0xbf445d3c	-0.76704764
2	0xbde65659	-0.11246938
3	0xbd8203a1	-0.063483484
4	0x3eb1a716	0.3469779
5	0x3c09e0ce	0.008415414
6	0x3f317c39	0.69330174
7	0xbd8f7880	-0.070054054
8	0xbf091fe3	-0.5356428
9	0xbd41a6b7	-0.047278132
10	0xbe1ec0b4	-0.15503198
11	0xbf0d30d6	-0.5515264
12	0xbd821c74	-0.06353083
13	0xbe964f03	-0.29357156
14	0x3c5dd1f5	0.013538827
15	0x3c0aecbf	0.008479296
16	0x3d848042	0.06469776
17	0x3e7cd2b3	0.2468975
18	0x3d7adf52	0.06124813
19	0xbc268ee6	-0.010165906
20	0xbdad97ae	-0.08476196
21	0xbed24e83	-0.41075525
22	0xbc956202	-0.01823521
23	0x3e04dfcb	0.12975995
24	0xbeb51d78	-0.35374045
25	0xbf1e1c3f	-0.6176185
26	0xbe45e840	-0.19326878
27	0x3eb5a30f	0.35475966
28	0xbe3c96d1	-0.18416907
29	0x3e7613c9	0.24030985
30	0x3f244cef	0.6417989
31	0x3e7be696	0.2459968
32	0xbe8e8a4d	-0.2783989
33	0xbf312322	-0.69194233
34	0x3ddd8bb8	0.10817665
35	0x3e832492	0.25613838
36	0x3ea8a0df	0.32935235
37	0xbe796427	-0.24354611
38	0x3f148219	0.58011013
39	0xbe2c74fe	-0.16841504
40	0x3cd31cf8	0.02577065
41	0xbd0bd6c5	-0.034140367
42	0x3e0c1c18	0.13682592
43	0xbd0fc101	-0.035096172
44	0x3db1f244	0.086887866
45	0x3e8bde96	0.27318257
46	0xbe00f1a6	-0.12592182
47	0x3e4961ce	0.19666216
48	0x3c428d43	0.0118745
49	0xbe0c3cee	-0.13695118
50	0x3d34e851	0.044166867
51	0xbedd9f15	-0.43285432
52	0x3e24a079	0.1607684
53	0xbf4c8805	-0.7989505
54	0xbf1d5afe	-0.6146697
55	0x3f2d552c	0.67708087
56	0xbe883353	-0.26601657
57	0xbeb92cf5	-0.36167112
58	0x3edcfe78	0.43162894
59	0xbe7e7e37	-0.24852835
60	0x3cf14088	0.029449716
61	0xbebf19e8	-0.37324452
62	0xbd5b48f6	-0.053536378
63	0x3d99a1db	0.075015746
64	0xbd64d54a	-0.05586747
65	0x3ee50329	0.44728974
66	0x3c0258f7	0.007955781
67	0xbeaab34b	-0.33339915
68	0xbe590d71	-0.21196534
69	0x3f3a377e	0.72740924
70	0xbf66ecc5	-0.9020503
71	0x3d95c3a6	0.073127076
72	0x3e1b11f5	0.15143569
73	0x3e4e5ca5	0.20152529
74	0xbe9e2ba8	-0.30892682
75	0xbdf35eee	-0.11883341
76	0x3ea07743	0.3134099
77	0xbe3f91e9	-0.18708004
78	0x3da719e4	0.08159235
79	0xbd472292	-0.048616953
80	0xbe349d39	-0.176381
81	0x3e558cab	0.20854442
82	0x3e059c2f	0.1304786
83	0xbc05a171	-0.008156166
84	0xbeb11c3a	-0.34591848
85	0x3f766f1c	0.9626329
86	0x3ebd9f25	0.3703548
87	0xbf072707	-0.52793926
88	0x3ed5482a	0.4165662
89	0xbdf8dc17	-0.12151354
90	0x3da459a5	0.08024911
91	0x3cd92778	0.026508078
92	0x3e55be22	0.20873311
93	0xbb20b19f	-0.0024519933
94	0x3e352b8a	0.1769239
95	0x3d613c35	0.05498906
96	0x3ec4f9d1	0.38471845
97	0x3e6d1217	0.23151432
98	0xbe7df27e	-0.24799535
99	0x3e9810d6	0.29700345
100	0x3e587753	0.21139269
101	0xbe0c7543	-0.13716607
102	0x3ec58b50	0.3858285
103	0xbd6c2342	-0.057650812
104	0x3dbff078	0.09372038
105	0x3e4c553e	0.19954392
106	0xbe4a3644	-0.19747263
107	0x3e9ed8e7	0.31024858
108	0x3e8e356d	0.27775136
109	0xbf16681d	-0.58752614
110	0xbe86aa21	-0.26301673
111	0xbbab430b	-0.005226498
112	0xbebafed7	-0.36522552
113	0x3e2d5e17	0.16930424
114	0xbe779d21	-0.24181034
115	0x3c824d3c	0.015905969
116	0x3eb7d366	0.35903472
117	0xbed49960	-0.41523266
118	0xbf19fb6d	-0.6014927
119	0x3e443406	0.1916047
120	0xbea3a017	-0.31958076
121	0x3ef88a80	0.48543167
122	0xbe693bfc	-0.22776788
123	0xbd3ed8db	-0.04659353
124	0x3d867b0f	0.0656644
125	0x3ec69ff0	0.38793898
126	0xbee8dc5d	-0.45480624
127	0xbdd8367e	-0.105572686
128	0xbe96f947	-0.2948706
129	0xbdb0e288	-0.086369574
130	0x3eb848cd	0.35993043
131	0xbf00d2a9	-0.5032144
132	0xbe4799e6	-0.19492301
133	0x3991b160	0.0002778871
134	0xbe9a0a51	-0.30085996
135	0x3d59bccd	0.05315857
136	0x3cd8845d	0.026430303
137	0x3ec5c712	0.3862844
138	0xbdb6517a	-0.08902259
139	0x3e5dae0e	0.21648428
140	0x3e14a6b4	0.14516717
141	0x3ea76d16	0.32700413
142	0x3e3a7e50	0.18212247
143	0x3e29a349	0.16566195
144	0xbe5c6294	-0.2152198
145	0xbe20dce0	-0.15709257
146	0x3d831260	0.06399989
147	0xbea13bc5	-0.31490913
148	0xbed5a406	-0.41726702
149	0xbe832536	-0.25614327
150	0xbea19e8f	-0.31566283
151	0x3e408747	0.18801604
152	0x3ed8bcdc	0.42331588
153	0xbe848b98	-0.25887752
154	0x3ea19408	0.3155825
155	0xbe83fc6f	-0.2577853
156	0x3d4a1e15	0.049345095
157	0xbf1c34ba	-0.61017954
158	0x3f1b23ee	0.606017
159	0x3e5f525d	0.21808763
160	0x3ea8055e	0.32816595
161	0x3f1a09dd	0.601713
162	0x3d8125e0	0.06306052
163	0xbeb148e8	-0.34625936
164	0xbd9b928a	-0.075963095
165	0x3e835ab1	0.2565513
166	0xbeb881c1	-0.36036494
167	0xbe2e27d0	-0.17007375
168	0x3ebdb645	0.37053123
169	0x3f2f3aaa	0.6844889
170	0xbeca0cc7	-0.39462873
171	0x3f2e98d4	0.6820195
172	0x3efb9ef5	0.49144712
173	0x3c826002	0.01591492
174	0xbe5a17c9	-0.21298136
175	0x3e95aae3	0.2923194
176	0xbf0cae96	-0.54953897
177	0xbd35a290	-0.044344485
178	0xbdb8e2f6	-0.09027664
179	0xbe5645d4	-0.20925075
180	0x3ddb1edd	0.10699246
181	0x3d7f1346	0.06227424
182	0xbf0d106e	-0.55103195
183	0xbe0358a8	-0.12826788
184	0x3dbf8ad3	0.093526505
185	0x3e8e8923	0.27839002
186	0x3a6989a1	0.0008908753
187	0xbe7c51ea	-0.24640623
188	0x3ee79bbd	0.45236006
189	0xbf18a675	-0.59628993
190	0xbe950d29	-0.29111603
191	0x3daeedf5	0.085414805
192	0xbdb9aeea	-0.09066565
193	0x3d157053	0.036484074
194	0xbeaf48a2	-0.34235102
195	0x3e78b846	0.24289045
196	0x3e574e9f	0.21026085
197	0x3ed34f3a	0.41271383
198	0xbe835c6d	-0.25656453
199	0xbe345d3a	-0.17613688
200	0x3ecd3447	0.40078947
201	0xbf45b667	-0.7723145
202	0xbe0e09e6	-0.13870963
203	0xbeb2815d	-0.3486432
204	0xbc3c6dfc	-0.011500832
205	0xbda8bf45	-0.08239607
206	0xbe08164d	-0.13289757
207	0xbe582cd0	-0.21110845
208	0x3d74d40c	0.059772536
209	0x3e109d77	0.14122568
210	0x3dd4a5b8	0.10383171
211	0xbe10f353	-0.14155321
212	0xbe7c53c7	-0.24641334
213	0x3f289adc	0.65861297
214	0x3ea5620f	0.32301375
215	0xbe6c5f59	-0.23083247
216	0x3ee79fda	0.45239145
217	0xbc97997c	-0.018505804
218	0x3e2d2787	0.1690961
219	0x3e091064	0.13385159
220	0x3e4c2cda	0.19938985
221	0x3efce331	0.49392083
222	0xbe1dfdf0	-0.154289
223	0xbe91a271	-0.28444245
224	0x3eefc5e6	0.46830672
225	0x3d4d7f7d	0.05017041
226	0xbeab1dd6	-0.334212
227	0x3ed0dd46	0.40793818
228	0x3e58b8fd	0.21164317
229	0xbe5496aa	-0.20760599
230	0x3f1628b2	0.58655846
231	0xbd1bb225	-0.03801169
232	0xbe939f9e	-0.28832716
233	0xbee92169	-0.45533302
234	0xbd9bb7dd	-0.076034285
235	0xbea4c813	-0.32183895
236	0xbe0b6c82	-0.13615611
237	0xbee94a76	-0.45564622
238	0xbdd2b151	-0.10287727
239	0xbe8b53f3	-0.27212486
240	0x3e4dcbab	0.20097224
241	0x3e0a7661	0.1352172
242	0xbd815fd1	-0.06317104
243	0x3f1df476	0.6170114
244	0x3ec8fa2c	0.39253366
245	0x3e087b14	0.133282
246	0x3ec68428	0.38772702
247	0xbe0a48a0	-0.13504267
248	0xbea596ec	-0.32341707
249	0x3ecd7585	0.40128723
250	0xbf07483f	-0.52844614
251	0x3e726e6b	0.23674934
252	0xbda60934	-0.08107224
253	0x3f60d465	0.8782409
254	0xbec19aa4	-0.37813294
255	0xbeaa3def	-0.33250377

weight f4 [32, 32]
0	0x3e89e91a	0.26935655
1	0x3d9b1265	0.07571868
2	0x3eb3ed41	0.35141948
3	0x3ecff272	0.4061466
4	0xbee4e42d	-0.44705334
5	0xbe479ad2	-0.19492653
6	0x3e781ce8	0.24229777
7	0xbdaa9b6e	-0.08330427
8	0xbeb9b212	-0.3626867
9	0x3f149536	0.5804018
10	0x3f2de385	0.6792529
11	0x3f28a2d8	0.6587348
12	0xbe2d8f13	-0.1694911
13	0x3e523ddf	0.20531414
14	0xbcb013ad	-0.021493757
15	0xbef4d676	-0.4781987
16	0x3ed4babb	0.41548714
17	0x3ecbff51	0.39843228
18	0xbf605985	-0.87636596
19	0xbde58488	-0.11206919
20	0x3efd084e	0.49420398
21	0x3e15bb5d	0.14622255
22	0xbee5869e	-0.44829267
23	0x3d46adb1	0.04850549
24	0xbebf74d6	-0.37393826
25	0x3e97bac5	0.2963468
26	0xbcdf9f8d	-0.02729776
27	0x3d92c12c	0.07165751
28	0x3eea537f	0.45766827
29	0xbf0e92ba	-0.55692637
30	0xbeaf6367	-0.34255525
31	0xbd02b4b2	-0.031910606
32	0x3e5a5d67	0.21324693
33	0xbd9b06d9	-0.075696655
34	0xbe319ed0	-0.17345738
35	0xbe33d18f	-0.17560409
36	0xbe6dd7d6	-0.23226866
37	0x3db73f22	0.089475885
38	0x3e813053	0.2523218
39	0xbead71ea	-0.33875972
40	0xbdd2a394	-0.10285106
41	0x3ebd918a	0.370251
42	0x3ce26894	0.027637757
43	0x3ec8f2d6	0.3924777
44	0x3e96795f	0.29389474
45	0x3ed7b84c	0.42132795
46	0xbefb2fc6	-0.49059886
47	0xbedcb579	-0.43107203
48	0xbe096717	-0.13418232
49	0x3d77188b	0.06032614
50	0xbe176bee	-0.14787266
51	0x3e82691a	0.2547081
52	0x3e2c5271	0.16828324
53	0x3f325a0c	0.6966865
54	0x3d4f06c9	0.05054358
55	0xbf18e1ae	-0.5971936
56	0xbedbcf21	-0.42931464
57	0xbe0a4fb4	-0.13506967
58	0xbe38221b	-0.1798176
59	0xbe821e0f	-0.25413558
60	0x3e7fe96a	0.24991384
61	0x3f077c9e	0.52924526
62	0xbe50e259	-0.20398845
63	0xbf205983	-0.62636584
64	0x3dfa174f	0.12211477
65	0xbec3102f	-0.38098285
66	0x3f630ae3	0.88688487
67	0x3d7b62a3	0.061373364
68	0x3f07ceb7	0.53049797
69	0xbd8895ac	-0.06669173
70	0x3f0309e1	0.5118695
71	0x3e99c133	0.30030212
72	0xbd683178	-0.056687802
73	0xbf0a80ec	-0.5410297
74	0x3e55cc44	0.20878702
75	0xbe83851f	-0.256875
76	0xbef29eb3	-0.47386703
77	0xbf0214e8	-0.5081315
78	0x3e98eb58	0.29867053
79	0x3e65edc4	0.22453982
80	0x3efe6711	0.49688008
81	0xbcd0702b	-0.02544411
82	0xbbdfe115	-0.006832252
83	0xbf1b1551	-0.605794
84	0x3f0cccd2	0.5500003
85	0xbf0e2a05	-0.55532867
86	0xbe9df5ce	-0.30851597
87	0x3f3268e2	0.6969129
88	0xbd9e72f3	-0.077367686
89	0x3e3d9000	0.18511963
90	0xbe9efc14	-0.31051695
91	0x3e875d40	0.26438332
92	0xbeb8305b	-0.35974392
93	0xbf335c7b	-0.7006299
94	0xbd3a7f0b	-0.045531314
95	0x3f180ed6	0.5939764
96	0xbe15b2c0	-0.14618969
97	0xbe7c09b9	-0.24613084
98	0xbf570977	-0.8399882
99	0xbe242bb7	-0.16032301
100	0xbe949f82	-0.29027945
101	0x3e7c2a45	0.246255
102	0xbe983136	-0.29725045
103	0x3dcd8e4f	0.10036909
104	0x3de899c1	0.11357451
105	0xbec892d5	-0.39174524
106	0xbb68e123	-0.0035534583
107	0x3dd2b714	0.10288826
108	0xbe6a9aab	-0.22910564
109	0x3f02eefa	0.511459
110	0x3e1b5b4c	0.15171546
111	0x3ef4a8fe	0.4778518
112	0xbcba4b18	-0.022740886
113	0x3e9318ed	0.28729954
114	0x3ec6529a	0.38734895
115	0x3e229405	0.15876777
116	0xbf0e06f4	-0.5547936
117	0x3e826cf6	0.25473756
118	0x3f075748	0.52867556
119	0xbe859d0a	-0.26096374
120	0x3e88642f	0.26638934
121	0xbed64632	-0.4185043
122	0x3e7c742c	0.24653691
123	0xbec397e3	-0.38201818
124	0x3e17804c	0.14795035
125	0x3e2cf0c8	0.16888726
126	0x3e9e5d2f	0.30930468
127	0xbea37f3e	-0.31933016
128	0x3edf8bf4	0.43661463
129	0xbe008db8	-0.12554061
130	0x3ed9bd89	0.42527416
131	0xbd15525a	-0.03645549
132	0x3ea7a94f	0.3274636
133	0x3e7fd844	0.24984843
134	0x3ea5d61d	0.32389918
135	0xbeb4fdd6	-0.3534991
136	0x3df7494b	0.120745264
137	0xbc4679a3	-0.012113961
138	0xbdbfafc3	-0.09359696
139	0xbdbab424	-0.0911639
140	0x3e87f340	0.26552773
141	0xbeba56e1	-0.36394408
142	0xbee62584	-0.44950497
143	0x3da32ce3	0.07967546
144	0xbcef9237	-0.029244525
145	0xbdc37835	-0.09544412
146	0x3e2396bb	0.15975468
147	0xbdca9929	-0.09892494
148	0x3edf215e	0.43580145
149	0x3ede26de	0.43389028
150	0x3cf55a18	0.029950187
151	0xbe4790cc	-0.1948883
152	0xbef21f39	-0.47289446
153	0x3e62e8a4	0.22159058
154	0xbeb808e6	-0.3594429
155	0xbe839c24	-0.25705063
156	0x3e0d3f05	0.13793571
157	0x3ed178de	0.40912527
158	0xbe9e93d6	-0.30972165
159	0xbe6b8f1b	-0.23003809
160	0xbac01840	-0.0014655665
161	0xbf620e68	-0.8830323
162	0xbe3afedc	-0.18261284
163	0xbe307111	-0.17230631
164	0x3ee69ee3	0.45043096
165	0x3ecb3ddf	0.3969564
166	0x3e33efa6	0.17571887
167	0xbe4e5de1	-0.20153
168	0x3f064f98	0.524652
169	0xbf66b577	-0.90120643
170	0xbddbd6f3	-0.10734358
171	0xbf41ca86	-0.7569965
172	0xbe1a9855	-0.15097173
173	0xbdc7a167	-0.09747582
174	0xbe303e18	-0.17211187
175	0x3f4a9b14	0.7914288
176	0xbe234e78	-0.15947902
177	0x3e5e479a	0.21707001
178	0x3f39b57b	0.7254254
179	0xbc812a2e	-0.015767183
180	0x3dbbc74f	0.091688745
181	0x3d81ae93	0.063321255
182	0x3ebbba41	0.36665538
183	0x3dbd5c8b	0.09246167
184	0xbd88c0f5	-0.06677429
185	0xbebc8647	-0.36821195
186	0xbd4ccc26	-0.04999938
187	0xbe1f13ef	-0.15534948
188	0xbefe0886	-0.49615878
189	0x3f0c766c	0.548682
190	0x3daa5b82	0.08318235
191	0xbec88449	-0.39163426
192	0x3d9add60	0.07561755
193	0x3e1d9165	0.15387495
194	0x3f49d066	0.78833616
195	0x3dba0daf	0.09084641
196	0xbcb56b44	-0.022145875
197	0xbeb27ff4	-0.34863245
198	0x3f1282f1	0.5723105
199	0x3ebf5867	0.37372133
200	0xbea47806	-0.3212282
201	0x3f052c5b	0.52020806
202	0x3cd0b5b0	0.02547726
203	0x3dd4568a	0.103680685
204	0xbf033aa1	-0.51261336
205	0xbe221bea	-0.15830961
206	0x3ea45813	0.32098445
207	0xbf1903f6	-0.5977167
208	0x3eb0a20b	0.3449863
209	0x3cb20a73	0.021733498
210	0xbee3a97d	-0.44465247
211	0xbe04cdc8	-0.12969124
212	0xbd9eb9fc	-0.077503175
213	0xbe555fdf	-0.20837353
214	0xbecc4694	-0.39897597
215	0x3ec171c6	0.37782115
216	0x3e86204c	0.26196516
217	0xbe78c51f	-0.24293946
218	0x3e08198d	0.13290997
219	0x3e3f2136	0.18665013
220	0xbe1e991a	-0.15488091
221	0xbf3a52c5	-0.72782546
222	0x3e9ec16e	0.3100695
223	0x3ea42b3e	0.3206424
224	0xbed8990e	-0.4230427
225	0x3e18ff0d	0.14941044
226	0xbed32699	-0.41240385
227	0xbbde86d2	-0.006790974
228	0xbf19973b	-0.59996384
229	0xbe8dd401	-0.2770081
230	0xbf1b3a65	-0.6063598
231	0x3e8e83cd	0.2783493
232	0xbc0e867c	-0.008699056
233	0xbc94e107	-0.018173708
234	0x3db8bf14	0.0902082
235	0x3cd0162a	0.025401194
236	0xbe89e07c	-0.2692908
237	0x3f05839c	0.52153945
238	0x3f108bce	0.56463325
239	0x3e70d52f	0.23518823
240	0x3ecf6513	0.405068
241	0xbe913a17	-0.28364632
242	0xbe278025	-0.16357477
243	0x3e061461	0.13093711
244	0xbec7c135	-0.39014593
245	0xbe705a60	-0.23471975
246	0x3e67fd59	0.22655238
247	0xbd50edaf	-0.051007923
248	0x3ed76ac4	0.42073643
249	0xbe5c793c	-0.21530622
250	0x3f221704	0.6331637
251	0x3c3891d3	0.011265236
252	0x3cc3892e	0.023869123
253	0xbf0257a4	-0.5091498
254	0x3ef07bc5	0.4696943
255	0x3ebf8474	0.3740574

weight f4 [32, 32]
0	0xbe119725	-0.14217813
1	0xbdbc35ab	-0.09189924
2	0xbcc71793	-0.024303233
3	0x3dde565e	0.10856317
4	0x3d1281ba	0.03576825
5	0x3d100bce	0.035167508
6	0x3d210a42	0.039316423
7	0xbc97f8c1	-0.018551232
8	0x3da01c19	0.07817859
9	0xbd35bd03	-0.04436971
10	0x3def8e9d	0.11697123
11	0x3e83f591	0.2577329
12	0x3dbee9ad	0.09321914
13	0xbc24dfd7	-0.010063133
14	0x3cb2ef66	0.02184267
15	0xbd839bf1	-0.06426228
16	0xbd91db9a	-0.07121964
17	0x3dc98740	0.0984025
18	0xbb6fd6c6	-0.003659652
19	0xbb99af00	-0.004690051
20	0xbd994d4c	-0.07485446
21	0xbd42df55	-0.047576267
22	0x3deb70a2	0.114960924
23	0x3e14a627	0.14516507
24	0x3d2f62b4	0.04281874
25	0xbe1b7e9b	-0.15185015
26	0x3e19e0a4	0.150271
27	0xbde1048a	-0.10987194
28	0xbd8300d3	-0.063966416
29	0x3e48c109	0.19604887
30	0xbe1e8ce4	-0.15483433
31	0xbd865678	-0.06559461
32	0x3d6f72d1	0.058459107
33	0xbe263f40	-0.16235065
34	0x3d82d4ab	0.063882194
35	0x3e480eb3	0.19536857
36	0x3df84f7c	0.121245354
37	0x3dadb078	0.08480924
38	0x3d87ce24	0.06631115
39	0xbd591f70	-0.053008497
40	0x3a841381	0.0010076613
41	0x3d8c4644	0.068493396
42	0x3d02aeb4	0.03190489
43	0x3d791296	0.06080874
44	0x3dd210a0	0.10257077
45	0xbd868cb7	-0.06569808
46	0x3d847009	0.064666815
47	0x3d061c2b	0.032741707
48	0xbd48f0a4	-0.049057618
49	0x3ca42f66	0.020042133
50	0x3e387c93	0.18016271
51	0xbe2a5220	-0.1663289
52	0x39d6c247	0.0004096201
53	0x3d955253	0.07291093
54	0x3d8c76b7	0.068585806
55	0x3d840370	0.06445968
56	0xbd7fd4cc	-0.0624588
57	0xbe5f4cae	-0.21806595
58	0x3e07822d	0.13233252
59	0xbd759e96	-0.059965692
60	0xbe858c7c	-0.26083744
61	0x3c52a4f8	0.012856714
62	0xbe105deb	-0.14098327
63	0x3da09ac6	0.07842021
64	0x3c2ad662	0.010427089
65	0xbc1ca36e	-0.009560449
66	0x3e1bbc16	0.15208468
67	0x3d9af601	0.07566453
68	0x3d457da3	0.04821552
69	0x3e428206	0.18994913
70	0x3e01fc5e	0.12693927
71	0x3d07c944	0.033150926
72	0xbe1bd0e6	-0.15216407
73	0xbd8c662f	-0.068554275
74	0x3d2c9322	0.042132504
75	0x3e48c2fe	0.19605634
76	0x3e270b6a	0.16312948
77	0x3d0e7c5f	0.03478658
78	0xbda86bdd	-0.08223698
79	0xbd1659a2	-0.036706574
80	0x3d1eed70	0.038800657
81	0xbddd3f17	-0.10803049
82	0x3d1e810a	0.03869728
83	0x3de44de1	0.11147667
84	0xbdd02210	-0.10162747
85	0x3dcb70b7	0.09933608
86	0xbe000687	-0.1250249
87	0x3d2c60ee	0.042084627
88	0xbce63e3f	-0.028105853
89	0xbe783d22	-0.2424207
90	0x3e7fad7f	0.24968527
91	0xbdae6d11	-0.085168965
92	0x3d53bd58	0.051694244
93	0xbd497456	-0.049183212
94	0xbe48a02d	-0.19592352
95	0xbde7666a	-0.11298831
96	0xbbcdf022	-0.0062847296
97	0x3d4c8092	0.0499273
98	0x3e3c0182	0.1835995
99	0x3d3a9e5e	0.045561187
100	0xbd443171	-0.047898713
101	0x3e264d00	0.1624031
102	0x3ca6cd6e	0.020361628
103	0x3d73155c	0.05934654
104	0xbd577290	-0.05259949
105	0x3e53f131	0.20697476
106	0xba48c752	-0.00076590956
107	0x3e41af94	0.18914634
108	0x3e61aa1a	0.22037545
109	0x3e19170b	0.14950196
110	0xbe5ce7dc	-0.21572822
111	0xbc577f6e	-0.01315294
112	0xbe51e179	-0.20496167
113	0xbd8ec7e7	-0.06971722
114	0xbcac7f5a	-0.02105682
115	0xbbc58f31	-0.0060290326
116	0xbd7551ae	-0.05989235
117	0x3d3be3c4	0.04587151
118	0xbe1485b9	-0.14504136
119	0x3d582ab2	0.052775092
120	0x3da48b78	0.08034414
121	0xbe80fc91	-0.25192693
122	0x3d185576	0.037190877
123	0x3c5ad58c	0.013356578
124	0x3e892e22	0.2679301
125	0xbd6cd202	-0.057817467
126	0xbd2aeb4a	-0.041728295
127	0xbeba43c4	-0.36379826
128	0xbc9b0735	-0.018924335
129	0x3e7474a1	0.23872615
130	0x3e5f28e7	0.21792947
131	0xbd00931f	-0.031390306
132	0xbe857b15	-0.26070467
133	0xbe0f79ad	-0.1401126
134	0x3d7c035a	0.061526634
135	0x3c97b4dd	0.01851886
136	0xbe2fdc46	-0.17173871
137	0x3eb58d7e	0.35459512
138	0x3b52bfea	0.0032157847
139	0xbc3f7a6a	-0.011686901
140	0xbe8b210e	-0.27173656
141	0x3d697ee8	0.057005793
142	0x3dbd8686	0.09254174
143	0xbe9c9137	-0.3057954
144	0xbd9bf8a0	-0.07615781
145	0x3e6c9663	0.23104243
146	0xbec4a68e	-0.3840832
147	0x3d764e49	0.060133252
148	0xbda1f6c7	-0.07908397
149	0x3bbd88bf	0.0057841237
150	0xbe38e120	-0.18054628
151	0x3d415ea0	0.047209382
152	0x3e3b6d2f	0.18303369
153	0xbc8bbf35	-0.017058948
154	0x3b51b141	0.003199652
155	0x3de4f1f5	0.11178962
156	0x3d9d643e	0.07685135
157	0xbefa360e	-0.48869365
158	0x3e3cf2ab	0.18451945
159	0x3dba3271	0.09091652
160	0xbe0425e9	-0.12905087
161	0x3d848d81	0.06472302
162	0xbe1efe5e	-0.15526721
163	0x3e372ae6	0.17887458
164	0x3d985a41	0.074390896
165	0xbdfbdef5	-0.12298385
166	0x3e5d08a7	0.21585332
167	0x3e5fcd7f	0.21855734
168	0x3c5f1446	0.013615673
169	0x3cd9c35b	0.02658241
170	0x3c72a277	0.014809242
171	0xbc7fd0d4	-0.015613753
172	0xbed190e0	-0.40930843
173	0xbe88970d	-0.26677743
174	0x3ec88db9	0.39170626
175	0xbe98936f	-0.29799983
176	0x3dee88d2	0.1164719
177	0x3d3cb0eb	0.04606716
178	0xbddfbeb1	-0.109250434
179	0xbda047bc	-0.07826182
180	0x3d7b0d97	0.061292257
181	0xbe325832	-0.17416456
182	0xbe00b2fb	-0.12568276
183	0x3d573f8c	0.052550837
184	0x3e2c10a7	0.16803227
185	0x3e2e0db6	0.16997418
186	0x3d1a560a	0.03767971
187	0xbdc79b85	-0.0974646
188	0xbe21a50b	-0.15785615
189	0xbe8da2e5	-0.2766334
190	0x3e15fff4	0.1464842
191	0x3dcdc55b	0.10047408
192	0xbb720d05	-0.003693403
193	0xbe082baf	-0.13297914
194	0x3cffec5e	0.031240638
195	0x3da09872	0.07841577
196	0x3be496f1	0.0069760014
197	0x3e426549	0.1898395
198	0x3e2a24a1	0.16615535
199	0x3d77838d	0.06042819
200	0xbe5600b5	-0.20898707
201	0xbd9aa3bb	-0.0755076
202	0xbd655bd2	-0.05599577
203	0x3e95bdae	0.29246277
204	0x3e1e2795	0.15444787
205	0x3ddaecfc	0.106897324
206	0xbd393268	-0.045214087
207	0xbe144113	-0.14477949
208	0xbda41f38	-0.08013767
209	0xbd193630	-0.037405193
210	0xbd1ed5eb	-0.038778227
211	0x3d292504	0.041295066
212	0xbdda0e90	-0.10647309
213	0xbe04d4cd	-0.12971802
214	0xbe312f5d	-0.17303224
215	0x3e6491d5	0.22321256
216	0x3c13995d	0.009008733
217	0xbe35e11b	-0.17761652
218	0x3df28b31	0.11842955
219	0xbd9cf907	-0.07664686
220	0x3e20ba7e	0.15696141
221	0x3d781075	0.06056257
222	0xbe94f19c	-0.29090583
223	0xbe183398	-0.14863431
224	0x3dab0699	0.08350868
225	0xbe285a12	-0.16440609
226	0xbe055b66	-0.13023147
227	0xbd96add3	-0.07357373
228	0x3c52289d	0.012827066
229	0xbd98bcda	-0.074578956
230	0x3ac0e964	0.0014717993
231	0x3bab952d	0.005236289
232	0x3e2f6fad	0.17132445
233	0x3d2b54dc	0.041828975
234	0xbdbb64f9	-0.091501184
235	0x3d0a38aa	0.033745445
236	0xbcb67e66	-0.022277068
237	0x3e142bcf	0.14469837
238	0xbde2a92c	-0.11067423
239	0x3d340409	0.04394916
240	0xbd60bca7	-0.054867413
241	0xbda5454e	-0.080698594
242	0x3e0338aa	0.12814584
243	0x3c2c3451	0.01051052
244	0xbe22b635	-0.15889819
245	0xbc6d6de4	-0.014491532
246	0x3d00e831	0.031471435
247	0x3e1b6442	0.15174964
248	0x3c738232	0.014862584
249	0xbd13b3bf	-0.03606009
250	0x3d4b595b	0.049645763
251	0x3d66119e	0.056169145
252	0xbd2daeec	-0.042403147
253	0x3b839605	0.0040156865
254	0x3c4cc418	0.012497924
255	0x3de07ff4	0.10961905

weight f4 [32]
0	0x3e66675b	0.22500364
1	0x3e9b479d	0.30328074
2	0x3eba4af1	0.363853
3	0x3e840fe8	0.25793386
4	0x3dfbc3a2	0.122931734
5	0x3eb22499	0.34793547
6	0x3e9ad292	0.30238777
7	0x3ec8acdd	0.39194384
8	0x3ed34026	0.4125988
9	0x3e2eaebb	0.17058842
10	0x3efda7b4	0.4954201
11	0x3e36c3f1	0.17848183
12	0x3f260d64	0.6486418
13	0x3e8fe1ac	0.2810186
14	0x3eb6048b	0.3555034
15	0x3e8ee072	0.27905613
16	0x3de8c350	0.11365378
17	0xbd43837c	-0.047732815
18	0xbb313fa3	-0.0027045987
19	0x3e9e2baf	0.30892703
20	0x3ead41a2	0.33839136
21	0x3eb44665	0.35209957
22	0x3dfb2cbc	0.12264392
23	0x3e2ed04e	0.1707165
24	0x3ea87952	0.3290506
25	0x3ed1a07d	0.40942755
26	0x3d1e5f30	0.038664997
27	0x3c8db4fe	0.017298218
28	0x3e9bb5e1	0.304122
29	0x3eba80fe	0.36426538
30	0x3e89b90f	0.26899
31	0x3dd7012d	0.10498271

bias f4 [32]
0	0x3d00b47f	0.031422134
1	0xbe698d1a	-0.22807732
2	0x3dad2a33	0.084553145
3	0xbd2e2256	-0.042513214
4	0xbc868f07	-0.016425623
5	0xbe57e8f8	-0.21084964
6	0x3ee8f43c	0.45498836
7	0x3ce53486	0.027979147
8	0xbdae588e	-0.08512984
9	0x3c814244	0.015778668
10	0xbd6301c1	-0.055421595
11	0x3d12b008	0.035812408
12	0x3deff180	0.11715984
13	0x3caaeac9	0.020863907
14	0x3d2ffc2e	0.042965107
15	0xbdb94873	-0.09047022
16	0xbd1e434c	-0.038638398
17	0x3cdeb81d	0.027187401
18	0xbc771ace	-0.015082074
19	0x3e90afa1	0.28258994
20	0x3b8adb30	0.004237555
21	0xbe613b8d	-0.21995373
22	0xbce94908	-0.028477207
23	0x3cd06031	0.025436493
24	0xbe7f6f5d	-0.24944825
25	0xbd0c99ff	-0.03432655
26	0xbbd781cb	-0.006576752
27	0x3ce91595	0.028452674
28	0xbe37c7f3	-0.17947368
29	0xbe055b6b	-0.13023154
30	0xbda26f7f	-0.079314224
31	0x3c98af6e	0.018638339
