calculator/models/model_add2_2024-07-23-22-05.pth (torch, 846114 bytes, 60 tensors)

weight f4 [13, 64]
000000 ed 52 a0 3d 9d de 12 bd fd 07 66 be 99 e4 7b bf
       0.07828317 -0.03585683 -0.22463985 -0.9839569
000010 02 58 2a 3f 57 25 c4 3d 54 86 73 3f 83 ce 0d 3e
       0.6654054 0.095774345 0.95126843 0.13848309
000020 0c 88 11 3f d7 cb 99 3f b0 2a 9a bf 9b bc 4d be
       0.56848216 1.2015332 -1.2044277 -0.20091479
000030 81 d1 16 3e 12 d7 81 be 41 73 6f bf bd d1 c8 3f
       0.14728357 -0.25359398 -0.9353524 1.5689007
000040 0e e0 b7 3f bc 2d 20 be 44 59 11 3e 6e ac 7c 3f
       1.4365251 -0.15642446 0.14194208 0.98700607
000050 8b 7c f5 bf 4b b3 fe 3e 97 5b ce 3f 32 be 18 3f
       -1.9178632 0.49746165 1.6121701 0.59665215
000060 0a be 0e be 27 95 b2 bf 0b fc 97 bf 43 3a 25 bf
       -0.13939682 -1.3951768 -1.1873792 -0.64542025
000070 88 79 9a 3e 9e a8 43 bf 17 b0 b3 3f d8 7a 1d 40
       0.30170846 -0.76429164 1.4038113 2.4606228
000080 50 78 57 bf 93 9d 1e bf 17 d6 86 3f 03 8e b7 3e
       -0.8416796 -0.6195919 1.0534085 0.35850534
000090 02 69 98 3d 2a cb 8c 3f 3c ab 94 bf 3f 4d aa be
       0.07441904 1.0999501 -1.1614757 -0.3326206
0000a0 b8 42 d3 be 1a 19 22 bf 6b 28 cb 3e a0 be c1 bf
       -0.4126184 -0.6331955 0.39679274 -1.5136299
0000b0 37 86 95 bf 1c eb 4f 3f 27 b5 f0 be 57 8e 57 bf
       -1.1681584 0.81218123 -0.47013208 -0.8420157
0000c0 0e 33 d2 3f 0f d5 33 bf 87 3f d2 3f 5a ab 0f bf
       1.6421831 -0.70246977 1.6425637 -0.56120837
0000d0 59 0b b2 bf 18 19 07 40 43 eb 2c 40 c9 1c d4 bf
       -1.3909713 2.1109066 2.7018592 -1.6571285
0000e0 60 d5 c7 3f 05 84 e4 bf 5e 5c 5b 3f bf 11 e7 be
       1.5611992 -1.7852789 0.85687816 -0.45130727
0000f0 43 8b 27 3f 01 5d dc 3f 60 c9 c7 3f c1 cb 0c bf
       0.6544687 1.7215883 1.560833 -0.54998404
000100 7c 79 5b bf f7 24 d3 3e 7d 54 b5 3d b3 e7 e0 3c
       -0.85732245 0.4123914 0.088540055 0.027454233
000110 83 ad 4b be 15 38 19 3f 45 45 8b be fc 4a 80 bf
       -0.19890408 0.598512 -0.27201286 -1.0022883
000120 70 32 e5 3f 55 26 01 bf 91 2f 65 3e e0 50 68 3f
       1.7906017 -0.50449115 0.22381426 0.90748405
000130 84 86 bd bf 82 e2 58 3f 1a 03 d4 3c 36 f5 0c 3e
       -1.4806676 0.84720623 0.025880385 0.13765416
000140 b9 56 28 40 3b 34 85 bf 97 55 5b 3f f2 70 f6 3e
       2.6302931 -1.0406564 0.85677475 0.48133045
000150 52 fa bb bf 74 91 86 bf 8c 5b 60 3f ed 0a 42 be
       -1.4685767 -1.0513139 0.8763969 -0.1894948
000160 4e 6d 5e 3b fe 3c f7 be 54 32 ca 3e 9d af 52 bf
       0.0033939662 -0.4828872 0.39491522 -0.82299215
000170 89 7b fe be 07 9b 0a bf f6 74 3e bf ef 62 f1 be
       -0.49703625 -0.541428 -0.7439722 -0.47145793
000180 25 f6 cc bf 1b 0b ba bf 02 3b 37 3c 33 9b 82 3f
       -1.6012617 -1.4534639 0.011183502 1.0203613
000190 f4 d1 48 be 28 35 0e bf 9d d7 5d be 97 21 cc bd
       -0.19611341 -0.5554986 -0.21664281 -0.09967344
0001a0 37 5f 2e bd 1e 17 80 3d a0 62 1b 3c c3 20 94 3f
       -0.042571273 0.06254409 0.009483963 1.1572498
0001b0 0b ef 4e bb c7 5d 28 40 ff 94 bc be 4d 90 00 c0
       -0.0031575586 2.6307237 -0.36832425 -2.0088074
0001c0 43 82 9c be ff 1b 2d 3d 24 ed 67 3f b0 4b f2 bf
       -0.30568132 0.042263027 0.9059622 -1.8929348
0001d0 4d 37 fc 3d 5f 01 a8 3e 8f bc ce bf 40 cc 90 3e
       0.12315235 0.32813546 -1.6151294 0.2828083
0001e0 6b 1f ce 3f 21 7f 41 3d fc 78 85 3e ee f4 4c bf
       1.6103338 0.04724038 0.26068866 -0.80061233
0001f0 65 f6 25 bf 03 e6 07 3f 28 80 a2 be 9a 3b af bf
       -0.64829093 0.53085345 -0.317384 -1.3690064
000200 78 69 e5 bf cb ba c6 3f 85 c2 a0 3f cb 6f 72 be
       -1.7922812 1.5525755 1.2559363 -0.23675458
000210 d1 de b3 3f 60 b6 d1 3f 86 cb 91 bd 0a a2 c3 bf
       1.4052373 1.6383781 -0.07118897 -1.5283825
000220 c3 ed a4 3a a7 48 dc bd d9 09 77 3f 1a 61 56 3f
       0.0012583066 -0.10756045 0.964994 0.83741915
000230 9c ce 73 bd 96 42 2b bf d3 ad 15 3f 91 f5 44 3f
       -0.05952321 -0.6689848 0.5846836 0.76937205
000240 28 46 14 40 82 18 2f 3f 2c 67 a0 bf ee 10 fb bd
       2.316782 0.6839677 -1.2531486 -0.122590885
000250 33 f9 e5 bc a5 5f 2a be d5 50 d9 bd 8b 67 94 3f
       -0.028072929 -0.16638048 -0.106111206 1.1594099
000260 9d 38 83 bf 54 a2 94 bd 5c 7c 81 3f 78 f0 86 be
       -1.0251652 -0.07257524 1.0116076 -0.26355338
000270 49 1e 66 bf 7c d2 1b bf 34 97 9c 3f 87 21 11 bf
       -0.8988996 -0.6086805 1.2233644 -0.56691784
000280 66 54 68 bf f9 c7 71 3d a0 fc f7 3c 06 cf 00 40
       -0.9075378 0.0590286 0.030271828 2.0126357
000290 13 0b 24 c0 52 65 1d 3f a6 00 27 bf f5 9b 8f be
       -2.563176 0.6148273 -0.65235364 -0.28048673
0002a0 40 46 3b 3c f9 5e dc 3f 95 05 6d be 47 32 5b be
       0.011430323 1.7216483 -0.2314666 -0.21405898
0002b0 dc d2 a8 bf e6 8a 02 3d 20 2f c6 bf f0 6b a9 bf
       -1.3189349 0.031870745 -1.5483131 -1.3236065
0002c0 54 7a 46 be 31 82 84 bf 53 ba d6 3c 0d 62 aa bb
       -0.19382602 -1.0352231 0.026211893 -0.005199677
0002d0 cf 96 1b 3f 36 fd 3a 3f f7 d0 ae bf 36 ce 85 3f
       0.6077699 0.7304262 -1.3657521 1.0453556
0002e0 fe b4 4f 3f 37 b7 43 3f d5 73 ee 3e ff a4 aa bf
       0.8113555 0.7645144 0.46572748 -1.3331603
0002f0 e8 d9 39 bf cc 9d eb 3f 27 a6 f4 3e aa 5b 84 3f
       -0.72598124 1.8407531 0.47783014 1.0340474
000300 e0 18 08 3d 70 0e 0b bf 44 b9 ca 3f d8 42 ca 3f
       0.033226848 -0.54318905 1.5837789 1.5801649
000310 77 1a a8 3f 41 93 c9 be 3f ab a4 bd c0 ed a0 3e
       1.3133076 -0.39370158 -0.08040475 0.3143139
000320 bf ee 3d be 4f cf c6 bf 43 2d aa 3f 4a f4 09 3f
       -0.18548106 -1.5532016 1.3295063 0.5388838
000330 bd a7 a0 bf 04 ac 7e bf d8 1d 04 be 4b 47 89 3d
       -1.255119 -0.99481225 -0.1290201 0.06703051
000340 57 ee c0 3e 76 85 0c bf a1 af 9f be be c7 10 bf
       0.3768184 -0.54891145 -0.31188682 -0.5655478
000350 b8 e0 15 3f 09 2b ee 3e 13 f8 ae 3f c5 35 53 3f
       0.5854602 0.46517208 1.3669456 0.8250392
000360 87 03 10 3e e1 80 22 3f 92 4e 07 be 69 3d 73 bf
       0.14063846 0.63477904 -0.13213566 -0.9501558
000370 44 9f 9a be 90 e4 03 3e ed 07 e1 be 9e 25 1d bf
       -0.30199635 0.12880158 -0.4395136 -0.61385524
000380 d7 00 54 bf 7b f1 b0 bd b6 67 93 3d c8 25 fc bd
       -0.8281378 -0.08639809 0.07197516 -0.12311894
000390 d1 f4 9f be e7 cd 54 3f 03 d6 a8 be df 30 d3 be
       -0.31241468 0.8312668 -0.32975778 -0.41248223
0003a0 63 86 68 3f 5f 71 80 bf 15 64 fc 3e 73 85 e4 bf
       0.9083006 -1.0034598 0.49295107 -1.7853225
0003b0 cc 99 8b bf 82 18 84 3e e8 73 04 bf 31 90 d1 be
       -1.090631 0.25799948 -0.5173936 -0.40930322
0003c0 65 93 d1 3f a4 49 83 be 4b 77 41 bf 58 52 9a bf
       1.6373106 -0.2564212 -0.7557265 -1.2056379
0003d0 dc 42 10 3f ef a5 5a be 05 fe 74 3d f0 79 72 bf
       0.5635202 -0.21352361 0.059812564 -0.9471731
0003e0 16 e3 c1 bd 51 90 ef 3e ab 88 87 bf 54 17 c4 bf
       -0.09467141 0.46789792 -1.0588583 -1.5319619
0003f0 df c4 48 3f c4 ff be bf ac 03 f7 be 91 2c bf 3f
       0.784254 -1.4921803 -0.4824499 1.4935476

weight f4 [16, 64]
000000 61 63 d1 3f 42 7b 92 3f 27 2c c0 3f 9c a1 da 3f
       1.6358453 1.1443865 1.5013474 1.7080569
000010 9f b7 4c 3f e5 71 ab 3f 36 cf 84 bf 71 1e cf 3f
       0.79967684 1.3394133 -1.0375736 1.6181165
000020 72 24 7f bf 72 68 03 40 0a 24 51 bd 2e 9b a1 3f
       -0.99664986 2.0532498 -0.05105976 1.2625482
000030 a7 fd cd be ad 07 98 3e 48 d2 36 3f 7f c8 75 3e
       -0.40232584 0.29693356 0.71414614 0.24002264
000040 7d 87 87 3d a9 5b 17 c0 03 71 b8 3f b7 de 84 bf
       0.06617639 -2.3649695 1.4409488 -1.0380467
000050 57 44 d8 3f 82 cf 48 3f be d1 01 3e 59 29 e3 3f
       1.6895856 0.7844163 0.12677667 1.7746993
000060 51 cf 88 bf 17 0f 20 bf ac d4 0d 3f bc 4d ab bf
       -1.0688268 -0.62523025 0.55402637 -1.3383098
000070 a0 41 06 c0 6d ff 01 bc 69 75 9e be 8f 02 4d bf
       -2.0977554 -0.007934433 -0.30948952 -0.8008203
000080 44 8f 1c 3f e0 58 e2 3e d6 e2 1f 3f 23 66 93 3f
       0.61156106 0.4420843 0.624555 1.1515545
000090 46 d7 06 3d a6 dd a4 3f 5f c1 1f bf 06 72 3f bf
       0.032920144 1.2880142 -0.62404436 -0.7478336
0000a0 29 26 cd be 2a 1f 03 bf a7 dd 01 bf 87 9c af 3c
       -0.40068176 -0.5121943 -0.5072884 0.021436943
0000b0 b0 a7 bb 3e 81 45 34 3f 89 6a 22 40 50 18 35 3f
       0.36651373 0.70418555 2.5377524 0.7074022
0000c0 4e da b8 be be 23 d1 3f af 83 9a be 0e 5d e8 bf
       -0.36104053 1.6339033 -0.30178592 -1.8153398
0000d0 8b 10 02 3f 27 b7 b6 be 65 78 18 40 2e 34 d4 3d
       0.5080649 -0.3568661 2.3823483 0.10361515
0000e0 96 6e cd bf 70 9f 97 bf 6e 70 fb bf e0 78 17 be
       -1.6049373 -1.1845531 -1.9643686 -0.14792204
0000f0 cc cf e1 3c 07 02 3a c0 38 4d 8c 3f 01 71 93 bf
       0.027564906 -2.9063737 1.0961065 -1.1518861
000100 6d 43 7e 3f b4 5c 9a bf 80 42 d1 be f5 69 84 3d
       0.99321634 -1.2059541 -0.40871048 0.06465522
000110 c0 f9 8c be 1a 1a be 3e 2d d6 92 bf fe 83 47 be
       -0.27534294 0.3712929 -1.1471611 -0.19483945
000120 e0 f4 3b bf b8 90 2e bf 17 60 16 bf 6d a3 52 bf
       -0.73420525 -0.68189573 -0.5874037 -0.8228062
000130 63 54 45 bf e9 76 4f be 15 8b 53 bf d9 b3 e0 be
       -0.7708189 -0.20260204 -0.826341 -0.43887213
000140 ac aa 89 3f 71 fb 43 bf 46 07 00 3c 57 b4 be 3e
       1.075521 -0.76555544 0.007814234 0.37246963
000150 23 0a 9f 3e cd 02 b1 3f ed 84 98 be d6 45 95 be
       0.3106242 1.382898 -0.29788914 -0.29154843
000160 26 93 e8 bf c8 a7 ee bd c0 7a 5a 3d aa 32 77 3d
       -1.8169906 -0.116530955 0.05333972 0.06035105
000170 02 f9 ab 3e c0 16 6d 3f 66 99 93 3f d3 ba b0 bf
       0.33588415 0.9261284 1.1531188 -1.3807014
000180 d9 c3 4e 3f 52 6f 28 3f d9 72 9d 3f 0b 90 44 bf
       0.8076759 0.6579486 1.2300674 -0.7678229
000190 83 d4 83 bf 9d 11 66 3f 3b 09 07 40 71 08 77 3f
       -1.0299228 0.89870626 2.1099384 0.96497256
0001a0 af 0b b7 3f 86 10 aa 3f c5 e8 b5 3e f7 14 95 bd
       1.430044 1.3286293 0.35529152 -0.07279389
0001b0 b4 5b 3c be 57 ca a4 3f e1 a3 12 40 6c c1 90 3f
       -0.18394357 1.2874249 2.2912524 1.1309028
0001c0 2c 4f 7b bf e5 28 0b bf ad 4e d8 be b9 1e 21 bf
       -0.9816768 -0.54359275 -0.42247525 -0.62937504
0001d0 f7 88 e6 be 85 c1 93 3d 60 47 0e bf 53 d4 a4 3f
       -0.4502637 0.07214645 -0.5557766 1.2877296
0001e0 67 b8 96 3d be 84 73 3e 74 7f 81 3f b3 e3 2f bd
       0.07359391 0.23781106 1.0117021 -0.04294176
0001f0 76 57 19 3d 02 e2 e4 3f eb dd 09 40 ac 7f f3 3f
       0.037436925 1.7881472 2.1541698 1.9023337
000200 1b 99 5a 3e 6b 31 23 bf fb c8 9a 3e aa 09 da 3f
       0.21347468 -0.6374728 0.3023146 1.7034199
000210 5a 29 c3 be b5 0f e2 3e 28 75 f9 bf ea 58 31 3e
       -0.38117486 0.4415261 -1.9488878 0.17319074
000220 00 83 57 bf 8c 38 1c 3f 5b fa 50 bf 27 29 0e 3f
       -0.84184265 0.61023784 -0.8163201 0.55531543
000230 0d 39 68 bf f0 17 ab 3f f2 39 3d 3f c7 4d cb be
       -0.9071205 1.336668 0.7391654 -0.39707777
000240 74 14 c4 3f 72 ec 9e bc 8f 5d 9f bf 7c 79 9e 3f
       1.5318742 -0.019399855 -1.2450427 1.2380824
000250 f3 5e ee 3e 30 d7 41 bf dc b4 a7 3f 2b a1 ec bf
       0.46556816 -0.75718975 1.3102069 -1.8486685
000260 49 d5 63 bf 05 cc 98 bf 26 3c 09 bf 1b 16 5f 3e
       -0.8899732 -1.1937262 -0.53607404 0.21785776
000270 32 e4 10 3e cc c6 53 be b6 34 9d bd cc eb 6b 3f
       0.1414955 -0.20681304 -0.076760694 0.9215667
000280 57 97 79 3f be e3 98 3e 0c 98 dd 3e b6 09 50 3f
       0.9749655 0.29861253 0.43280065 0.8126482
000290 aa 79 cb 3c 45 a2 f3 3f 28 7c cb 3f a4 8e be bf
       0.024838287 1.9033896 1.5897264 -1.488728
0002a0 b1 ff a8 3e 81 b6 fb bf 4d 98 0c 3f 9b c6 1d 3f
       0.33007577 -1.9665071 0.5491989 0.6163117
0002b0 ed a3 aa bf 72 68 31 bf 8c 5f 8f be df 40 3e be
       -1.3331276 -0.69299996 -0.28002584 -0.18579434
0002c0 b8 98 47 3f 29 06 57 3f 9c cb 59 be 85 be 5b 3f
       0.77967405 0.83993775 -0.21269077 0.85837585
0002d0 50 88 2c bf 3f 62 5d be 60 87 91 bf 54 67 3e 3f
       -0.67395496 -0.21619509 -1.1369438 0.74376416
0002e0 83 6f fd bf c8 d2 68 3e f4 76 c1 be 4f ec 2b bf
       -1.9799656 0.22736657 -0.37786067 -0.67157453
0002f0 c6 7c 35 be 60 41 40 3f 1e df cc be e4 ab e2 3f
       -0.17723379 0.75099754 -0.40013975 1.7708707
000300 0f d5 d4 3e 31 0e 95 3d 54 f2 f4 3d e6 bc 11 3e
       0.415688 0.072780974 0.11960283 0.14232215
000310 d8 67 21 3e f9 cb 62 3e 0f 1c 2e bf 17 24 fb bf
       0.1576227 0.22148122 -0.68011564 -1.9620389
000320 3a 94 7b bf ea d2 13 bf a5 ff 45 be 0e c0 f5 3e
       -0.9827305 -0.57743704 -0.19335802 0.4799809
000330 46 d7 31 bf dd 7f 2e 3f 26 1a 24 bf e6 10 e1 bf
       -0.69469106 0.68163854 -0.641024 -1.7583282
000340 07 42 db bf 9d e5 9c be be 6a 68 bf 94 96 6b be
       -1.7129525 -0.3064393 -0.90787876 -0.2300666
000350 eb 08 db 3f d6 42 9d bf ce 14 11 be 7b 33 19 3f
       1.7112097 -1.2286022 -0.14168093 0.5984418
000360 6c 45 e0 3f 27 d7 9c 3f d8 16 a4 3d 23 f1 b5 bf
       1.7521186 1.2253159 0.080121696 -1.4214214
000370 67 db 84 bf 2b 65 ab 3e 7e 72 0b bf a8 2f 7c 3f
       -1.0379456 0.33475623 -0.54471576 0.9851022
000380 78 38 81 be 04 2a e2 3e 8b 8f 46 be a4 c0 04 3d
       -0.25238395 0.4417268 -0.19390695 0.03241028
000390 c5 7e a8 3f 7f a4 74 3f ab 25 19 3f dc b2 db 3e
       1.3163687 0.955635 0.598231 0.42909896
0003a0 69 e0 e6 be 40 09 b9 3f 1a 39 d5 bf 76 40 ce 3e
       -0.45093086 1.4455948 -1.6658051 0.40283555
0003b0 83 83 cd be 25 8c fc be 4d 99 3c 3d da f6 f2 bf
       -0.40139398 -0.49325672 0.046044637 -1.8981583
0003c0 3e f9 36 3f 44 7b 99 3f b4 dd 28 be 1b a1 d7 3f
       0.71474063 1.1990743 -0.16490823 1.684604
0003d0 47 99 61 3f 42 50 5a 3e f7 83 c1 be 55 25 c2 bf
       0.8812451 0.21319678 -0.37795994 -1.5167643
0003e0 c6 17 61 be ce 13 18 bf 27 2e 13 3f 93 be 16 bf
       -0.21981725 -0.5940522 0.574923 -0.58884543
0003f0 fe ae 1f be 7f b3 32 bf 93 bd d9 3e 9a 16 50 bf
       -0.15594098 -0.6980514 0.42527446 -0.8128449

tril f4 [16, 16]
000000 00 00 80 3f 00 00 00 00 00 00 00 00 00 00 00 00
       1.0 0.0 0.0 0.0
000010 00 00 00 00 00 00 00 00 00 00 00 00 00 00 00 00
       0.0 0.0 0.0 0.0
000020 00 00 00 00 00 00 00 00 00 00 00 00 00 00 00 00
       0.0 0.0 0.0 0.0
000030 00 00 00 00 00 00 00 00 00 00 00 00 00 00 00 00
       0.0 0.0 0.0 0.0
000040 00 00 80 3f 00 00 80 3f 00 00 00 00 00 00 00 00
       1.0 1.0 0.0 0.0
000050 00 00 00 00 00 00 00 00 00 00 00 00 00 00 00 00
       0.0 0.0 0.0 0.0
000060 00 00 00 00 00 00 00 00 00 00 00 00 00 00 00 00
       0.0 0.0 0.0 0.0
000070 00 00 00 00 00 00 00 00 00 00 00 00 00 00 00 00
       0.0 0.0 0.0 0.0
000080 00 00 80 3f 00 00 80 3f 00 00 80 3f 00 00 00 00
       1.0 1.0 1.0 0.0
000090 00 00 00 00 00 00 00 00 00 00 00 00 00 00 00 00
       0.0 0.0 0.0 0.0
0000a0 00 00 00 00 00 00 00 00 00 00 00 00 00 00 00 00
       0.0 0.0 0.0 0.0
0000b0 00 00 00 00 00 00 00 00 00 00 00 00 00 00 00 00
       0.0 0.0 0.0 0.0
0000c0 00 00 80 3f 00 00 80 3f 00 00 80 3f 00 00 80 3f
       1.0 1.0 1.0 1.0
0000d0 00 00 00 00 00 00 00 00 00 00 00 00 00 00 00 00
       0.0 0.0 0.0 0.0
0000e0 00 00 00 00 00 00 00 00 00 00 00 00 00 00 00 00
       0.0 0.0 0.0 0.0
0000f0 00 00 00 00 00 00 00 00 00 00 00 00 00 00 00 00
       0.0 0.0 0.0 0.0
000100 00 00 80 3f 00 00 80 3f 00 00 80 3f 00 00 80 3f
       1.0 1.0 1.0 1.0
000110 00 00 80 3f 00 00 00 00 00 00 00 00 00 00 00 00
       1.0 0.0 0.0 0.0
000120 00 00 00 00 00 00 00 00 00 00 00 00 00 00 00 00
       0.0 0.0 0.0 0.0
000130 00 00 00 00 00 00 00 00 00 00 00 00 00 00 00 00
       0.0 0.0 0.0 0.0
000140 00 00 80 3f 00 00 80 3f 00 00 80 3f 00 00 80 3f
       1.0 1.0 1.0 1.0
000150 00 00 80 3f 00 00 80 3f 00 00 00 00 00 00 00 00
       1.0 1.0 0.0 0.0
000160 00 00 00 00 00 00 00 00 00 00 00 00 00 00 00 00
       0.0 0.0 0.0 0.0
000170 00 00 00 00 00 00 00 00 00 00 00 00 00 00 00 00
       0.0 0.0 0.0 0.0
000180 00 00 80 3f 00 00 80 3f 00 00 80 3f 00 00 80 3f
       1.0 1.0 1.0 1.0
000190 00 00 80 3f 00 00 80 3f 00 00 80 3f 00 00 00 00
       1.0 1.0 1.0 0.0
0001a0 00 00 00 00 00 00 00 00 00 00 00 00 00 00 00 00
       0.0 0.0 0.0 0.0
0001b0 00 00 00 00 00 00 00 00 00 00 00 00 00 00 00 00
       0.0 0.0 0.0 0.0
0001c0 00 00 80 3f 00 00 80 3f 00 00 80 3f 00 00 80 3f
       1.0 1.0 1.0 1.0
0001d0 00 00 80 3f 00 00 80 3f 00 00 80 3f 00 00 80 3f
       1.0 1.0 1.0 1.0
0001e0 00 00 00 00 00 00 00 00 00 00 00 00 00 00 00 00
       0.0 0.0 0.0 0.0
0001f0 00 00 00 00 00 00 00 00 00 00 00 00 00 00 00 00
       0.0 0.0 0.0 0.0
000200 00 00 80 3f 00 00 80 3f 00 00 80 3f 00 00 80 3f
       1.0 1.0 1.0 1.0
000210 00 00 80 3f 00 00 80 3f 00 00 80 3f 00 00 80 3f
       1.0 1.0 1.0 1.0
000220 00 00 80 3f 00 00 00 00 00 00 00 00 00 00 00 00
       1.0 0.0 0.0 0.0
000230 00 00 00 00 00 00 00 00 00 00 00 00 00 00 00 00
       0.0 0.0 0.0 0.0
000240 00 00 80 3f 00 00 80 3f 00 00 80 3f 00 00 80 3f
       1.0 1.0 1.0 1.0
000250 00 00 80 3f 00 00 80 3f 00 00 80 3f 00 00 80 3f
       1.0 1.0 1.0 1.0
000260 00 00 80 3f 00 00 80 3f 00 00 00 00 00 00 00 00
       1.0 1.0 0.0 0.0
000270 00 00 00 00 00 00 00 00 00 00 00 00 00 00 00 00
       0.0 0.0 0.0 0.0
000280 00 00 80 3f 00 00 80 3f 00 00 80 3f 00 00 80 3f
       1.0 1.0 1.0 1.0
000290 00 00 80 3f 00 00 80 3f 00 00 80 3f 00 00 80 3f
       1.0 1.0 1.0 1.0
0002a0 00 00 80 3f 00 00 80 3f 00 00 80 3f 00 00 00 00
       1.0 1.0 1.0 0.0
0002b0 00 00 00 00 00 00 00 00 00 00 00 00 00 00 00 00
       0.0 0.0 0.0 0.0
0002c0 00 00 80 3f 00 00 80 3f 00 00 80 3f 00 00 80 3f
       1.0 1.0 1.0 1.0
0002d0 00 00 80 3f 00 00 80 3f 00 00 80 3f 00 00 80 3f
       1.0 1.0 1.0 1.0
0002e0 00 00 80 3f 00 00 80 3f 00 00 80 3f 00 00 80 3f
       1.0 1.0 1.0 1.0
0002f0 00 00 00 00 00 00 00 00 00 00 00 00 00 00 00 00
       0.0 0.0 0.0 0.0
000300 00 00 80 3f 00 00 80 3f 00 00 80 3f 00 00 80 3f
       1.0 1.0 1.0 1.0
000310 00 00 80 3f 00 00 80 3f 00 00 80 3f 00 00 80 3f
       1.0 1.0 1.0 1.0
000320 00 00 80 3f 00 00 80 3f 00 00 80 3f 00 00 80 3f
       1.0 1.0 1.0 1.0
000330 00 00 80 3f 00 00 00 00 00 00 00 00 00 00 00 00
       1.0 0.0 0.0 0.0
000340 00 00 80 3f 00 00 80 3f 00 00 80 3f 00 00 80 3f
       1.0 1.0 1.0 1.0
000350 00 00 80 3f 00 00 80 3f 00 00 80 3f 00 00 80 3f
       1.0 1.0 1.0 1.0
000360 00 00 80 3f 00 00 80 3f 00 00 80 3f 00 00 80 3f
       1.0 1.0 1.0 1.0
000370 00 00 80 3f 00 00 80 3f 00 00 00 00 00 00 00 00
       1.0 1.0 0.0 0.0
000380 00 00 80 3f 00 00 80 3f 00 00 80 3f 00 00 80 3f
       1.0 1.0 1.0 1.0
000390 00 00 80 3f 00 00 80 3f 00 00 80 3f 00 00 80 3f
       1.0 1.0 1.0 1.0
0003a0 00 00 80 3f 00 00 80 3f 00 00 80 3f 00 00 80 3f
       1.0 1.0 1.0 1.0
0003b0 00 00 80 3f 00 00 80 3f 00 00 80 3f 00 00 00 00
       1.0 1.0 1.0 0.0
0003c0 00 00 80 3f 00 00 80 3f 00 00 80 3f 00 00 80 3f
       1.0 1.0 1.0 1.0
0003d0 00 00 80 3f 00 00 80 3f 00 00 80 3f 00 00 80 3f
       1.0 1.0 1.0 1.0
0003e0 00 00 80 3f 00 00 80 3f 00 00 80 3f 00 00 80 3f
       1.0 1.0 1.0 1.0
0003f0 00 00 80 3f 00 00 80 3f 00 00 80 3f 00 00 80 3f
       1.0 1.0 1.0 1.0

weight f4 [64, 64]
000000 8b 8c 22 3d 6c 86 05 bd 95 17 84 bd 8b f1 12 3c
       0.039684813 -0.032598898 -0.064498104 0.008968721
000010 63 a6 86 bd aa 21 42 bd bb fd d8 3d 8c 92 33 bd
       -0.065747045 -0.047395386 0.1059527 -0.04384093
000020 3f e0 e1 bc 59 79 47 bd 89 a0 36 bd d0 a3 69 38
       -0.02757275 -0.04869971 -0.044586692 5.570409e-05
000030 86 d7 35 bd 45 0c 0d 3d e2 ad f1 bb c3 d7 0a bd
       -0.044394992 0.03443553 -0.007375465 -0.033897173
000040 c2 b5 35 bd 1a 52 61 3d fd e2 9d 3b 35 64 02 3e
       -0.04436279 0.05500994 0.004818319 0.12733538
000050 f5 85 9d bd 86 e1 3e bd a5 e6 c1 3c 40 c1 b3 3d
       -0.07691566 -0.046601795 0.02366955 0.08777094
000060 0b 55 f9 bc 43 9f 89 bc 6f e9 aa 3b e9 86 91 bd
       -0.03043606 -0.016799575 0.0052158157 -0.0710581
000070 b3 e0 98 3c 41 f3 87 3c d4 c4 4e 3a bc c0 79 bc
       0.018661832 0.016595485 0.0007887606 -0.015243705
000080 91 43 6a bc 70 29 93 3d d9 88 bc 3c 14 6e 18 bd
       -0.014298336 0.07185638 0.023014473 -0.037214354
000090 ff 9a d6 bd de ba ae bc 67 a5 fb bc 79 f8 8f bd
       -0.10478782 -0.02132934 -0.030718518 -0.07029814
0000a0 dc 6c 88 3d 1b ef 22 be fa 28 d9 bd fa 96 2e 3d
       0.06661388 -0.15911524 -0.10603519 0.04262445
0000b0 d1 6b 05 be 90 7b 36 3d 67 a5 11 be 1a 06 8f bd
       -0.1302941 0.044551432 -0.14223252 -0.06983586
0000c0 2b e5 b0 bd f4 3c f2 3c 90 37 fb 3d 7d 46 8d 3d
       -0.0863746 0.02957008 0.12266457 0.0689821
0000d0 19 ef 0f be 2e 6b a4 3c b2 7c 25 be 06 06 9e bc
       -0.14056052 0.020070639 -0.16160849 -0.019289982
0000e0 e8 14 23 3c 28 b0 20 3d 7b 18 30 bd 41 fc eb 3d
       0.009953715 0.039230496 -0.042992096 0.11522723
0000f0 4d d8 bb 3b 7c 62 9c 3a f8 54 08 3d 37 fe 04 3e
       0.005732572 0.0011931206 0.033284158 0.129876
000100 e0 7b 29 bd 98 f1 22 be 24 d6 ef bd 34 4a 0d 3e
       -0.041377902 -0.15912473 -0.11710766 0.13797837
000110 d0 c8 08 3d 57 a7 73 3d 64 93 9e 3d c8 a8 86 bd
       0.033394635 0.05948576 0.07742956 -0.06575161
000120 ed b1 0f bc 0a ec 19 be ff c2 89 3a 8d b8 63 3d
       -0.008770448 -0.15031448 0.0010510384 0.055595923
000130 19 f0 ab bd c0 c5 3b be 81 da f9 b9 fb 30 87 3c
       -0.08395404 -0.18337154 -0.0004765578 0.016502848
000140 2d 66 51 3c 81 45 be bd ad b0 0d be 6c c9 51 bd
       0.012780708 -0.092906006 -0.13836928 -0.05121748
000150 2a 80 d7 bd 2a 2f 25 3c 0d 85 5f 3e 91 16 30 bd
       -0.10522492 0.010082046 0.21828099 -0.04299027
000160 a9 7a eb 3d 41 bf 12 3e ce 85 10 bd d7 d6 08 bd
       0.11498005 0.1433077 -0.035283856 -0.033408012
000170 78 e0 57 3d 01 3b a7 ba 14 ec 8a 3d 93 c2 be 3d
       0.052704304 -0.0012758673 0.067833096 0.09314456
000180 48 54 b0 bc 09 28 3d 3d 23 70 0e bd 7c 9b 6f bc
       -0.021524563 0.04618076 -0.03477491 -0.014624473
000190 a8 3a 50 3d 3b 7a 24 bd b6 60 60 3d 6d b1 10 3b
       0.05083719 -0.04015563 0.05477973 0.002207841
0001a0 c4 29 2e bd 29 72 37 bd af 29 81 3c 00 7b bb 3d
       -0.0425203 -0.044786606 0.015766947 0.0915432
0001b0 e1 6f 80 3d c5 07 0d bd f7 9f 2e 3c eb 1e 26 3b
       0.06271339 -0.034431238 0.010658256 0.0025348018
0001c0 95 49 40 bc bc 36 ce bd 06 ea 4c 3e 51 6b d7 bb
       -0.011736293 -0.100690335 0.20011148 -0.0065740724
0001d0 6e 5a 28 3d f3 62 bd 3c 31 f1 30 3d fd d7 fd bd
       0.041101865 0.023118472 0.043198768 -0.12394712
0001e0 5a 0d 35 3d a8 1f b3 bc 04 8d 42 3d ad 24 95 3d
       0.044202186 -0.02186568 0.047497764 0.07282386
0001f0 94 b7 fa 3d da 40 4b bd 84 e0 f1 bd 5f 91 89 3d
       0.12242046 -0.049622394 -0.11810401 0.067171805
000200 55 17 4c bd 46 d5 06 be f2 b6 27 bc 97 29 0f 3e
       -0.04982694 -0.13167295 -0.010236489 0.13980709
000210 60 df a4 bd ef 58 13 be 85 d0 df 3d 63 28 29 bc
       -0.08050418 -0.14389394 0.10928444 -0.01032457
000220 9e 17 d4 bc c9 1f 54 3d c9 e0 27 3d 48 1b 40 bd
       -0.025890168 0.051788125 0.040985856 -0.046901017
000230 02 c6 4d bd 74 09 d5 bd 46 c1 a6 3d 1d 5e 90 3d
       -0.050237663 -0.10402194 0.08142333 0.07049201
000240 72 d1 a5 3d 82 3c 8e 3d 23 ad 41 bd f4 72 86 bd
       0.08096589 0.06945135 -0.047284257 -0.06564894
000250 30 e6 e9 3c a0 92 cf 3d e5 04 21 3e dd 6a 0a 3d
       0.028552145 0.101353884 0.15724523 0.03379332
000260 cf d3 42 3d 70 6a ba 3d f5 4c ba ba e1 04 2a 3d
       0.047565278 0.091023326 -0.0014213609 0.04150856
000270 5a 0c 05 3e 9d d8 26 bd 89 f1 3c 3d 48 c0 4f 3d
       0.12992993 -0.040733922 0.046128783 0.050720483
000280 bc 1a 21 bd 6e bb 8c 3d d2 0f 33 bd 61 94 63 3d
       -0.039332137 0.06871687 -0.04371626 0.055561427
000290 63 35 78 3d ef 24 a6 bb 8e 74 81 3c 45 38 d4 3c
       0.06059779 -0.005070321 0.015802648 0.025905738
0002a0 cc f5 9c bb 13 02 02 3c b5 5c 94 3d 19 cd da 3d
       -0.0047900435 0.007935065 0.07244245 0.106836505
0002b0 8b 7f 4b bd d1 5d 47 bb ef 18 a7 bc 3a e0 86 3d
       -0.04968218 -0.003042091 -0.020397631 0.065857366
0002c0 7f 3e 52 bd de f4 c4 3c 2c 07 ce 3d 50 7e 13 3e
       -0.051329132 0.024042543 0.10059962 0.14403653
0002d0 4b a4 4a 3d b5 01 12 be 16 1f ac 3d 81 86 a2 bd
       0.04947309 -0.14258464 0.08404367 -0.07935811
0002e0 64 88 35 bc 12 5c 26 3d 13 1e 00 3e d5 d6 85 bc
       -0.011079881 0.04061515 0.12511472 -0.016337791
0002f0 c2 74 3e 3c 47 9a 84 bd 55 3f a7 bd c2 53 d5 3c
       0.011624517 -0.064747386 -0.081663765 0.026040915
000300 53 4a ab bc 06 59 41 3e 5d 33 97 3c e8 bb 97 3d
       -0.020909464 0.18881616 0.01845711 0.07408887
000310 30 29 33 bd c3 d0 05 bd f0 ad df bb cd c7 0e bb
       -0.04374045 -0.032669794 -0.006826155 -0.002178657
000320 7a d9 a8 3c 0a 1f a7 3d 03 05 16 3e 64 92 11 3c
       0.020611513 0.08160217 0.1465035 0.008885
000330 62 89 e5 3c fc dc 1b 3d 37 12 6e bc 0b c6 17 be
       0.02801961 0.038052544 -0.01453071 -0.14821641
000340 0d 04 6e bc a4 5d 2a bc 91 d9 93 39 44 10 f0 bc
       -0.014527333 -0.010398302 0.00028200125 -0.029304631
000350 24 47 1a bb 6e a1 98 3c 69 24 72 3d 13 86 65 3c
       -0.0023540938 0.018631663 0.059116755 0.014009017
000360 d2 73 46 bc 70 50 ed bd c3 cd f2 3d d2 cd 51 3c
       -0.012112575 -0.11587608 0.11855652 0.012805419
000370 5d e8 b4 bd 0b 77 14 3d bd 50 83 bd 3a c8 8f bd
       -0.08833382 0.03624634 -0.06411884 -0.07020612
000380 dc 1c e8 3c 46 83 e8 3d a0 ea 14 3e 3c af 90 3d
       0.028334074 0.113531634 0.14542627 0.07064673
000390 a0 3f 52 3d 47 91 0d 3e f5 1a 83 3c 34 de 1f 3b
       0.05133021 0.1382495 0.016004065 0.0024393918
0003a0 f4 1d c5 3d cc cb ad 3d 01 cd d6 bd 78 d3 6b bd
       0.09624854 0.08486137 -0.1048832 -0.05757472
0003b0 a3 93 37 bd 16 27 f7 bd 6e 10 db bc 55 c7 5e 3b
       -0.04481853 -0.12068002 -0.026741233 0.0033993323
0003c0 78 9e b0 3c 4d b8 a5 3d 4b 66 c4 bc 5b a5 36 bd
       0.021559939 0.08091793 -0.023974558 -0.04459129
0003d0 c9 18 b1 3c 5c 9d 82 bb c4 53 58 bc a7 f6 e2 3d
       0.021618264 -0.003986044 -0.013203565 0.110822015
0003e0 40 2d 9d 3c 12 4b a1 bd f7 b6 80 bd a1 ad ce bd
       0.019186616 -0.07875647 -0.06284898 -0.10091711
0003f0 e0 d4 0a be 75 39 78 bd 93 8b d6 3c a7 86 60 3d
       -0.13557768 -0.06060167 0.026189601 0.054815914

bias f4 [64]
000000 91 a9 26 bc e2 01 19 3d 5f 0d 47 3c 4e 4c de bc
       -0.010172264 0.03735531 0.012149184 -0.027135994
000010 52 e7 02 3d ce e4 87 3d 0c 5b 9e 3c 6a e5 b8 bc
       0.031958885 0.06635438 0.019330524 -0.02257033
000020 9c 67 63 bd ad 4b df bd 53 ef 43 3d e6 6c a9 bc
       -0.05551873 -0.10903106 0.04783566 -0.02068181
000030 8a 49 83 bc 05 4e 5b bd 41 a2 6c 3d fa bc 47 3d
       -0.016026277 -0.053541202 0.057771925 0.048764206
000040 99 63 dc 3b 21 ee 33 bd cd bb 40 3a c2 b1 b6 bc
       0.00672574 -0.04392827 0.0007352203 -0.022301558
000050 7a 3f c3 3d f0 87 c7 bd be f6 72 3d 36 63 37 bd
       0.095335916 -0.09742725 0.059317343 -0.04477235
000060 1f 10 eb 3b cb d6 3e 3d 11 5a 64 bc 85 b9 22 bc
       0.0071735526 0.04659156 -0.013937489 -0.009931927
000070 b0 3a 03 3e fa ec cc bc e3 ac 56 3c 85 f7 bc bc
       0.12815356 -0.025015343 0.013102743 -0.023067245
000080 11 51 12 bd 01 dc 23 3c 24 8a a9 3d 00 c2 01 bd
       -0.035721842 0.0100011835 0.08278301 -0.031679153
000090 14 03 9e 3c b5 66 07 3d 4a b9 76 3d 62 00 ca bc
       0.019288577 0.033056933 0.0602353 -0.024658386
0000a0 cd c6 39 3d ec fb 85 bd 21 fb ad 3c 28 2b a2 bc
       0.045355607 -0.06542191 0.021237912 -0.01979597
0000b0 be 0f 8d 3d 8a 00 23 bd e2 97 a1 3b 16 32 de 3c
       0.06887768 -0.039795436 0.004931436 0.027123492
0000c0 56 14 2e 3d e9 c3 74 bd 0e e2 89 3d bb 7b 00 bc
       0.042499863 -0.059757147 0.0673257 -0.007842
0000d0 9f 84 f6 3d e2 ee 8f 3d a0 98 8e bd 3e 9b a3 3d
       0.12037014 0.07027985 -0.06962705 0.079885945
0000e0 85 b7 fc bb 4a 78 dc 3d ad f4 10 3d f4 eb 00 bc
       -0.007712307 0.10765131 0.03538959 -0.007868756
0000f0 92 de ca 3d f5 bd 85 3d c9 d2 0d bb a1 af 4c 3c
       0.09905733 0.06530372 -0.002164053 0.012493045

weight f4 [64, 64]
000000 6f 41 82 3d aa c7 17 3d ba 81 fb 3d 54 57 04 be
       0.06360137 0.03705565 0.12280603 -0.12923938
000010 4c 31 30 3d cb 50 82 bd 48 e3 96 bd ae 72 ea 3b
       0.043015763 -0.06363066 -0.07367569 0.007154784
000020 34 be 47 bd 44 85 5a 3d aa c7 05 bd 6b d3 16 bd
       -0.048765376 0.05334975 -0.032661118 -0.036822718
000030 3b ee 06 be 61 28 a3 be 74 67 15 3e a2 fc 39 3d
       -0.13176815 -0.31866744 0.14590245 0.045406945
000040 07 4e 09 bd c2 4e a5 3d bb ce b1 3d 02 06 0b be
       -0.03352168 0.080716625 0.08682009 -0.1357651
000050 76 05 d7 3a d5 1c 8d bd d9 ec b6 bd ad 6d 23 be
       0.0016404826 -0.06890265 -0.08931894 -0.15959807
000060 aa b2 f0 bd f3 53 c7 bc 53 04 2e bd 28 4d fd bd
       -0.117528275 -0.024332022 -0.042484593 -0.12368232
000070 dc 6b f3 3d 2e a2 51 3e 90 0e d2 3d 20 16 b6 bc
       0.11885807 0.20472023 0.10256684 -0.022227347
000080 fc 4c be bd 26 83 ea bd 10 81 40 bd 4c 40 09 3e
       -0.09292027 -0.11450796 -0.046998084 0.13403434
000090 b7 19 e0 3d 89 1a e5 bc bb f1 2d 3e 99 63 0b bd
       0.10942405 -0.027966755 0.16986744 -0.03403053
0000a0 ab 63 8e 3e 69 4d 8d bc 39 fe c5 bd 04 65 06 3d
       0.27810416 -0.017248826 -0.0966763 0.03281118
0000b0 86 62 aa bb 89 cd dd 3d 3f 2c bc 3d c9 65 29 3e
       -0.005199733 0.10830218 0.09188127 0.16542734
0000c0 16 28 2b be b6 64 d8 bd 4a d1 e1 bd bb cb 3a be
       -0.1671451 -0.10566084 -0.11026247 -0.1824178
0000d0 f0 0c f0 bc 42 ea 73 3d d5 48 10 be 10 ec d1 bd
       -0.029303044 0.059549578 -0.14090283 -0.102501035
0000e0 80 c6 22 be 5f 80 42 be 5d a2 1c 3e b2 e4 36 bd
       -0.15896034 -0.18994282 0.15296312 -0.044651695
0000f0 0f e3 36 3d 0f ea 62 3d 5a 5e e9 bd fe 2c 11 be
       0.044650134 0.055398997 -0.11394949 -0.1417732
000100 f9 44 8d 3d ea fd 2d 3e e1 5b 0a be 71 b4 66 bd
       0.06897921 0.16991392 -0.13511612 -0.056324426
000110 92 1b da bd 38 88 53 bd e6 4b 7a 3e 2f aa d5 bd
       -0.1064979 -0.05164358 0.24443015 -0.104328506
000120 11 36 37 3e 4c cc f7 3d 8e dc 46 3e 08 a0 76 bd
       0.17891718 0.120995134 0.19420072 -0.06021121
000130 cb 13 69 3e 70 f6 6a bd bb 60 48 3d fb 23 46 3c
       0.22761457 -0.057363927 0.048920374 0.012093539
000140 bc a3 fb bb 26 0a 38 3d 90 b7 f3 3d cd fd 05 be
       -0.007679431 0.044931553 0.11900246 -0.13085099
000150 2a 6a 66 3d 13 e1 b3 bd 19 a3 e3 bd 7a 2d 35 3d
       0.05625359 -0.08783164 -0.11115093 0.044232823
000160 4b a2 18 3e d9 5d 74 3d 7f 55 28 3e b0 57 78 bd
       0.1490566 0.059659813 0.16438864 -0.0606305
000170 e0 7a 85 3e d3 74 fe bd 91 be 5d bd f8 0f 5f 3d
       0.2607031 -0.12424626 -0.054136816 0.05445859
000180 3d 49 1b be 8f 44 3c be ca 39 92 bc 03 cf 98 3d
       -0.15164657 -0.18385528 -0.017849822 0.07461359
000190 b3 cc 56 3e dc 3b 4f be 2c 74 8d be 1f 74 06 3e
       0.20976524 -0.20237678 -0.27627695 0.13130234
0001a0 d9 99 81 bd 5d 0f d5 bd ea 2f 09 3e 48 a3 0c 3e
       -0.06328172 -0.10403321 0.13397184 0.13734162
0001b0 96 f8 69 3d 01 06 b8 bd fd f3 8e be 04 74 44 be
       0.057121836 -0.0898552 -0.27920523 -0.19184881
0001c0 14 9e 10 3e 44 7f 02 be 48 7a c7 bc 3d 7e 61 3d
       0.14122802 -0.1274386 -0.0243503 0.05505203
0001d0 f2 f7 ba 3d 51 05 f4 bd 7d a6 02 be 49 e1 40 be
       0.09129323 -0.119150765 -0.12758823 -0.1883594
0001e0 68 f9 1a bd 44 b8 91 bc c1 20 30 3d ef 08 5a 3e
       -0.03783551 -0.01778806 0.042999987 0.2129247
0001f0 75 5d ed 3d 92 38 db 3d d3 af 40 bd 25 cf 42 3e
       0.11590091 0.10704149 -0.04704268 0.19024332
000200 a6 dd da 3d 6a 4f 3c 3d 4c 73 df 3d 15 c1 d0 bd
       0.10686807 0.045974173 0.10910663 -0.101930775
000210 fe 85 1d 3e 46 77 32 3d be 75 00 3e 01 61 be bc
       0.15383145 0.04357078 0.12544915 -0.023239614
000220 87 5a f3 3d 65 bd c8 bd e5 36 04 3e 7b d6 06 bd
       0.11882501 -0.09801749 0.12911566 -0.03291939
000230 dc be bc 3d 44 26 97 3d 32 c5 e7 bd 8d f9 44 3e
       0.09216091 0.073803455 -0.11316909 0.19235821
000240 ad 80 f5 bd b0 30 b7 3d 91 25 ff 3c 20 bd 02 3e
       -0.119874336 0.08944833 0.031145843 0.12767458
000250 2d b5 64 bd 7d a3 f6 bb ff 1a 32 3d 91 92 06 3e
       -0.055836845 -0.0075268135 0.043482777 0.13141848
000260 08 6b 31 3e 5a e2 ec 3c 89 9a f7 bc f3 cd c8 bc
       0.17325985 0.028916527 -0.030225055 -0.024512267
000270 e7 01 e8 3d 83 38 d9 bd 88 51 a6 3d f1 04 85 3d
       0.11328488 -0.10606482 0.081210196 0.06495083
000280 91 6d 24 be 46 64 2a 3d 22 3c e7 bd 98 d8 cd 3d
       -0.16057421 0.041599534 -0.11290766 0.100510776
000290 fc 86 9c 3d 68 32 1f be 19 bf c4 bd 0f 1d 0a be
       0.07642934 -0.15546572 -0.096067615 -0.13487647
0002a0 78 6a 00 be 02 3c 0e bc d8 a4 54 3d 37 ea 4a be
       -0.12540615 -0.008681299 0.05191502 -0.19815908
0002b0 02 79 e1 bc 57 c5 f4 bd b6 be 55 be 63 92 15 be
       -0.027523521 -0.11951702 -0.20873532 -0.14606623
0002c0 48 38 f4 3d 79 4d e3 bc 90 36 2c 3e f4 75 57 3c
       0.11924797 -0.027746903 0.16817689 0.013150681
0002d0 fb 6a 6f bd e7 8b a9 bc fd 2b 9b 3c 94 e8 29 be
       -0.058451634 -0.020696593 0.018941874 -0.16592628
0002e0 49 f5 33 bc 2d a3 27 3e 59 d7 60 3d 64 ad 3b 3e
       -0.0109837735 0.1637084 0.05489287 0.18327862
0002f0 09 64 2c be fe 54 ae bd b5 0c 5e bd 66 8f 06 3e
       -0.16835035 -0.08512305 -0.054211337 0.1314064
000300 85 27 b9 bd b6 db 7f 3d dd 89 3e 3e e0 df 1a bd
       -0.09040741 0.062465392 0.18607278 -0.03781116
000310 b9 ce 7f be 84 8a 30 be 4a 4f 7c bc b5 72 eb 3c
       -0.24981202 -0.1724034 -0.015399763 0.02874122
000320 d6 f2 5f 3d aa d8 f5 3d bc 00 5f 3e a7 9b b9 bd
       0.054674946 0.12004216 0.21777624 -0.090628915
000330 ed e1 88 3e 42 63 08 bd b0 d5 0d bc d0 eb 5e 3c
       0.26734868 -0.033297785 -0.008656904 0.013606027
000340 21 55 13 3e 97 8a 13 3e 94 99 4b 3e a0 7a 14 3d
       0.14387943 0.14408337 0.19882804 0.036249757
000350 77 69 b0 3b 6e b5 3c 3d c9 34 84 3e 70 2b 97 3d
       0.005383666 0.046071462 0.25821522 0.07381332
000360 ad ff 24 be b0 40 29 3e b5 92 5d be 95 85 c5 3a
       -0.16113158 0.16528583 -0.21637996 0.0015069718
000370 53 a5 93 3d 6f c9 40 3e ab ba 2e bd a2 fc 99 3d
       0.072092675 0.18826841 -0.04265849 0.07518889
000380 3d 28 35 bd e0 58 85 bd ca 6d dd 3d cd 1e fa 3c
       -0.044227827 -0.06511092 0.10811956 0.030532265
000390 3b 22 ef bd 80 55 8c bc f7 e5 37 be 01 c1 d1 bc
       -0.11676451 -0.017130613 -0.17958818 -0.025604727
0003a0 aa d2 98 3d f7 b4 cf bc 07 04 26 3e 27 60 07 3e
       0.07462056 -0.025354845 0.16212474 0.13220273
0003b0 28 19 07 be 85 ab 6d 3d 54 2c 33 be 22 9b 43 bd
       -0.1319319 0.058024902 -0.17497379 -0.047755368
0003c0 70 95 bc bb b6 c6 b7 bd 85 cb 5a 3e 52 46 b9 3d
       -0.005755119 -0.08973448 0.21366699 0.09046616
0003d0 a6 c5 ab bb da f9 a8 3c 8b 08 00 be 29 e8 f5 3d
       -0.0052420674 0.020626951 -0.12503259 0.12007172
0003e0 c1 78 36 bd 90 da 81 3e 38 63 aa 3d b9 35 11 be
       -0.044548754 0.25362062 0.08319706 -0.1418065
0003f0 62 86 d3 3d 9c c8 80 3d 69 aa 9d bd a3 fd 0f 3e
       0.10328366 0.06288263 -0.07698519 0.14061598

weight f4 [64, 64]
000000 d4 7a ab ba da a1 ec 3d b2 69 97 bc a6 c0 7e 3d
       -0.001308287 0.11554308 -0.018483017 0.062195443
000010 fd 91 a9 bd fe 52 03 be aa 67 3d 3e a3 e1 17 3d
       -0.08279798 -0.12824628 0.18496576 0.03708042
000020 d2 c5 85 bd 9d 6c b9 3d 21 38 e0 3d a3 ab 0f 3e
       -0.06531872 0.090539195 0.10948206 0.14030318
000030 f4 d2 80 3e 04 e7 83 bd a8 23 35 3e 1d 7e 49 3d
       0.25160944 -0.06440547 0.17689383 0.049192537
000040 14 26 04 3e 7b 35 58 bd ad b3 52 3d 65 1c 26 be
       0.1290515 -0.052785378 0.051440883 -0.16221769
000050 21 c0 b4 3d 44 d1 e0 3c 52 34 18 3e 19 85 d4 bd
       0.08825708 0.027443536 0.14863709 -0.10376949
000060 c2 18 8c bd d3 d8 46 3e 8e 16 0a be ce ad 89 bd
       -0.0684066 0.1941865 -0.13485166 -0.06722604
000070 6b b5 1a 3e 30 5a 9e be e8 ce 1b be d7 82 50 bc
       0.15108268 -0.30928183 -0.15215647 -0.012726507
000080 3f 10 e0 3c 05 f1 28 be 88 ef b1 3d b8 06 f0 3d
       0.027351497 -0.16498192 0.08688265 0.117200315
000090 56 a3 3d 3e a7 a9 47 3c 28 62 ce bd a6 63 c0 3c
       0.18519339 0.012186444 -0.100773156 0.023485016
0000a0 7f f7 c7 3c 7b 92 31 3c 7e ea 33 3d 87 08 40 3d
       0.024410008 0.010838146 0.0439248 0.046883132
0000b0 ff b6 f3 3d be 09 0b bd 41 ab ef bd c6 b6 aa bd
       0.11900138 -0.033944838 -0.11702586 -0.083356425
0000c0 83 3e 81 bd cd 28 9e bd ac 5f 72 bd d9 06 b0 bb
       -0.06310751 -0.07722626 -0.05917327 -0.00537191
0000d0 e9 a1 ed bb 5d 65 db bd 5c dd fe bd f8 94 90 3d
       -0.007251967 -0.10712693 -0.12444565 0.070596635
0000e0 5b c1 da bd 36 01 f2 3d 94 2c 1c bd 80 5f fb 3c
       -0.10681411 0.11816637 -0.03812845 0.030685186
0000f0 60 83 00 3e f5 ef b0 3b 4d 4b 07 3e 50 05 1a 3c
       0.12550116 0.005399699 0.13212319 0.009400681
000100 0f 8d c9 bd f2 59 ab 3d 5e cf ef 3d e6 a1 82 bd
       -0.09841358 0.08366765 0.11709474 -0.06378536
000110 1d 32 63 3e ef 2a ad 3c b4 a8 6b 3e e1 ed 0d 3e
       0.22187085 0.021138636 0.23013574 0.13860275
000120 c4 7a 78 be 43 f3 8d be 0c 7f 3e be b0 d0 8d be
       -0.24265581 -0.27724656 -0.18603152 -0.27698278
000130 eb b2 55 bc 6f e2 1a 3c 1b c1 98 bc f7 ba 9a 3d
       -0.013043146 0.0094534 -0.018646767 0.07555192
000140 58 5a 46 3e 4a 9e 10 be 5b 52 d3 3b 38 71 92 3d
       0.19370401 -0.14122882 0.0064490265 0.07150501
000150 ea f0 8d bd 85 75 35 be 9d 3a 27 be 26 17 42 3d
       -0.06930716 -0.17720611 -0.16330953 0.047385357
000160 84 56 9d 3c 2f 8a f2 bd 31 87 22 3e 73 81 4e be
       0.019206293 -0.11842763 0.15871884 -0.20166568
000170 76 b7 44 bc d1 67 42 bd df 90 0b be 84 82 3b be
       -0.012006631 -0.04746229 -0.13629483 -0.18311507
000180 59 57 dd 3c 3c e5 38 bc dc 3a 13 be 39 d6 58 bd
       0.02701919 -0.0112851225 -0.14377922 -0.052938674
000190 70 e2 19 3d 2a 5c cc bc 43 55 a5 bd 2f d8 ad 3b
       0.037569463 -0.024946291 -0.08072903 0.005305312
0001a0 83 99 10 be 4d a4 13 3e 97 32 52 3d b9 a3 9f be
       -0.1412106 0.14418145 0.051317777 -0.31179598
0001b0 bd 5d 86 bb 8e b7 56 3e aa f7 25 be cb 8c 4f 3d
       -0.00410053 0.20968458 -0.16207758 0.05067138
0001c0 03 73 71 3e c5 d7 e0 3d c9 4d 86 3c 57 e2 af bd
       0.2357903 0.10978655 0.016394513 -0.08588093
0001d0 d3 b1 97 3d 72 30 4e 3e f7 8c 0e be 10 2b b6 3d
       0.07406964 0.20135668 -0.13920961 0.08894932
0001e0 d6 7c 65 3e fb 3e 07 3e 36 92 4c bd 2b 75 d2 3d
       0.22410902 0.13207619 -0.049944125 0.10276254
0001f0 e7 71 0a be 90 0d 0e 3e f9 49 ea bd d2 42 ab 3d
       -0.13520013 0.13872361 -0.114398904 0.08362354
000200 d5 15 9d bd 71 a7 e7 3d 3f 0e 03 be 6f de 51 3d
       -0.0767018 0.11311234 -0.12798403 0.05123752
000210 e3 75 11 bd 06 28 b1 3d 12 91 ce 3d 2d a8 c0 bd
       -0.035512816 0.08650212 0.10086264 -0.09407077
000220 ef bc cc bd fa c7 ce bd 3a c2 0b 3e 35 97 09 bc
       -0.09996974 -0.10096736 0.1364831 -0.008397867
000230 f9 a9 70 be 16 b8 ec bd 8d 98 88 bd 87 d4 9a 3d
       -0.2350234 -0.11558549 -0.06669722 0.075600676
000240 69 1e 38 3c 01 ad 2c be 30 60 dd ba 0c ef db b9
       0.011237719 -0.16862871 -0.0016889628 -0.0004194904
000250 8e 37 75 3d 07 54 03 3d 4a dc 4c be aa 8d 76 3c
       0.059867434 0.032062557 -0.20005909 0.015048424
000260 f0 ab 5e 3e d5 df b8 bd 13 79 1c 3e 6b 46 01 bd
       0.21745276 -0.090270676 0.15280561 -0.031561296
000270 f8 db db bd 68 8c c8 3d 00 3c 60 3b 03 2e 99 bb
       -0.10735315 0.09792405 0.003421545 -0.0046746745
000280 5a 21 e5 bd f9 73 23 3e 5e c3 cb 3d f2 9d 39 3d
       -0.11188002 0.15962209 0.09949373 0.045316644
000290 e8 33 b6 3d 9e 94 ea bd 1d 6c b1 bb 10 79 9a 3d
       0.08896619 -0.11454128 -0.0054144994 0.07542622
0002a0 26 bc 23 bd c2 8d d7 3b 5f f4 ce 3c c6 6a 21 3d
       -0.039974354 0.006578178 0.02526301 0.039408468
0002b0 ae b9 00 be fe a3 8d 3d f7 c6 93 bd 70 2e e1 3c
       -0.12570831 0.06916045 -0.07215684 0.027487963
0002c0 1b d9 3d be 01 4c 1d 3e 8e c2 ad 3d e0 94 e2 bd
       -0.1853985 0.15361024 0.08484374 -0.11063552
0002d0 19 f8 52 bd 3e 42 0c 3e 12 fb 1f 3e d3 e5 b9 3d
       -0.051506136 0.13697144 0.1562312 0.090770386
0002e0 d9 80 83 3d ad 8c 09 bb 57 42 9e 3c b1 5a 08 be
       0.0642106 -0.002098839 0.019318743 -0.13315846
0002f0 b3 a3 7e 3d 70 d3 a7 3d a8 ab 41 bd ff e1 4a 3e
       0.062167834 0.081946254 -0.047282845 0.19812773
000300 a9 c9 e7 3d ba f0 87 3d 2c e4 0b 3d ff 01 0a 3d
       0.113177605 0.06637712 0.03415315 0.03369331
000310 a4 86 5c 3e 57 1a 60 bd 2e f7 d0 bd 57 63 24 3e
       0.21535736 -0.05471262 -0.10203396 0.1605352
000320 aa 23 e7 3d cc 00 d9 3d 2b d5 2d be 63 a4 bc bd
       0.11286099 0.10595855 -0.16975848 -0.09211042
000330 1d 82 79 3c 53 09 5a 3d c9 1c a1 bd 76 b4 89 3d
       0.015228775 0.05323155 -0.078668185 0.06723873
000340 4a ca 15 3d d5 0b fe bd 7d 21 9e bd 94 f9 34 be
       0.03656987 -0.124046005 -0.07721231 -0.17673331
000350 b3 ed 2e bd f6 da 28 be e2 b7 eb bd 5f a4 f6 bd
       -0.042707156 -0.16489777 -0.11509682 -0.1204307
000360 ce e9 b8 3c 10 ad 24 bc 0e 9e c2 bd 34 02 2d 3e
       0.022572424 -0.010051027 -0.09502803 0.16895372
000370 a7 27 eb bc f6 32 2e be 9d 65 e9 bd 2c 7a 2c 3e
       -0.028705431 -0.17011628 -0.11396334 0.1684348
000380 5d 90 39 be 78 ca 13 3e 7a 00 74 be b8 bc 01 bb
       -0.18121476 0.14432704 -0.23828307 -0.0019796323
000390 6c 81 04 3e ed 1e 03 bd b9 d9 21 3e 47 19 17 be
       0.12939996 -0.032011915 0.15805711 -0.14755736
0003a0 16 b8 04 be 98 e0 7a 3e 54 25 d0 3b ec 9d b7 bd
       -0.12960848 0.24499738 0.006352106 -0.08965668
0003b0 91 7b 09 3e 3d cb 19 3d 8c 9c 5f be 64 15 5d be
       0.13426043 0.03754734 -0.21837062 -0.21590191
0003c0 27 6f b3 3d 12 1d 49 3e a0 38 9d bd 59 82 f6 3d
       0.08761435 0.19639996 -0.07676816 0.120365806
0003d0 6f e9 a3 bc e8 34 c2 bd c1 c9 b2 3d be bf c6 bc
       -0.02000877 -0.09482747 0.08729888 -0.024261352
0003e0 3d 6d 91 bd 3b fa 17 bb 9d 85 40 bc 85 71 e2 3c
       -0.07100914 -0.002318992 -0.011750606 0.027642021
0003f0 f7 39 b7 bd 08 80 94 3d 30 99 16 3a b0 1b bd 3d
       -0.08946603 0.072509825 0.00057448726 0.092337966

weight f4 [64, 64]
000000 d0 c7 c8 bd 11 24 06 be 4d be 38 3d b0 1b a7 3d
       -0.09803736 -0.13099696 0.04510336 0.08159578
000010 58 c7 d7 3c f6 6f 06 be 0e d3 78 3c 97 20 29 bd
       0.026340172 -0.13128647 0.015187038 -0.041290846
000020 8b d5 ba bc 6a 4a 4e 3d 46 01 06 3d c9 fc a6 bc
       -0.022806903 0.050363936 0.03271606 -0.02038421
000030 5a b3 39 3c e5 c4 3a bd a2 55 63 bd e6 66 85 bd
       0.011334265 -0.04559793 -0.055501588 -0.06513767
000040 a6 81 24 bd e2 24 98 bd e6 48 a5 bd b3 17 42 3d
       -0.040162705 -0.0742891 -0.08070545 0.047385883
000050 db 93 96 bd a5 56 e6 bd 9d ab a5 3d 24 96 e0 bd
       -0.0735242 -0.11246995 0.08089373 -0.10966137
000060 ba bf eb bb c9 db 63 bd 34 ba ca 3d a7 1c 70 3d
       -0.0071944864 -0.055629525 0.09898797 0.058621075
000070 95 a4 c2 bc ca a3 63 bd 6a bb bf 3d db 36 71 bd
       -0.02376012 -0.055576123 0.09361918 -0.058890205
000080 bb e8 4e 3c 16 88 aa bd 5f 1a e2 bc f6 88 2b bb
       0.012628729 -0.083267376 -0.027600465 -0.0026174164
000090 6e 20 77 bc 43 f2 a8 3d 7f 7f 5a bd 87 25 f9 3d
       -0.015083415 0.08249333 -0.053344246 0.12165361
0000a0 30 e9 73 3d 0b 08 ba 3d 22 20 22 bd 26 52 65 3c
       0.059548557 0.09083565 -0.039581425 0.0139966365
0000b0 39 27 ae bd 52 cd a2 3d 8d 8f a4 bb 8f 5b f3 3d
       -0.08503575 0.07949318 -0.0050219954 0.11882698
0000c0 2e 2f 87 3d 24 e8 90 3c 92 59 51 3d 8b ec d7 3a
       0.06600796 0.017688818 0.05111081 0.0016473694
0000d0 c6 87 f2 3d 80 f6 a9 bd 46 00 1d bd 52 e2 ff 3c
       0.11842303 -0.08298969 -0.03833034 0.031235848
0000e0 a9 64 ef 3d 88 d6 02 3e 31 3b 59 bb 40 dc f4 3d
       0.11689121 0.1277715 -0.0033146853 0.11956072
0000f0 63 73 94 bc 02 78 ec bc 63 38 db 3d 69 40 a6 3c
       -0.018121427 -0.028865818 0.10704114 0.020294385
000100 ff 0c d9 bd 7a eb c5 3c 5a ab 08 3d e7 98 38 bd
       -0.10598182 0.024160136 0.03336654 -0.045067694
000110 f1 2d 87 3c b7 9d d1 bd fd 5d 4a bd 3d b0 e5 3c
       0.016501399 -0.1023516 -0.04940604 0.028038139
000120 ab da 08 bd a5 cf 2f 3e eb fe b1 bd f1 bb 9c bd
       -0.033411663 0.17169054 -0.086912 -0.076530345
000130 ca 67 a2 3d fb fe 1c bd 7a ab 2b 3e 48 e7 5e be
       0.079299524 -0.038329106 0.16764632 -0.21767914
000140 64 71 01 be 47 27 e3 bd 1b 96 97 3d ea 66 6e bd
       -0.12640911 -0.11091476 0.07401677 -0.058203615
000150 5f ab 94 3d a8 4e 98 bd 83 35 b8 bd ad 03 bd bd
       0.07259249 -0.074368775 -0.089945816 -0.09229217
000160 08 7d 8a 3c 1c ff e9 bd 5d 4a 7d 3b d6 a7 c5 3d
       0.016905323 -0.114256114 0.003864906 0.09651153
000170 32 c1 51 3d 6c c9 82 3d 2a 21 23 3e 7d 10 b4 3d
       0.051209636 0.063860744 0.1593062 0.087922074
000180 40 49 0c 3e bd 3e f5 3c 43 c4 17 3d cb c5 86 bd
       0.13699818 0.029937143 0.037052404 -0.06580695
000190 f7 4e de 3d 0f f9 c4 3d 15 ef 06 3d 39 8e de 3d
       0.10854905 0.09617817 0.03294285 0.108669706
0001a0 a6 65 04 3e 4c 1d d0 bc ac 40 39 be c8 af 57 3b
       0.12929401 -0.025404595 -0.18091077 0.003291117
0001b0 06 83 0c bd 21 34 77 bc c7 f1 5c 3d 5a a5 2d bc
       -0.03430464 -0.015088112 0.053941514 -0.010598505
0001c0 17 37 85 bd 17 94 bc 3d 1c a4 77 38 ac e2 56 3d
       -0.06504648 0.092079334 5.9042228e-05 0.052462265
0001d0 07 f4 87 ba a9 ac 4c 3d cf 41 f0 3b 4f 17 3f bd
       -0.0010372408 0.04996935 0.0073320637 -0.04665309
0001e0 c7 dc 88 bd d9 ef d3 3b 4b f8 cb bd f9 0a 28 bd
       -0.06682735 0.006467801 -0.099594675 -0.04102609
0001f0 74 db 33 bc 7d fb 07 bd 8c 83 4a bd 8d 49 98 3d
       -0.010977615 -0.033198822 -0.04944186 0.07435904
000200 de a8 fd bd fe 3a 58 3d bc 35 4f bd ed 8d 4f bd
       -0.123857245 0.052790634 -0.050588354 -0.05067246
000210 ed 69 22 3c cc 22 4b 3c 33 61 64 bc be ad 93 3d
       0.00991295 0.012398433 -0.01393919 0.07210873
000220 05 a3 21 bc d3 87 36 3d 72 9b 66 bd 29 3a 17 be
       -0.009865527 0.044563126 -0.056300588 -0.1476828
000230 41 05 1f bd 70 b2 e3 3b c7 1e a9 3c a5 40 a6 bd
       -0.03882337 0.0069487616 0.020644559 -0.08117799
000240 bd 04 93 3c 37 9e 04 be 7f f2 1b 3d bd 4e 58 3c
       0.017946595 -0.12950979 0.03807306 0.013202366
000250 2d 68 81 bd 51 cb b2 3d 6b bd be bd d9 0a 10 bc
       -0.06318698 0.08730186 -0.09313472 -0.008791649
000260 2f d8 cc 3d 78 97 37 bd a8 12 80 bd 3a 49 8b bd
       0.10002171 -0.044822186 -0.062535584 -0.06801076
000270 14 a5 81 bd 42 d3 1e bd 7a e8 9b 3d 2b 15 1b 3e
       -0.06330314 -0.03877569 0.07612701 0.15144794
000280 6f ac 2f 3e ac 78 01 be ef 38 5b 3d f3 01 cc bd
       0.17155622 -0.12643689 0.053521093 -0.09961309
000290 44 a7 ae 3d 38 e1 04 3c e7 e1 b3 3d 20 02 80 bd
       0.08527997 0.008110337 0.08783322 -0.06250405
0002a0 33 0e 92 3c ef 6d a3 bd 61 ae 75 3d b6 30 a7 3d
       0.017829036 -0.079799525 0.059980754 0.08163588
0002b0 f8 4e 00 3d a8 44 6e bd a2 09 6b bd 68 4a 78 3d
       0.03132531 -0.058170944 -0.057382233 0.060617834
0002c0 fd 80 32 3d 80 c9 60 bc 5b 57 0d 3e 5d 94 34 bc
       0.043580044 -0.013719916 0.13802855 -0.011021701
0002d0 07 8d 07 3d ac 46 17 3e 1b b2 8e 3d 2a 1e 88 3d
       0.03309348 0.14773053 0.06967565 0.06646378
0002e0 b1 e7 2d 3e 4a ed f8 bd 86 01 7d 3c 74 34 f0 3d
       0.16982915 -0.12154634 0.015442258 0.11728755
0002f0 14 67 0e 3d 7a 33 a3 3d 0a 1d e9 3d 1b f4 8b bb
       0.03476627 0.07968803 0.11382492 -0.004271043
000300 d8 c1 22 3e c7 d3 48 3c 35 54 5a 3d 7b 23 09 be
       0.15894258 0.012257523 0.053302962 -0.13392441
000310 f3 85 0a be 3c ed a6 3c d3 41 7e bd b3 5a 3a 3e
       -0.1352766 0.020376794 -0.062074494 0.18198662
000320 e1 50 11 bc a0 09 87 3d 9c 12 89 3d 15 fd fb 3d
       -0.008869381 0.06593633 0.066930026 0.12304131
000330 39 39 a1 bd 5a 5b 42 3d 04 ce 80 3d 62 ab c6 3d
       -0.078722425 0.0474504 0.06289294 0.097006574
000340 a8 f6 3c bd ac 95 b7 bb 89 80 95 3d 9e f5 2a 3d
       -0.046133667 -0.005602559 0.07299907 0.041738145
000350 57 3f 75 3c 4e 8b 0d 3e c3 9e 0e 3b 00 24 84 3d
       0.014968715 0.13822672 0.002176211 0.06452179
000360 bb 64 af 3c 4b 4b 33 bd 8f 2f 78 3b 8b e2 16 3d
       0.021410337 -0.043772977 0.0037870144 0.036837142
000370 96 59 d5 bd 2e 39 1c 3e a6 39 34 bd 83 40 01 3e
       -0.10417478 0.15256187 -0.04400029 0.12622266
000380 6f 47 bd bd 82 e7 03 3e 46 1e 41 bd 07 9a 23 bb
       -0.092421405 0.12881282 -0.04714801 -0.0024963634
000390 0c 45 c7 bd 03 68 86 3c e1 b9 56 3d 89 45 43 bc
       -0.097299665 0.016407019 0.05242336 -0.011918434
0003a0 85 7d 95 bd 40 c2 d9 bd 05 01 8f bb 2f 98 04 bd
       -0.072993316 -0.10632753 -0.004364135 -0.032371696
0003b0 17 ce e2 bc b9 4d f0 bd 76 b3 f0 bd 83 bd b3 bc
       -0.027686162 -0.117335744 -0.117529795 -0.021940952
0003c0 de 54 cf bd 30 1f a1 3d 3f 2b 3b bd e5 f8 02 3e
       -0.10123609 0.07867277 -0.04569554 0.12790258
0003d0 97 20 f1 bd 9b 9e e9 bc e2 c7 ab 3d ed 4e 55 3d
       -0.11773794 -0.028518012 0.08387734 0.052077223
0003e0 5e 2b 45 bc 9f e2 1c 3e fa 3b c4 bc f7 f3 57 3d
       -0.012034265 0.15320824 -0.02395438 0.052722897
0003f0 4e 0b 87 bd 08 fe 3e bd 31 4c 11 bd 39 ca 53 bd
       -0.06593953 -0.04662898 -0.035473052 -0.051706526
