calculator/models/model_add2_2024-07-28-08-25.pth (torch, 927586 bytes, 60 tensors)

weight f4 [28, 64]
0	0x3e0a1914	0.13486129
1	0xbe4bd072	-0.19903734
2	0xbed2fac7	-0.41206953
3	0xbf15d332	-0.58525383
4	0x3f6bb49d	0.9207247
5	0xbdfc63ad	-0.12323699
6	0x3f869c08	1.0516367
7	0x3e20b5fc	0.15694422
8	0x3ec381e3	0.38185033
9	0x3f846da3	1.0345958
10	0xbfbbdfe8	-1.4677706
11	0xbec69eb1	-0.38792947
12	0xbd26c985	-0.040719528
13	0xbeed4428	-0.46341062
14	0xbf6d69f1	-0.9273978
15	0x3fc88a5b	1.5667223
16	0x3fd313ce	1.6490419
17	0x3d1cf9e5	0.038324255
18	0x3ed5bbf5	0.41744962
19	0x3f988500	1.1915588
20	0xbfff4a00	-1.9944458
21	0x3f180553	0.59383124
22	0x3fc54cad	1.5414025
23	0x3eff75aa	0.49894458
24	0xbd476c81	-0.04868746
25	0xbfac88fe	-1.3479307
26	0xbfb77603	-1.4332889
27	0xbf22d5b8	-0.6360736
28	0x3eb691ea	0.356582
29	0xbf461bd1	-0.77386194
30	0x3fd61c5f	1.6727408
31	0x401c3ea9	2.4413245
32	0xbf6bff1a	-0.9218613
33	0xbf34d129	-0.70631653
34	0x3f9bb29b	1.2163881
35	0x3edd5ef1	0.43236497
36	0xbd80b0f9	-0.06283755
37	0x3fb8d208	1.4439096
38	0xbf6a4ab8	-0.9152026
39	0xbebef6e5	-0.3729774
40	0xbf130499	-0.5742889
41	0xbf44e216	-0.7690748
42	0x3f1c8202	0.61135876
43	0xbfbbd4e0	-1.4674339
44	0xbfa158fc	-1.2605281
45	0x3f03a74b	0.51427144
46	0xbf08d1c0	-0.53445053
47	0xbf6bf8db	-0.921766
48	0x3fb38e6e	1.4027841
49	0xbf4fb6ab	-0.81138104
50	0x3f9686dd	1.1759907
51	0xbeace22f	-0.33766314
52	0xbfaf133c	-1.3677745
53	0x3ff8a139	1.9424201
54	0x403c448b	2.9416835
55	0xbfdbfbca	-1.7186215
56	0x3fce8643	1.6134723
57	0xbfdad1ab	-1.7095236
58	0x3f14cb31	0.58122545
59	0xbecd8e22	-0.401475
60	0x3f8a89d4	1.0823312
61	0x3faae34f	1.3350619
62	0x3fd77b23	1.6834453
63	0xbf365b0c	-0.71232677
64	0xbf73ac47	-0.9518475
65	0x3f0ae0ad	0.5424908
66	0x3db29afa	0.08720966
67	0x3e546e1a	0.20745125
68	0xbecb58c1	-0.3971615
69	0x3e8e5d92	0.27805763
70	0xbe033a7e	-0.12815282
71	0xbf81c43f	-1.0138015
72	0x3ffad4c6	1.9596183
73	0xbf010797	-0.50402206
74	0x3e21b4c6	0.15791616
75	0x3f23d433	0.63995665
76	0xbfc3ee6b	-1.5307134
77	0x3f2e22e8	0.6802201
78	0xbd042a01	-0.03226662
79	0xbd922313	-0.07135596
80	0x4033d7b1	2.8100398
81	0xbf9463a3	-1.1592907
82	0x3f8e7e30	1.1132259
83	0x3ecd24a6	0.40067023
84	0xbfddf417	-1.7340115
85	0xbf84db59	-1.037944
86	0x3f5423a2	0.8286687
87	0xbe87a39a	-0.26492006
88	0x3e5ec50e	0.21754858
89	0xbeb9c400	-0.3628235
90	0x3f0a4089	0.5400472
91	0xbf6cc42d	-0.9248684
92	0xbca9ef36	-0.020743947
93	0xbf2145f3	-0.6299736
94	0xbf440cbc	-0.7658193
95	0xbf0a8013	-0.54101676
96	0xbfd0c93c	-1.6311412
97	0xbfc777cc	-1.5583434
98	0xbe20a7ff	-0.15689085
99	0x3f83222e	1.0244806
100	0xbc416816	-0.011804601
101	0xbed743a2	-0.42043787
102	0xbe7172e8	-0.2357899
103	0xbcb5acc5	-0.02217711
104	0xbd9136b4	-0.07090512
105	0xbe233c6b	-0.15941016
106	0x3f1e9b57	0.6195578
107	0x3fa75027	1.3071336
108	0x3e312e62	0.1730285
109	0x401c41ae	2.4415088
110	0xbf02ffd9	-0.5117164
111	0xbff15c08	-1.8856211
112	0xbe955bd3	-0.2917162
113	0xbeb43c6b	-0.35202345
114	0x3f6bc561	0.9209805
115	0xc00881a8	-2.1329136
116	0x3dd628e8	0.10457021
117	0x3f0d10c3	0.551037
118	0xbfce8dd1	-1.6137029
119	0x3f03bcb9	0.5145984
120	0x3ffcbf5a	1.9745896
121	0x3e72dc57	0.23716865
122	0x3e0b7c9f	0.13621758
123	0xbf45daef	-0.7728719
124	0xbf375325	-0.71611243
125	0x3f18cec5	0.59690505
126	0xbeb43199	-0.3519409
127	0xbfb2b8ef	-1.3962687
128	0xbff49009	-1.9106456
129	0x3fff3e9d	1.9940983
130	0x3fc7928f	1.5591601
131	0xbd9e31f7	-0.07724374
132	0x3fb4f89e	1.4138372
133	0x3fbb6688	1.4640665
134	0xbe802aec	-0.25032747
135	0xbfbe05ea	-1.4845555
136	0xbdefaa57	-0.117024116
137	0xbd7bbb42	-0.06145788
138	0x3fa6a433	1.301886
139	0x3f44b142	0.76832974
140	0x3ebed3af	0.37270877
141	0xbf4a45fb	-0.7901303
142	0x3f0afb92	0.54290116
143	0x3f88774c	1.0661407
144	0x40261b16	2.5954032
145	0x3f9ca4be	1.2237775
146	0xbfcd86b6	-1.6056736
147	0xbd8cd08b	-0.06875714
148	0xbe4637ce	-0.19357225
149	0x3d61235c	0.054965362
150	0xbebe5c8f	-0.37179992
151	0x3fa381ce	1.2773988
152	0xbf6d73ae	-0.9275464
153	0xbda3ee8b	-0.08004483
154	0x3f84d71d	1.0378147
155	0xbe47d95a	-0.19516507
156	0xbf92008d	-1.1406418
157	0xbf350e1b	-0.7072465
158	0x3fb04092	1.3769705
159	0xbf59378f	-0.848504
160	0xbf907aba	-1.1287453
161	0xbe47633f	-0.19471453
162	0xbe415ad4	-0.18882304
163	0x401314e5	2.2981503
164	0xc03048ca	-2.7544427
165	0x3f5768f8	0.84144545
166	0xbf5b67c8	-0.8570523
167	0xbca34460	-0.019930065
168	0xbe3a437a	-0.18189803
169	0x3fbf7158	1.4956465
170	0xbe3a805b	-0.18213026
171	0xbe50a547	-0.20375548
172	0xbfa8d602	-1.319031
173	0xbdc7a2ab	-0.09747823
174	0xbff1650a	-1.885896
175	0xbfab58c6	-1.3386467
176	0xbf0dc781	-0.55382544
177	0xbfa7443b	-1.3067697
178	0x3e0b26ce	0.13589022
179	0xbe3ce40b	-0.18446366
180	0x3f5ae5d4	0.8550694
181	0x3f8e2e43	1.1107868
182	0xbfb8f4df	-1.4449729
183	0x3f864305	1.0489203
184	0x3fa5be64	1.2948728
185	0x3f5c6349	0.86089
186	0x3ed797f1	0.4210811
187	0xbfb3b499	-1.4039489
188	0xbec66520	-0.38749027
189	0x3fe78958	1.8088789
190	0x3ec6600f	0.38745162
191	0x3f318d09	0.6935583
192	0xbe8dc48d	-0.2768902
193	0xbd36f230	-0.04466456
194	0x40015c55	2.0212605
195	0x3fc42ce0	1.5326195
196	0x3f6e607f	0.9311599
197	0xbf4cbae3	-0.79972667
198	0xbd90c9b8	-0.07069725
199	0x3e988b9f	0.29794022
200	0xbe22da83	-0.15903668
201	0xbfeb4b5a	-1.838237
202	0x3fb685a7	1.4259537
203	0x3ed43823	0.4144908
204	0xbfad7111	-1.355013
205	0xbf991593	-1.1959709
206	0xbe971688	-0.29509377
207	0x3e41a98b	0.18912332
208	0x3f3a8fff	0.7287597
209	0xbe2a30a2	-0.16620114
210	0xbee5edde	-0.4490804
211	0xbf2ee368	-0.68315744
212	0x3eb9c337	0.3628175
213	0x3f4344b8	0.7627673
214	0x3fcf6ef2	1.6205733
215	0x3ed789af	0.42097232
216	0x3ee354ee	0.44400734
217	0x3f8655b9	1.049491
218	0xbf3232fa	-0.69609034
219	0xbf2d1495	-0.6760953
220	0xbdb9a2e7	-0.09064274
221	0x3ef69132	0.4815765
222	0xbf1837ea	-0.5946032
223	0xbf431b98	-0.7621398
224	0xbf364e80	-0.7121353
225	0xbf07660c	-0.52890086
226	0x3dcb5eca	0.09930189
227	0xbe86472c	-0.26226175
228	0xbe7fec9b	-0.24992602
229	0x3f857e43	1.0429157
230	0x3dc5c7d7	0.09657257
231	0xbeedde35	-0.46458593
232	0x3f8a8bd3	1.0823921
233	0xbfaa99f9	-1.3328239
234	0x3f5f652d	0.87263757
235	0xc0004e88	-2.0047932
236	0xbf8bf51f	-1.093418
237	0xbcc47687	-0.0239823
238	0xbf0bbedf	-0.5458812
239	0xbf04d45e	-0.51886547
240	0x3fe8ad7c	1.8177943
241	0xbf3c4164	-0.7353728
242	0xbf844a24	-1.0335126
243	0xbf967e98	-1.1757383
244	0x3f91c4c9	1.1388179
245	0xbe823786	-0.25432986
246	0x3e18d026	0.14923152
247	0xbf8bd182	-1.0923312
248	0xbd284ae5	-0.04108705
249	0x3e4d38c3	0.20041184
250	0xbf9e9a2a	-1.2390797
251	0xbf9d82ce	-1.2305543
252	0x3f9eaa71	1.2395765
253	0xbfc22a92	-1.5169241
254	0xbf24dd71	-0.6440039
255	0x3fc5da28	1.5457201

weight f4 [64, 64]
0	0xbeb33270	-0.34999418
1	0xbece4571	-0.40287355
2	0xbfaf5c34	-1.3700013
3	0x401490b5	2.3213322
4	0x3f02fa94	0.511636
5	0x3fcbe412	1.5928977
6	0xbf4524ea	-0.7700945
7	0xbffb8525	-1.9650007
8	0x3d705938	0.058678836
9	0xbfe62011	-1.7978536
10	0x3ef523b2	0.47878796
11	0x3f51b044	0.81909585
12	0xbffb1e3d	-1.9618603
13	0x3fb05743	1.377663
14	0x3f13f024	0.577883
15	0x3f518f32	0.81859124
16	0xbf582590	-0.84432316
17	0x3fd54ea3	1.6664623
18	0xbe8a45b7	-0.27006313
19	0xbf302f0b	-0.6882178
20	0x3f3f6033	0.74756163
21	0x3f095cb1	0.5365706
22	0xbfab58ea	-1.338651
23	0x3f32dc9b	0.6986787
24	0x3f7d786f	0.9901189
25	0xc00f4c28	-2.2390232
26	0x3f774e3b	0.96603745
27	0xc01a2c5e	-2.408958
28	0x3e911f73	0.28344306
29	0x40480719	3.1254332
30	0x3fed15f8	1.8522329
31	0xbf383289	-0.7195211
32	0x3ee1f738	0.44133925
33	0xbf84b5e2	-1.0368006
34	0x400c2ed6	2.1903586
35	0xbf974a3f	-1.1819533
36	0xbee30e9c	-0.44347084
37	0xbf80d423	-1.0064739
38	0xbe59c707	-0.21267329
39	0xc012838c	-2.289279
40	0x3e15b265	0.14618833
41	0x3eb693d9	0.35659674
42	0xbf0b408c	-0.54395366
43	0x3e588296	0.21143565
44	0x3e5daf96	0.21649012
45	0xbfa5bfae	-1.2949121
46	0x3dc52228	0.096256554
47	0xbc7700bd	-0.01507586
48	0x3f64b19d	0.89333516
49	0x3e4ee3ab	0.20204036
50	0x3f8d6fc3	1.1049732
51	0xbf362e44	-0.71164346
52	0x3f220e06	0.6330265
53	0xbf5acbfb	-0.854675
54	0x3f04f94c	0.51942897
55	0x3cc14590	0.02359274
56	0xbe8af703	-0.2714158
57	0xbfc24377	-1.5176839
58	0x3d8ab09d	0.067719676
59	0xbe04f140	-0.12982655
60	0x3f81cfd5	1.014155
61	0x3f2bd3ef	0.6712026
62	0xc022ceaa	-2.5438638
63	0x3be95820	0.007121101
64	0xc00b1d86	-2.173677
65	0xbf3d0db9	-0.73849064
66	0x3fa4e8da	1.2883561
67	0x3e6064a7	0.21913396
68	0xbe0a8650	-0.13527799
69	0x3f3420e0	0.70362663
70	0x3f64272c	0.8912227
71	0xbf80dfb4	-1.0068269
72	0xbfc1b3f9	-1.5133048
73	0x3eb141bd	0.34620467
74	0x3e685b6f	0.22691129
75	0x3f102551	0.5630694
76	0xbf2e357c	-0.6805036
77	0xbe598912	-0.21243694
78	0x3fefb800	1.8728027
79	0x3f7ff489	0.99982506
80	0xbce7170c	-0.028209232
81	0xbfa1d9a6	-1.2644546
82	0xbfb0c4b7	-1.3810033
83	0xbfd42c41	-1.6576005
84	0xbf4cb5d9	-0.7996498
85	0x3f734518	0.95027304
86	0xbef97954	-0.4872538
87	0xbfbca9c5	-1.473931
88	0xbe38ceb9	-0.18047608
89	0xbf3fc8c8	-0.7491574
90	0x3bb7defb	0.005611298
91	0x4018b5ba	2.3860917
92	0xbf120ff1	-0.57055575
93	0xbee794c5	-0.4523069
94	0xbf8925c7	-1.0714654
95	0x400c281e	2.1899486
96	0x3ea30d9b	0.31846318
97	0x3fa4072f	1.2814692
98	0x3fb999e6	1.4500091
99	0xbf87d9a7	-1.0613297
100	0x3e268782	0.1626263
101	0xbf86a754	-1.0519814
102	0xbdcc48a8	-0.099747956
103	0xbefb59ea	-0.49092036
104	0xbf52bf52	-0.8232318
105	0x3ff9259d	1.9464604
106	0x3e9a7e1c	0.3017434
107	0x3dc578b0	0.0964216
108	0x3e8fb6df	0.28069207
109	0xbf9e7d30	-1.2381954
110	0x3f6ab943	0.91688937
111	0xbdf01dab	-0.11724409
112	0x3f56cd76	0.8390726
113	0xbf34b27f	-0.70584863
114	0xbfb79081	-1.4340974
115	0x400bbaf8	2.1832867
116	0x3e12353b	0.14278118
117	0x3efaeba7	0.49007913
118	0xbe0c5f12	-0.13708141
119	0x3f34f59c	0.7068727
120	0xbf0331b0	-0.5124769
121	0xbf84b95c	-1.0369067
122	0x3f91e573	1.1398147
123	0xbf50b3bb	-0.81524247
124	0xbfae6276	-1.3623798
125	0x3fccb297	1.5992001
126	0x3ea38d88	0.31943917
127	0xbeb108d8	-0.3457706
128	0x3efb12f5	0.490379
129	0x3f1dfc8b	0.61713475
130	0x3ef6a75a	0.48174554
131	0xbfea268b	-1.8293012
132	0xbf8c209e	-1.0947454
133	0x400898b6	2.1343207
134	0x3f038247	0.5137066
135	0xbf9c8abf	-1.2229842
136	0xbed84910	-0.42243242
137	0xbe55e317	-0.20887409
138	0xbd07f699	-0.03319416
139	0x3f29e677	0.66367286
140	0xbfd51686	-1.6647499
141	0x3db6b3ef	0.08921038
142	0x3ed783fb	0.4209288
143	0x3f3d333d	0.7390631
144	0x3e4d7b83	0.20066647
145	0x3e00b017	0.12567173
146	0xbdfd8960	-0.12379718
147	0xbf527a6a	-0.8221804
148	0x3f3515b8	0.70736265
149	0xbf1edb87	-0.6205372
150	0xc005cc3b	-2.0905902
151	0xbf87f4fc	-1.0621638
152	0xbfdd012c	-1.7265983
153	0xbf01b990	-0.5067377
154	0x3e0cfc8d	0.13768215
155	0x3dfafe64	0.122555524
156	0xbe240621	-0.16017963
157	0x3f38f2fb	0.7224576
158	0x3f8ae5e1	1.0851403
159	0x3db50258	0.08838338
160	0xbe5d31c5	-0.21601017
161	0xbf23ca57	-0.6398062
162	0xbedafeb2	-0.42772442
163	0xbea75917	-0.32685158
164	0xbed206eb	-0.41020903
165	0xbf933fb6	-1.1503818
166	0xbd661dab	-0.056180637
167	0xbf777e60	-0.9667721
168	0x3fc0e71c	1.5070529
169	0x3f632fa5	0.88744575
170	0x3f0562f9	0.52104145
171	0xbf55a695	-0.8345731
172	0xbfb48f2c	-1.4106193
173	0x3f8ef7cd	1.1169373
174	0xbfdbdb25	-1.7176253
175	0xbe9deeeb	-0.30846342
176	0x3f853019	1.0405303
177	0x3f047103	0.5173494
178	0xc00051f9	-2.0050032
179	0x3e8addb6	0.27122277
180	0x3f95dc3c	1.1707835
181	0xbf104d79	-0.56368214
182	0x3ddbb395	0.10727612
183	0xbf4eb6ca	-0.80747664
184	0xbfb8c2f4	-1.4434495
185	0xbf718585	-0.9434436
186	0xbf4cc266	-0.7998413
187	0xbf289817	-0.6585707
188	0xbf8f83b7	-1.1212071
189	0x40087869	2.1323493
190	0x3f3ebbc9	0.7450529
191	0xbe250023	-0.16113333
192	0xbf552374	-0.8325722
193	0xbed7a145	-0.42115226
194	0xbf1ad1cc	-0.60476375
195	0xbfc2555c	-1.51823
196	0xbf151b07	-0.58244365
197	0xbf329e5b	-0.6977288
198	0xbf250ff9	-0.644775
199	0xbfd0a252	-1.6299536
200	0xbf2c0d50	-0.67207813
201	0xbf416cf2	-0.7555686
202	0xbf61fe65	-0.882788
203	0xbf6894a2	-0.90851796
204	0xbeab6833	-0.33477935
205	0x3de75b0b	0.11296662
206	0x3ffc8ad4	1.9729867
207	0x3e28ce20	0.1648488
208	0x3f8aab3a	1.0833504
209	0x3f66aee1	0.90110594
210	0xbf404c9c	-0.75116897
211	0xbf063d23	-0.5243704
212	0x3f6b168c	0.9183128
213	0x3f26094f	0.64857954
214	0x3f2a0748	0.6641736
215	0xbfcf9277	-1.6216573
216	0xbc2a6876	-0.010400882
217	0xbf77a6a3	-0.9673864
218	0x3eef0c07	0.46688864
219	0x3f955e97	1.1669492
220	0xbf8bd8c1	-1.0925523
221	0x3fbf0bcd	1.4925476
222	0xbff74916	-1.9319179
223	0xbf80bcdd	-1.0057636
224	0xbef7c90e	-0.4839558
225	0xbed5d92a	-0.41767246
226	0x3ef13483	0.47110376
227	0x3f3b47db	0.7315652
228	0xbf9c867a	-1.2228539
229	0xbf65bcb5	-0.8974107
230	0xbf41c339	-0.7568851
231	0x3f65915e	0.8967494
232	0x3f300df1	0.6877127
233	0xbf9de058	-1.2334089
234	0xbfa1f6df	-1.2653464
235	0xbf59e1e4	-0.85110307
236	0x3f7c6441	0.98590475
237	0x3fcc7297	1.597247
238	0xbe915a92	-0.28389412
239	0xbf065573	-0.52474135
240	0xbf5a215f	-0.8520717
241	0x3ee9165c	0.4552487
242	0x3fa2b9b9	1.2712928
243	0xbf4685f3	-0.7754814
244	0xbf6dca6a	-0.92886984
245	0x3f3e1f81	0.7426682
246	0x3f9c5157	1.2212323
247	0xbf7a8711	-0.97862345
248	0x3d15946c	0.0365185
249	0xbfd43a97	-1.658038
250	0xbeba96dc	-0.36443222
251	0x404b7add	3.179374
252	0xbc4d69db	-0.012537445
253	0x3e36a417	0.17836033
254	0x3efe277e	0.49639505
255	0xbf2a2c55	-0.66473895

tril f4 [64, 64]
0	0x3f800000	1.0
1	0x00000000	0.0
2	0x00000000	0.0
3	0x00000000	0.0
4	0x00000000	0.0
5	0x00000000	0.0
6	0x00000000	0.0
7	0x00000000	0.0
8	0x00000000	0.0
9	0x00000000	0.0
10	0x00000000	0.0
11	0x00000000	0.0
12	0x00000000	0.0
13	0x00000000	0.0
14	0x00000000	0.0
15	0x00000000	0.0
16	0x00000000	0.0
17	0x00000000	0.0
18	0x00000000	0.0
19	0x00000000	0.0
20	0x00000000	0.0
21	0x00000000	0.0
22	0x00000000	0.0
23	0x00000000	0.0
24	0x00000000	0.0
25	0x00000000	0.0
26	0x00000000	0.0
27	0x00000000	0.0
28	0x00000000	0.0
29	0x00000000	0.0
30	0x00000000	0.0
31	0x00000000	0.0
32	0x00000000	0.0
33	0x00000000	0.0
34	0x00000000	0.0
35	0x00000000	0.0
36	0x00000000	0.0
37	0x00000000	0.0
38	0x00000000	0.0
39	0x00000000	0.0
40	0x00000000	0.0
41	0x00000000	0.0
42	0x00000000	0.0
43	0x00000000	0.0
44	0x00000000	0.0
45	0x00000000	0.0
46	0x00000000	0.0
47	0x00000000	0.0
48	0x00000000	0.0
49	0x00000000	0.0
50	0x00000000	0.0
51	0x00000000	0.0
52	0x00000000	0.0
53	0x00000000	0.0
54	0x00000000	0.0
55	0x00000000	0.0
56	0x00000000	0.0
57	0x00000000	0.0
58	0x00000000	0.0
59	0x00000000	0.0
60	0x00000000	0.0
61	0x00000000	0.0
62	0x00000000	0.0
63	0x00000000	0.0
64	0x3f800000	1.0
65	0x3f800000	1.0
66	0x00000000	0.0
67	0x00000000	0.0
68	0x00000000	0.0
69	0x00000000	0.0
70	0x00000000	0.0
71	0x00000000	0.0
72	0x00000000	0.0
73	0x00000000	0.0
74	0x00000000	0.0
75	0x00000000	0.0
76	0x00000000	0.0
77	0x00000000	0.0
78	0x00000000	0.0
79	0x00000000	0.0
80	0x00000000	0.0
81	0x00000000	0.0
82	0x00000000	0.0
83	0x00000000	0.0
84	0x00000000	0.0
85	0x00000000	0.0
86	0x00000000	0.0
87	0x00000000	0.0
88	0x00000000	0.0
89	0x00000000	0.0
90	0x00000000	0.0
91	0x00000000	0.0
92	0x00000000	0.0
93	0x00000000	0.0
94	0x00000000	0.0
95	0x00000000	0.0
96	0x00000000	0.0
97	0x00000000	0.0
98	0x00000000	0.0
99	0x00000000	0.0
100	0x00000000	0.0
101	0x00000000	0.0
102	0x00000000	0.0
103	0x00000000	0.0
104	0x00000000	0.0
105	0x00000000	0.0
106	0x00000000	0.0
107	0x00000000	0.0
108	0x00000000	0.0
109	0x00000000	0.0
110	0x00000000	0.0
111	0x00000000	0.0
112	0x00000000	0.0
113	0x00000000	0.0
114	0x00000000	0.0
115	0x00000000	0.0
116	0x00000000	0.0
117	0x00000000	0.0
118	0x00000000	0.0
119	0x00000000	0.0
120	0x00000000	0.0
121	0x00000000	0.0
122	0x00000000	0.0
123	0x00000000	0.0
124	0x00000000	0.0
125	0x00000000	0.0
126	0x00000000	0.0
127	0x00000000	0.0
128	0x3f800000	1.0
129	0x3f800000	1.0
130	0x3f800000	1.0
131	0x00000000	0.0
132	0x00000000	0.0
133	0x00000000	0.0
134	0x00000000	0.0
135	0x00000000	0.0
136	0x00000000	0.0
137	0x00000000	0.0
138	0x00000000	0.0
139	0x00000000	0.0
140	0x00000000	0.0
141	0x00000000	0.0
142	0x00000000	0.0
143	0x00000000	0.0
144	0x00000000	0.0
145	0x00000000	0.0
146	0x00000000	0.0
147	0x00000000	0.0
148	0x00000000	0.0
149	0x00000000	0.0
150	0x00000000	0.0
151	0x00000000	0.0
152	0x00000000	0.0
153	0x00000000	0.0
154	0x00000000	0.0
155	0x00000000	0.0
156	0x00000000	0.0
157	0x00000000	0.0
158	0x00000000	0.0
159	0x00000000	0.0
160	0x00000000	0.0
161	0x00000000	0.0
162	0x00000000	0.0
163	0x00000000	0.0
164	0x00000000	0.0
165	0x00000000	0.0
166	0x00000000	0.0
167	0x00000000	0.0
168	0x00000000	0.0
169	0x00000000	0.0
170	0x00000000	0.0
171	0x00000000	0.0
172	0x00000000	0.0
173	0x00000000	0.0
174	0x00000000	0.0
175	0x00000000	0.0
176	0x00000000	0.0
177	0x00000000	0.0
178	0x00000000	0.0
179	0x00000000	0.0
180	0x00000000	0.0
181	0x00000000	0.0
182	0x00000000	0.0
183	0x00000000	0.0
184	0x00000000	0.0
185	0x00000000	0.0
186	0x00000000	0.0
187	0x00000000	0.0
188	0x00000000	0.0
189	0x00000000	0.0
190	0x00000000	0.0
191	0x00000000	0.0
192	0x3f800000	1.0
193	0x3f800000	1.0
194	0x3f800000	1.0
195	0x3f800000	1.0
196	0x00000000	0.0
197	0x00000000	0.0
198	0x00000000	0.0
199	0x00000000	0.0
200	0x00000000	0.0
201	0x00000000	0.0
202	0x00000000	0.0
203	0x00000000	0.0
204	0x00000000	0.0
205	0x00000000	0.0
206	0x00000000	0.0
207	0x00000000	0.0
208	0x00000000	0.0
209	0x00000000	0.0
210	0x00000000	0.0
211	0x00000000	0.0
212	0x00000000	0.0
213	0x00000000	0.0
214	0x00000000	0.0
215	0x00000000	0.0
216	0x00000000	0.0
217	0x00000000	0.0
218	0x00000000	0.0
219	0x00000000	0.0
220	0x00000000	0.0
221	0x00000000	0.0
222	0x00000000	0.0
223	0x00000000	0.0
224	0x00000000	0.0
225	0x00000000	0.0
226	0x00000000	0.0
227	0x00000000	0.0
228	0x00000000	0.0
229	0x00000000	0.0
230	0x00000000	0.0
231	0x00000000	0.0
232	0x00000000	0.0
233	0x00000000	0.0
234	0x00000000	0.0
235	0x00000000	0.0
236	0x00000000	0.0
237	0x00000000	0.0
238	0x00000000	0.0
239	0x00000000	0.0
240	0x00000000	0.0
241	0x00000000	0.0
242	0x00000000	0.0
243	0x00000000	0.0
244	0x00000000	0.0
245	0x00000000	0.0
246	0x00000000	0.0
247	0x00000000	0.0
248	0x00000000	0.0
249	0x00000000	0.0
250	0x00000000	0.0
251	0x00000000	0.0
252	0x00000000	0.0
253	0x00000000	0.0
254	0x00000000	0.0
255	0x00000000	0.0

weight f4 [64, 64]
0	0xbcf88b2c	-0.0303398
1	0xbc5d7862	-0.013517471
2	0xbbd6bd7d	-0.0065533505
3	0x3e049cca	0.12950435
4	0x3d16d7a0	0.03682673
5	0xbe1cc4c6	-0.15309438
6	0x3e1050cd	0.14093323
7	0xbe8b9d6f	-0.2726855
8	0xbdd9412e	-0.10608135
9	0x3cc75274	0.024331309
10	0x3e52791f	0.20554017
11	0xbe52b1ec	-0.20575684
12	0xbcc02081	-0.023453
13	0x3dd97ee8	0.106199086
14	0x3cffce46	0.031226289
15	0xbd279f3e	-0.04092335
16	0xbd41a0cb	-0.047272485
17	0xbe1296bc	-0.14315313
18	0xbd1c5211	-0.038164202
19	0x3dba7e49	0.09106118
20	0x3d999ae0	0.07500243
21	0x3c2a9e61	0.010413737
22	0x3e384939	0.17996682
23	0xbd668688	-0.056280643
24	0xbd085049	-0.03327969
25	0x3adfd8a7	0.0017078117
26	0xbd33c8ee	-0.043892793
27	0x3dab1d12	0.08355154
28	0x3e543e7e	0.20726964
29	0xbd9cbce4	-0.076532155
30	0x3d703ec6	0.058653615
31	0xbb14f88c	-0.0022731153
32	0xbdb3826c	-0.087651104
33	0x3e2a516c	0.16632622
34	0xbdc6f125	-0.097139634
35	0xbd92edac	-0.071742386
36	0x3e058024	0.13037163
37	0xbd859033	-0.065216444
38	0x3e0960b5	0.13415797
39	0xbd96ba81	-0.073597915
40	0xbdc65605	-0.09684376
41	0xbdb1cf28	-0.0868209
42	0x3b67767a	0.003531842
43	0xbc369343	-0.011143508
44	0x3e190d57	0.14946495
45	0x3d4acfce	0.049514584
46	0x3da05916	0.07829492
47	0xbe04f148	-0.12982666
48	0xbc320199	-0.010864639
49	0x3e23658c	0.15956706
50	0x3dcc9319	0.09988994
51	0xbc75a98f	-0.014994039
52	0x3e41d3a0	0.18928385
53	0xbb33a1a1	-0.002740957
54	0x3daf3007	0.08554082
55	0x3d37e134	0.044892505
56	0xbe84b5d5	-0.25919977
57	0xbd223988	-0.039605647
58	0xbc9df6b7	-0.019282682
59	0x3d3bcc53	0.045849156
60	0xbdcb6510	-0.099313855
61	0xbcc0f505	-0.023554334
62	0xbd9eb9e7	-0.07750302
63	0x3d0e2a26	0.034708165
64	0xbdbc88d1	-0.09205783
65	0x3c0c366d	0.008557898
66	0xbe05a2fa	-0.13050452
67	0xbda89fcf	-0.08233606
68	0x3d35956c	0.044331953
69	0x3d4fced7	0.050734367
70	0x3e0bb157	0.13641869
71	0x3d26563f	0.040609594
72	0x3cb4ebdf	0.022085128
73	0x3c12cafb	0.008959527
74	0xba223785	-0.00061880826
75	0xbc98e82d	-0.018665398
76	0xbd2c2010	-0.042022765
77	0xbdfdcf15	-0.123930134
78	0x3e21e430	0.15809703
79	0xbae86c7f	-0.001773253
80	0x3d3361d9	0.043794487
81	0x3c1316a3	0.008977565
82	0xbda9069d	-0.082532145
83	0x3bdc5da4	0.00672503
84	0x3e3b188f	0.18271087
85	0xbe14c7f9	-0.14529409
86	0x3df3de04	0.119075805
87	0xbd01d4c7	-0.03169706
88	0xbda0b3cd	-0.07846794
89	0x3cee466e	0.029086318
90	0xbd707da1	-0.05871356
91	0xbce86245	-0.028367171
92	0x3e556b55	0.20841725
93	0x3c1e72ac	0.009670895
94	0x3cd7548e	0.026285436
95	0x3d8975b1	0.06711901
96	0xbdb31472	-0.08744134
97	0xbd15384a	-0.036430635
98	0x3dc2ac20	0.095054865
99	0xbded4299	-0.11584968
100	0x3d6ecf55	0.058303196
101	0x3d3f0ff1	0.046646062
102	0x3d3a460e	0.045476966
103	0xbca48a3f	-0.020085452
104	0xbd0a5883	-0.033775818
105	0xbd959e7c	-0.07305619
106	0x3c73084d	0.014833522
107	0xbd0fc2e5	-0.035097975
108	0xbdcb12b7	-0.09915679
109	0xbd5dab76	-0.054118596
110	0xbc89327e	-0.01674771
111	0x3d8d1367	0.06888466
112	0x3d3e122d	0.046404053
113	0xbd87e7ac	-0.06635985
114	0xbc9fc675	-0.019503811
115	0x3d0e557b	0.03474949
116	0x3e075b7a	0.1321849
117	0xbbeed951	-0.0072890897
118	0xbd0cbeec	-0.034361765
119	0x3dd4055c	0.10352585
120	0x3d34942a	0.044086613
121	0x3dd8071a	0.105482295
122	0x3d77e520	0.060521245
123	0x3cb392cd	0.021920586
124	0x3c5ddb67	0.013541079
125	0x3c8729be	0.016499396
126	0x3d90422c	0.07043871
127	0xbd4ddfea	-0.05026237
128	0x3dc06534	0.09394303
129	0xba928bd3	-0.0011180587
130	0xbbccd16f	-0.0062505524
131	0xbdd27e8d	-0.10278044
132	0x3da57b0f	0.08080112
133	0x3d8fa104	0.07013133
134	0x3b2a2578	0.0025962275
135	0xbd92def0	-0.07171428
136	0xbdde994c	-0.10869083
137	0xbc9b36a9	-0.018946962
138	0xbdfddfc3	-0.12396195
139	0x3c8c51a9	0.017128782
140	0xba316b35	-0.0006767989
141	0xbdaa02b9	-0.083013006
142	0x3d17a389	0.037021194
143	0x3df0b315	0.11752907
144	0xbc3a9c22	-0.011389764
145	0x3d0908d2	0.033455677
146	0xbd7b6ba2	-0.061381944
147	0xbe1736bb	-0.14766972
148	0xbd42dfaf	-0.047576603
149	0xbd4a4e78	-0.04939124
150	0xbcce635b	-0.02519386
151	0xbdc9170f	-0.09818851
152	0xbb9cc0b7	-0.0047837156
153	0xbd71ca42	-0.05903078
154	0xbd4cc338	-0.049990863
155	0x3c598578	0.01327645
156	0x3e0673e4	0.13130146
157	0x3c82195c	0.015881233
158	0x3c628c7d	0.01382744
159	0xbd770443	-0.0603068
160	0xbc8b1393	-0.016977107
161	0xbdb68172	-0.089114085
162	0xbd107533	-0.03526802
163	0xbdb94d48	-0.09047943
164	0x3dbcae7a	0.09212966
165	0xbd63af9b	-0.055587392
166	0x3de3522c	0.110996574
167	0xbde7e63c	-0.113232106
168	0x3de74a7a	0.11293502
169	0xbd6a241b	-0.05716334
170	0xbe22aecc	-0.15886992
171	0x3cdeaac8	0.027181044
172	0x3dbcc2c2	0.092168346
173	0x3bc0b5a9	0.0058810306
174	0xbc2bfbd5	-0.010497053
175	0xbcdbe5b5	-0.026842931
176	0xbd98cd8b	-0.07461079
177	0xbd02ff93	-0.031982016
178	0xbc02630a	-0.007958183
179	0xbda4f61c	-0.08054754
180	0x3d117dbc	0.0355203
181	0xbd8816e7	-0.06644993
182	0xbbc04e14	-0.0058686826
183	0x3d34713d	0.044053305
184	0xbdba8a2f	-0.09108388
185	0xbdeef213	-0.11667266
186	0x3ddd4f98	0.10806197
187	0xbe13f8f6	-0.1445044
188	0xbce6e42b	-0.02818497
189	0xbc9261f8	-0.01786898
190	0xbd2cabb9	-0.042155955
191	0xbe07d6fd	-0.13265605
192	0x3e00ebae	0.12589905
193	0xbcaec33e	-0.021333333
194	0xbd034bef	-0.032054838
195	0x3d1c79ed	0.038202215
196	0x3d617d11	0.055050913
197	0x3e6054d6	0.21907362
198	0xbd98de85	-0.07464317
199	0x3c0e91f7	0.008701793
200	0x3d2fad0b	0.042889636
201	0x3db7d34d	0.08975849
202	0xbc85b781	-0.016322853
203	0xbe30f2c9	-0.17280115
204	0xbc7d9d35	-0.015479376
205	0x3de6f819	0.112777896
206	0x3e02c83f	0.127717
207	0x3d46425b	0.048403125
208	0x3d9f94d3	0.07792058
209	0xbd7ceb06	-0.061747573
210	0xbca75fee	-0.020431485
211	0xbdff4a55	-0.124653496
212	0x3d635cf8	0.055508584
213	0xbd019fe9	-0.031646643
214	0xbda99559	-0.08280439
215	0x3da005e0	0.078136206
216	0x3bf89a5f	0.007586762
217	0xbc9e8a3f	-0.01935303
218	0xbd1a79a1	-0.03771365
219	0x3e4fb662	0.20284417
220	0x3daf8450	0.085701585
221	0xbdd31ee1	-0.10308624
222	0xbdabd208	-0.0838967
223	0xbc503178	-0.012707107
224	0xbe00ad4c	-0.12566108
225	0xbc5f6091	-0.013633863
226	0x3d305ac3	0.043055307
227	0xbbc90897	-0.006135057
228	0x3d9463ab	0.07245573
229	0xbc3c6167	-0.011497832
230	0xbdbdefcc	-0.09274253
231	0x3dc21947	0.094774775
232	0xbd271f48	-0.040801316
233	0x3d0a2b3a	0.03373263
234	0x3de26ac3	0.110555194
235	0xbd2093d4	-0.03920348
236	0xbb4b98c9	-0.003106641
237	0x3d8cf6da	0.06883021
238	0xbc713ea5	-0.014724408
239	0xbdbe2a06	-0.09285359
240	0x3dc4bbc6	0.096061274
241	0xbe2b746f	-0.16743635
242	0xbe285e21	-0.16442157
243	0xbc98a88f	-0.018635063
244	0x3d3f6cbb	0.046734553
245	0x3ca6364b	0.02028956
246	0xbd249bb1	-0.04018754
247	0xbd48cd2d	-0.049023796
248	0xbd5121b2	-0.051057525
249	0xbd016257	-0.031587925
250	0x3e1b45bd	0.15163322
251	0x3bbe816b	0.0058137677
252	0xbd1624d0	-0.0366562
253	0x3e3b9fba	0.1832265
254	0xbd53fcaf	-0.05175465
255	0x3d4149f2	0.04718966

bias f4 [64]
0	0xbd6caf7c	-0.057784542
1	0x3c8ab5ba	0.016932357
2	0xbd6c418c	-0.057679698
3	0x3cd3a096	0.02583341
4	0xbbc15707	-0.005900267
5	0xbb734fb0	-0.0037126355
6	0x3d9e11e9	0.0771826
7	0x3ad73a18	0.0016420512
8	0xbc6e8f1a	-0.014560485
9	0x3c373cfb	0.0111839725
10	0x3d9aabe4	0.07552317
11	0xbcac49b4	-0.021031238
12	0xbd992551	-0.07477821
13	0xbdb94184	-0.09045699
14	0x3d61541b	0.05501185
15	0xbd2efd04	-0.042721763
16	0xbd9bedb2	-0.07613696
17	0xbc270c77	-0.010195843
18	0xbd3cba05	-0.04607584
19	0xbcd38231	-0.025818916
20	0xbce42f3f	-0.02785456
21	0xbda67547	-0.08127838
22	0xbd7e32ec	-0.06206028
23	0x3d36a09c	0.044586763
24	0xbd896ad8	-0.06709832
25	0x3d50ded4	0.050993755
26	0xbcbdcb8e	-0.023168352
27	0xbdb12adb	-0.08650752
28	0x3ceb2f44	0.028709061
29	0x3d41c7ff	0.04730987
30	0x3d13bd52	0.03606922
31	0x3c59bda8	0.0132898465
32	0x3cc0287d	0.023456806
33	0x3ca4caad	0.020116175
34	0x3d96f338	0.07370609
35	0x3b6327ff	0.003466129
36	0x3d890dd2	0.06692089
37	0x3dbce54e	0.09223424
38	0x3dab76bc	0.08372256
39	0xbd715bea	-0.058925547
40	0x3d07b3f2	0.033130594
41	0xbcf37f25	-0.029723713
42	0x3dbed38f	0.09317695
43	0x3d78e5bc	0.060765967
44	0x3d9e9df2	0.077449694
45	0xbddc1361	-0.10745884
46	0x3c79f321	0.01525572
47	0xbc926c07	-0.017873777
48	0xbae035ed	-0.0017105915
49	0xbda87a0d	-0.08226404
50	0xbcba25ea	-0.022723157
51	0x3cef4a74	0.029210307
52	0xbd05285d	-0.032509197
53	0xbd70b9f9	-0.058771107
54	0x3dda3967	0.1065548
55	0x3d404d24	0.046948567
56	0x3b3da5bc	0.0028937897
57	0x3da5bc93	0.08092608
58	0xbdbe9c09	-0.09307105
59	0x3d8d5095	0.069001354
60	0xbe0791f4	-0.1323927
61	0x3dc4a3f7	0.09601586
62	0xbd8ddb93	-0.06926646
63	0xbd878272	-0.06616677

weight f4 [64, 64]
0	0x3d573c01	0.05254746
1	0x3dad12e6	0.0845087
2	0x3b88265b	0.004154963
3	0x3d90575b	0.07047912
4	0xbc0d704b	-0.00863273
5	0x3d41c2f5	0.047305066
6	0xbda865ae	-0.08222519
7	0xbc73f9ee	-0.014891131
8	0x3dba11cf	0.09085428
9	0x3e2bcab0	0.16776538
10	0x3d7b47d3	0.061347794
11	0x3e2e5aab	0.17026775
12	0x3e14739d	0.14497228
13	0xbde7d956	-0.113207504
14	0xbe291b35	-0.16514285
15	0xbe35c048	-0.1774913
16	0xbc21ff91	-0.009887592
17	0xbcab8d37	-0.02094136
18	0x3bd7f18b	0.0065900735
19	0xbd416836	-0.047218524
20	0x3c0cab3b	0.008585746
21	0xbd2f6c6f	-0.04282802
22	0xbd8b7016	-0.06808488
23	0x3c64e69d	0.013970998
24	0x3beb94aa	0.007189353
25	0x3dcc9967	0.09990197
26	0x3e1dd467	0.15413056
27	0xbcca507a	-0.024696577
28	0xbd1e1aee	-0.0385999
29	0xbdf93043	-0.12167408
30	0xbe07f03c	-0.13275236
31	0xbd263c2d	-0.04058473
32	0x3c8325e9	0.016009288
33	0x3cb80676	0.022464018
34	0xbe953ea8	-0.29149365
35	0x3d933f3d	0.07189796
36	0x3e23419c	0.15942997
37	0xbc022eff	-0.007945775
38	0xbd3f3f0e	-0.046690993
39	0x3d80ff50	0.06298697
40	0x3cb0dce4	0.021589704
41	0xbd3e3169	-0.04643384
42	0x3cb5413f	0.022125838
43	0x3dbf06e2	0.09327485
44	0x3cc8093d	0.024418468
45	0x3d3154e7	0.04329386
46	0x3da5bdfa	0.08092876
47	0x3d06b59d	0.032888044
48	0xbdbb4d57	-0.09145611
49	0xbd685860	-0.056724906
50	0x3dfc19a5	0.12309579
51	0x3df0c3c7	0.117560916
52	0xbc27756a	-0.010220865
53	0x3dc3786b	0.09544452
54	0x3e0d5b9d	0.13804479
55	0xbdaa8a4c	-0.08327159
56	0xbc11848e	-0.008881701
57	0x3e163358	0.14668024
58	0xbd14faf8	-0.036372155
59	0xbdc42d57	-0.095789604
60	0xbbdedd4f	-0.0068012844
61	0xbddaa3d5	-0.1067578
62	0x3dab354e	0.083597764
63	0x3d1c01f8	0.038087815
64	0x3e0c2c08	0.13688672
65	0x3dde34e9	0.108499356
66	0xbe409066	-0.18805084
67	0x3daf6331	0.08563841
68	0xbdb88b53	-0.09010949
69	0x3b86da99	0.0041154143
70	0x3dc1ea99	0.09468574
71	0x3d8d1450	0.0688864
72	0x3d8148e6	0.063127324
73	0xbd7dd607	-0.06197169
74	0x3da7699c	0.0817444
75	0x3d01c9b4	0.0316865
76	0x3d9e4986	0.07728867
77	0xbc92fc92	-0.0179427
78	0x3d1d15bc	0.038350806
79	0x3c4dc1a2	0.012558373
80	0x3d393f32	0.045226283
81	0x3d058b05	0.032603282
82	0x3d5b0d2b	0.053479355
83	0xbcb0bcc4	-0.021574385
84	0x3df556da	0.11979456
85	0x3daf9224	0.08572796
86	0x3e0a2424	0.13490349
87	0xbdb175e8	-0.08665067
88	0xbdde3f50	-0.1085192
89	0x3dd2083d	0.102554776
90	0xbdb221b7	-0.08697837
91	0xbdb45b3d	-0.08806465
92	0xbcb0e174	-0.02159188
93	0xbd1d70bc	-0.03843759
94	0xbdbe2cf9	-0.092859216
95	0xbd241f8b	-0.040069144
96	0xbd7def80	-0.061995983
97	0xbd773bff	-0.06035995
98	0x3bdc7839	0.006728199
99	0x3e1f0487	0.15529071
100	0x3e0ca5b2	0.13735083
101	0xbd2561ea	-0.04037658
102	0xbd425d6a	-0.047452368
103	0xbce7f4fa	-0.028315056
104	0xbc603cad	-0.013686341
105	0x3d3018a2	0.04299224
106	0x3d579876	0.052635632
107	0x3e114171	0.1418512
108	0x3d99d431	0.075111754
109	0xbdc615bc	-0.09672114
110	0xbdbe27ea	-0.09284957
111	0xbde4c1e2	-0.11169793
112	0xbe50c67d	-0.20388217
113	0x3d30ffb0	0.043212593
114	0xb973c61c	-0.00023248087
115	0xbbe21205	-0.0068991208
116	0xbd62666a	-0.05527345
117	0x3cd22c7b	0.025655976
118	0x3c6c5399	0.014424228
119	0x3de06d55	0.109583534
120	0xbdcc13a1	-0.099646814
121	0xbd066a26	-0.032816075
122	0x3d95d39a	0.073157504
123	0x3d1f4bd8	0.03889069
124	0x3e585bd5	0.21128781
125	0x3d17e20b	0.037080806
126	0x3d856070	0.065125346
127	0xbd1b18f2	-0.037865587
128	0x3dd796b4	0.10526791
129	0x3d0b3f17	0.033995714
130	0x3dba30fe	0.09091376
131	0x3c08aa19	0.008341336
132	0x3e24ba26	0.16086635
133	0xbd729fe9	-0.059234533
134	0x3dd2aeb7	0.102872305
135	0xbc38189a	-0.011236334
136	0xbe691fb8	-0.22766006
137	0xbd49f879	-0.049309228
138	0xbd790155	-0.060792286
139	0xbdab86b7	-0.08375304
140	0x3e01e799	0.12686004
141	0xbcd4ccab	-0.0259765
142	0x3d5aee28	0.05344978
143	0xbe33a407	-0.1754304
144	0x3d97e45e	0.074166045
145	0xbd0cfdac	-0.034421608
146	0x3df559bd	0.11980007
147	0xbdf08ee0	-0.11746001
148	0xbe655fac	-0.22399777
149	0xbe24d833	-0.16098098
150	0x3d746b40	0.059672594
151	0x3da6df08	0.081480086
152	0x3d36d5f0	0.04463762
153	0xbd66fccf	-0.05639344
154	0x3c99ea0f	0.018788366
155	0xbe5cc6c6	-0.21560201
156	0xbd471c66	-0.048611067
157	0x3da0d87c	0.07853791
158	0xbda7582c	-0.08171114
159	0xbcada7d6	-0.021198194
160	0x3d985326	0.07437734
161	0x3d332e8c	0.043745562
162	0x3ccdcce3	0.025122112
163	0xbde97a7f	-0.114003174
164	0x3cbc3483	0.022974258
165	0xbddd577a	-0.108077005
166	0xbdd53102	-0.10409738
167	0x3e31643c	0.17323393
168	0xbda7c765	-0.08192328
169	0xb9d01a6b	-0.00039692534
170	0xbdfb703e	-0.12277268
171	0x3d37a5c7	0.044835832
172	0xbe035432	-0.12825087
173	0xbd388089	-0.045044456
174	0xbda9bac8	-0.08287579
175	0x3d54f87b	0.051994782
176	0x3da3b212	0.079929486
177	0xbe23ce9f	-0.15996788
178	0x3e011e6d	0.12609263
179	0xbd8742ca	-0.06604536
180	0xbd424bcf	-0.047435578
181	0x3dddc7f1	0.108291514
182	0xbc8bf8e7	-0.01708646
183	0x3e25452e	0.16139671
184	0x3dab2b2d	0.083578445
185	0xbd5d7d2b	-0.054074448
186	0x3e551601	0.20809175
187	0x387c9ef9	6.0229537e-05
188	0x3d7628ca	0.060097493
189	0xbe04d26d	-0.12970896
190	0xbc8efdda	-0.01745503
191	0x3decf50b	0.11570176
192	0xbdc92d33	-0.09823074
193	0x3dce79f3	0.10081854
194	0xbe092cee	-0.13396046
195	0x3df39553	0.11893716
196	0xbe4c1941	-0.19931509
197	0x3dc369b0	0.09541643
198	0xbd243e15	-0.04009827
199	0xbe351895	-0.17685159
200	0xbda9d423	-0.08292415
201	0xbd082323	-0.033236634
202	0x3e0b6f4d	0.13616677
203	0xbe59b68a	-0.2126104
204	0xbd9b29d3	-0.07576337
205	0xbd1373f3	-0.03599925
206	0xbd632bd0	-0.055461705
207	0xbcfbfce2	-0.030760232
208	0x3ce41dab	0.027846178
209	0x3e289c59	0.16465892
210	0x3dfa2af3	0.12215223
211	0x3dcfac12	0.10140242
212	0xbb4f4233	-0.0031625151
213	0x3e08e2d7	0.13367783
214	0xbe789c19	-0.24278297
215	0x3ccbcb63	0.024877256
216	0x3ca8f0d4	0.020622648
217	0xbd570ee0	-0.05250442
218	0x3df44f1c	0.119291514
219	0x3d908456	0.07056491
220	0xbe8a111b	-0.26966175
221	0x3dd2ed17	0.102991275
222	0xbd0c1008	-0.034194976
223	0x3d9a89e8	0.07545835
224	0xbe31fcec	-0.17381638
225	0xbc5a1bc3	-0.013312283
226	0x3d765667	0.060140993
227	0x3e0c7b81	0.13718988
228	0x3e337c8a	0.17527977
229	0xbd1026c2	-0.035193212
230	0x3debc874	0.11512843
231	0x3c842995	0.01613311
232	0xbe2f130f	-0.17097114
233	0x3c04f812	0.008115785
234	0xbdb95722	-0.090498224
235	0x3c8b3632	0.016993616
236	0x3d019a11	0.03164107
237	0xbd7c77fd	-0.061637867
238	0xbc96d30b	-0.01841118
239	0x3df283dc	0.118415564
240	0xbe65c25d	-0.22437425
241	0x3e2f66cd	0.17129059
242	0xbcbf56f9	-0.023356901
243	0xbd959abd	-0.073049046
244	0xbcf11130	-0.029427141
245	0x3de3eaeb	0.111287914
246	0x3e283cf8	0.16429508
247	0x3e3d2c32	0.1847389
248	0x3c72a507	0.014809853
249	0x3da5cd1b	0.080957614
250	0xbdaa5a35	-0.08317987
251	0xbd977e26	-0.07397108
252	0x3e1c185a	0.15243664
253	0xbccd0fa9	-0.025031881
254	0xbe444f89	-0.19170965
255	0x3dd30d09	0.10305221

weight f4 [64, 64]
0	0xbd99857e	-0.07496165
1	0xbda0270e	-0.07819949
2	0xbd9f66dc	-0.07783291
3	0xbcc70973	-0.024296498
4	0x3d9fc0af	0.07800423
5	0x3b7dcedd	0.0038728036
6	0xbe071bc7	-0.1319419
7	0x3cf4aad6	0.029866617
8	0xbdbe27c1	-0.09284926
9	0xbe035611	-0.128258
10	0xbe11f7f7	-0.14254747
11	0xbd743d97	-0.05962905
12	0xbe09837a	-0.1342906
13	0xbdb1af91	-0.08676065
14	0xbe26440b	-0.16236894
15	0xbd972d4e	-0.07381688
16	0x3ca18c2d	0.019720161
17	0xbd86b91c	-0.065782756
18	0x3e30402c	0.1721198
19	0xbdc118b1	-0.09428538
20	0xbd7cfe4f	-0.061765965
21	0x3c80c32d	0.015718067
22	0x3d235290	0.03987366
23	0x3d7ae6a3	0.06125511
24	0xbdf687dc	-0.12037632
25	0xbe311fda	-0.17297307
26	0xbd6955b0	-0.056966484
27	0xbdbfe020	-0.0936892
28	0xbd85aeb7	-0.06527465
29	0x3e4e80d3	0.2016633
30	0x3e0cea84	0.13761336
31	0xbd3128fc	-0.043251976
32	0x3d4ab00f	0.04948431
33	0x3db936ea	0.09043677
34	0xbddb581b	-0.10710164
35	0x3da9a4d2	0.0828339
36	0x3bec727c	0.007215796
37	0x3e0ac330	0.1355102
38	0x3e28e8db	0.16495077
39	0x3dd6bff3	0.1048583
40	0x3e00be18	0.12572515
41	0x3c3d8529	0.011567392
42	0xbdf1ba41	-0.11803103
43	0x3d97784b	0.07395991
44	0x3c8aa9b3	0.016926622
45	0xbe281241	-0.16413213
46	0x3db317ed	0.08744798
47	0x3d76243f	0.06009316
48	0xbe212568	-0.15736926
49	0x3dd21c21	0.102592714
50	0x3c80a427	0.015703274
51	0xbde6d6b7	-0.11271422
52	0x3e061665	0.1309448
53	0x3e66e100	0.22546768
54	0x3e0596ed	0.13045855
55	0xba52fa81	-0.0008048192
56	0xbd8c4d62	-0.06850697
57	0xbc926691	-0.017871173
58	0xbcaaf32a	-0.020867903
59	0xbdf52953	-0.119707726
60	0x3e57f688	0.21090138
61	0xbdc82d21	-0.09774233
62	0x3d8caa5d	0.06868432
63	0x3dd41c31	0.103569396
64	0x3d816281	0.06317616
65	0xbe13ceec	-0.14434403
66	0x3df427c2	0.11921646
67	0x3d055971	0.032556
68	0xbbc2ac89	-0.005940978
69	0xbe64f116	-0.22357592
70	0xbe4ff44c	-0.20308036
71	0x3d92b75e	0.07163881
72	0xbd966d2c	-0.07345042
73	0xbc17cfe1	-0.009265871
74	0x3ddb2b25	0.107015885
75	0x3ce8f23a	0.028435815
76	0x3d00d8ae	0.03145664
77	0xbbfedf08	-0.0077780522
78	0xbde1f612	-0.11033262
79	0xbe171bf7	-0.14756761
80	0x3e00ad81	0.12566186
81	0xbe134db1	-0.14385106
82	0xbd97601d	-0.07391379
83	0x3baea5af	0.0053298096
84	0xbcf286b2	-0.029605243
85	0xbd4f6521	-0.050633553
86	0x3d8e36b8	0.069440305
87	0xbe3fadc4	-0.1871863
88	0xbccac25d	-0.024750883
89	0xbdb62036	-0.088928625
90	0x3d05722e	0.032579593
91	0x3d9df450	0.077126145
92	0xbc9270a3	-0.017875975
93	0xbd35dca1	-0.04439986
94	0x3dd1d7d6	0.102462456
95	0xbd2bfecd	-0.041991044
96	0x3d516c06	0.05112841
97	0x3d861ef5	0.06548873
98	0x3ddcee12	0.10787596
99	0xbcb1e696	-0.021716397
100	0xbd829131	-0.06375349
101	0x3dab9a54	0.08379045
102	0x3db6d67b	0.08927628
103	0xbd847f7c	-0.06469628
104	0x3d98ba80	0.07457447
105	0x3db6607a	0.0890512
106	0x3c8c4c4f	0.01712623
107	0xbe0f4331	-0.13990475
108	0xbdcb5417	-0.09928148
109	0x3c8a1b62	0.01685876
110	0xbcb3347f	-0.021875618
111	0x3cdd2e18	0.026999518
112	0x3dcfea1b	0.10152074
113	0xbc1932c0	-0.009350479
114	0x3e6fd315	0.23420365
115	0xbd1155eb	-0.03548233
116	0xbb983916	-0.004645477
117	0xbdf469c1	-0.119342335
118	0xbd860840	-0.06544542
119	0x3d99ab40	0.075033665
120	0x3c437757	0.011930308
121	0x3dc34074	0.09533778
122	0x3d01e60c	0.03171353
123	0x3d8911d5	0.06692854
124	0xbe1a10d3	-0.1504548
125	0xbb001bb2	-0.0019547758
126	0x3e4058b5	0.18783839
127	0x3e4065ff	0.18788908
128	0xbe1e1cce	-0.15440676
129	0x3db3c8e8	0.08778554
130	0x3e1d399a	0.15354005
131	0xbdc8e26d	-0.09808812
132	0xbd95c2f4	-0.07312575
133	0xbd85823e	-0.06518982
134	0x3d972606	0.07380299
135	0x3dc21839	0.09477276
136	0x3d06c77a	0.03290508
137	0x3d7f38aa	0.0623099
138	0xbdf0d7c6	-0.117599055
139	0x3dd9336d	0.10605512
140	0x3e46a588	0.19399083
141	0x3c8f47a3	0.017490214
142	0x3e20e6f8	0.15713108
143	0xbdc56b38	-0.09639591
144	0xbd24cc25	-0.04023375
145	0xbe02519a	-0.12726441
146	0x3d9e7986	0.077380225
147	0x3a9cf574	0.0011975006
148	0xbd47c8dd	-0.048775543
149	0xbe27421c	-0.16333812
150	0xbc99c2e0	-0.018769681
151	0xbdf851f0	-0.12125003
152	0xbe00407d	-0.125246
153	0xbe72d087	-0.2371236
154	0xbe1f4ab8	-0.15555847
155	0x3d345b14	0.04403217
156	0x3d76801e	0.060180776
157	0x3e055043	0.13018899
158	0x3c890b55	0.016729036
159	0x3d45080f	0.04810339
160	0x3dc82109	0.09771926
161	0x3e41ee0e	0.18938467
162	0x3d8c08b5	0.06837598
163	0xbd6dbf97	-0.058044042
164	0xbd8e17b5	-0.069381155
165	0x3deb237f	0.1148138
166	0x3dd77682	0.105206504
167	0x3e1c31f7	0.15253435
168	0x3d1ef490	0.03880745
169	0xbe14817e	-0.14502522
170	0x3cef423a	0.029206384
171	0xbcbab6f1	-0.022792311
172	0x3c20f72a	0.0098245535
173	0xbc065a0a	-0.008200178
174	0x3da031c4	0.07821992
175	0xbd7a930e	-0.0611754
176	0xbd68558d	-0.056722213
177	0x3bbc1c87	0.0057407054
178	0x3ccb9d23	0.024855202
179	0x3cb42ee0	0.021995008
180	0xbe3f7419	-0.18696631
181	0xbd22a4f9	-0.03970811
182	0x39b9445c	0.0003533688
183	0xbe27ba31	-0.1637962
184	0x3d460465	0.048344035
185	0x3e8666a5	0.26250187
186	0xbd83d77f	-0.06437587
187	0xbd977da0	-0.07397008
188	0x3dcbe99f	0.09956669
189	0xbc4a2273	-0.012337315
190	0xbdfcbd1c	-0.12340757
191	0x3d80dac4	0.06291726
192	0xbe1fe0d4	-0.15613109
193	0xbce76bb8	-0.028249606
194	0x3db5a314	0.08868995
195	0x3aa4275d	0.0012523938
196	0x3d55e512	0.05222041
197	0xbd662c8b	-0.056194823
198	0xbbaf5ae6	-0.005351412
199	0x3e7dbbcf	0.24778675
200	0xbe2fa5f2	-0.17153147
201	0xbdea7ec7	-0.11449962
202	0x3d548133	0.051881026
203	0xbdf69385	-0.12039856
204	0xbb826fdc	-0.00398062
205	0x3e4d3879	0.20041074
206	0x3cde8e4c	0.027167462
207	0xbd8c72d7	-0.068578415
208	0x3e401476	0.18757805
209	0xbdefd3c5	-0.11710314
210	0xbdaffd12	-0.08593191
211	0x3dee6ea7	0.11642199
212	0x3dc6fd89	0.09716327
213	0x3e035947	0.12827025
214	0xbe032721	-0.12807895
215	0x3d6360f0	0.05551237
216	0x3de02760	0.1094501
217	0xbddbebac	-0.1073831
218	0x3d580c99	0.05274639
219	0xbe1bbf49	-0.15209688
220	0xbe06e7b0	-0.1317432
221	0x3bb4c378	0.0055164658
222	0xbccd4922	-0.025059287
223	0xbd34bb44	-0.044123903
224	0x3e50fbff	0.20408629
225	0x3da57f41	0.080809124
226	0x3c34a2d0	0.011025146
227	0xbdf8728f	-0.12131225
228	0xbcdc1e77	-0.026869996
229	0xbcc0637c	-0.023484938
230	0x3da501ad	0.0805696
231	0xbcff3feb	-0.031158408
232	0xbe5c4beb	-0.21513335
233	0xbd24238a	-0.040072955
234	0x3dec63a3	0.11542442
235	0xbdf8ed34	-0.12154618
236	0x3db79799	0.08964462
237	0xbd1e53e4	-0.038654223
238	0xbce76d29	-0.028250294
239	0x3d68466d	0.05670779
240	0x3dd67e65	0.104733266
241	0xbad55a68	-0.0016277554
242	0x3d895bb0	0.06706941
243	0xbcca5504	-0.024698742
244	0x3ca070f7	0.019585116
245	0x3e0129de	0.12613627
246	0x3e0e9e9e	0.13927695
247	0x3e1a5777	0.15072428
248	0x3e5f4a30	0.21805644
249	0x3defc6b1	0.11707819
250	0xbd116086	-0.035492443
251	0x3e6e2137	0.23254858
252	0x3c8c655a	0.017138172
253	0xbd6bf138	-0.05760309
254	0x3ccbfba6	0.024900269
255	0x3be88a0f	0.007096536

weight f4 [64, 64]
0	0x3b8aa2cd	0.004230833
1	0x3ca7ea70	0.02049753
2	0x3d8e7dae	0.06957565
3	0x3d98a790	0.07453835
4	0xbb95b260	-0.004568383
5	0x3dd7d168	0.10537988
6	0xbd856533	-0.06513443
7	0x3d3cd23f	0.046098944
8	0x3c1d227c	0.009590741
9	0xbde7ecf2	-0.113244906
10	0xbe083c14	-0.13304168
11	0x3bfe29b5	0.0077564367
12	0x3c02a789	0.007974514
13	0xbd27eed7	-0.04099926
14	0x3d84a0ed	0.06476007
15	0x3e1a1f0c	0.15050906
16	0xbdb58048	-0.08862358
17	0x3d87fff2	0.066406146
18	0x3d884793	0.06654277
19	0xbe07bc5f	-0.13255452
20	0x3d4ed712	0.050498076
21	0xbd01647f	-0.03158998
22	0xbd9bc1e5	-0.07605342
23	0x3e014bd5	0.12626584
24	0x3cd35ac2	0.025800113
25	0xbd8b69b8	-0.068072736
26	0x3b917686	0.004439178
27	0x3e35c40c	0.17750567
28	0xbd82f873	-0.06395044
29	0x3daa64e9	0.08320028
30	0xbd39ec1b	-0.045391183
31	0x3e03cdb9	0.12871446
32	0x3d428b0f	0.047495898
33	0x3dcb84c4	0.099374324
34	0x3d3656ca	0.044516362
35	0xbcaee30c	-0.021348499
36	0xbda5782d	-0.08079562
37	0xbdefa896	-0.11702077
38	0xbddb5f7a	-0.1071157
39	0xbdb459d9	-0.088061996
40	0x3da18ab5	0.078877844
41	0xbd0df5a6	-0.034658097
42	0xbcf1b195	-0.029503623
43	0x3d5d25fe	0.05399131
44	0xbc227088	-0.009914525
45	0x3e2e16c7	0.17000876
46	0xbd4cc324	-0.049990788
47	0xbd5b042a	-0.053470768
48	0x3db1ba39	0.08678097
49	0xbb617e8b	-0.00344077
50	0xbda18f24	-0.0788863
51	0xbdca05ba	-0.098643735
52	0xbc6cb0d1	-0.014446453
53	0xbdd6a751	-0.10481132
54	0x3de7eaea	0.11324103
55	0x3a1be624	0.00059470744
56	0xbd9858b8	-0.07438797
57	0xbd44459a	-0.04791794
58	0xbd5c7f8a	-0.05383257
59	0x3dfa9a62	0.122364774
60	0xbd9eed3c	-0.077600926
61	0x3d32e912	0.043679304
62	0x3d23d8dd	0.04000174
63	0xbe17c9c4	-0.14823061
64	0xbe0d452a	-0.13795915
65	0xbe19c99a	-0.15018311
66	0xbe440662	-0.1914306
67	0xbe7acf78	-0.24493206
68	0x3d89d2c7	0.06729656
69	0x3d270024	0.04077162
70	0x3d2a8e7c	0.04163979
71	0x3cca644c	0.024706028
72	0xbd97d33a	-0.07413335
73	0xbce89ba1	-0.028394522
74	0x3e0158cb	0.12631528
75	0xbdbd3577	-0.09238713
76	0xbb146644	-0.0022643963
77	0x3d622663	0.05521239
78	0xbcb23a5f	-0.02175635
79	0x3d94b602	0.07261278
80	0xbd354427	-0.04425445
81	0xbd856e81	-0.065152176
82	0x3d916f10	0.071012616
83	0xbced5a5c	-0.02897375
84	0x3e2686d5	0.16262372
85	0x3d4f0cbe	0.05054926
86	0x3d826f5b	0.063688956
87	0xbc87dcfe	-0.01658487
88	0xbdf6b485	-0.1204615
89	0x3df07435	0.11740915
90	0x3e1978cb	0.14987485
91	0x3d59d031	0.053177062
92	0x3d94bc20	0.072624445
93	0x3d0cbb81	0.034358505
94	0xbd296857	-0.04135927
95	0xbd3f28d2	-0.04666979
96	0xbcff265d	-0.031146223
97	0xbd46d6fb	-0.048544865
98	0x3d4d1674	0.05007024
99	0xbd5182ad	-0.051150013
100	0x3c4772b0	0.01217334
101	0xbde21a06	-0.1104012
102	0xbd20bcec	-0.03924267
103	0xbe136ba8	-0.14396536
104	0x3c062a2f	0.008188768
105	0x3ddfd287	0.10928827
106	0xbdf52dc7	-0.11971622
107	0xbcf0ff35	-0.029418567
108	0xbc809abe	-0.015698787
109	0x3e15563e	0.1458368
110	0x3de56183	0.112002395
111	0xbdc029b1	-0.09382952
112	0x3dee35e6	0.11631374
113	0xbe29e307	-0.1659051
114	0x3cf7da17	0.03025536
115	0x3d4fe37a	0.050754048
116	0x3c38c387	0.011277086
117	0xbe17610a	-0.14783111
118	0x3d72b765	0.05925693
119	0xbda5a519	-0.080881305
120	0x3dcde540	0.100534916
121	0xbe0471cf	-0.1293404
122	0x3da9f414	0.08298507
123	0x3d9b3597	0.07578581
124	0xbe50a857	-0.20376717
125	0x3cd48d26	0.025946211
126	0xbd8c305d	-0.06845162
127	0xbdc2b530	-0.09507215
128	0x3e3c6ec2	0.18401626
129	0x3c9d0ec8	0.019172087
130	0x3d5ce19a	0.053926088
131	0xbd70364c	-0.05864553
132	0xbda75cbc	-0.081719846
133	0xbcb36396	-0.021898072
134	0xbdd7f2be	-0.10544346
135	0xbd2a0549	-0.041508947
136	0xbd29126c	-0.041277334
137	0x3e15da1c	0.14633983
138	0x3cc082f3	0.023499941
139	0x3e1e6bd5	0.15470822
140	0xbd4ba9f1	-0.049722616
141	0xbde49bfe	-0.11162566
142	0xbc7c77dd	-0.015409437
143	0xbc6a9e7b	-0.014320011
144	0x3dcd463c	0.10023162
145	0xbd091fa9	-0.03347746
146	0xbc54b7b9	-0.012983256
147	0x3e5ce6fc	0.21572489
148	0x3dfe5108	0.12417799
149	0x3da38cd3	0.079858445
150	0x3cb87f72	0.022521708
151	0xbe2746b7	-0.1633557
152	0x3dac6418	0.08417529
153	0xbcda8453	-0.026674425
154	0xbdbd3288	-0.09238154
155	0xbdacbec9	-0.08434827
156	0xbd5e6944	-0.054299608
157	0x3c7e2e65	0.015513991
158	0xbdbd1a44	-0.092335254
159	0xbcb1555d	-0.02164715
160	0x3ccdcf9d	0.025123412
161	0xbd36b204	-0.044603363
162	0x3cfb87b9	0.030704366
163	0x3db0a812	0.08625807
164	0xbd1b4c10	-0.037914336
165	0x3c4daf82	0.012554051
166	0x3d924ebc	0.07143924
167	0x3d36a5a3	0.044591557
168	0x3cea6ed9	0.02861731
169	0x3dab61c3	0.08368256
170	0xbddd1c1c	-0.10796377
171	0xbc7decfd	-0.015498397
172	0x3d8c5b0b	0.068533026
173	0x3bd1a1e9	0.006397475
174	0xbddcbd93	-0.10778346
175	0xbd914142	-0.07092525
176	0xbd6855be	-0.056722395
177	0x3d2a1465	0.041523356
178	0xbc901fb2	-0.017593239
179	0x3c58e437	0.013238004
180	0xbdef9770	-0.11698806
181	0xbe00136d	-0.1250741
182	0x3de0e871	0.10981835
183	0x3d533ef0	0.051573694
184	0x3d71f8d4	0.05907519
185	0x3d2161da	0.03939996
186	0x3c84c484	0.016206987
187	0xbdba4e33	-0.090969466
188	0xbd950324	-0.0727599
189	0x3db206a7	0.08692675
190	0x3d1b7abe	0.037958853
191	0xbda5ca8a	-0.08095272
192	0xbc9c6ecd	-0.019095803
193	0x3e445ae1	0.19175293
194	0x3dee82df	0.116460554
195	0xbca1b274	-0.019738413
196	0xbda03441	-0.07822467
197	0xbc0c84d8	-0.008576594
198	0xbc0f2b59	-0.008738362
199	0x3d89379b	0.06700059
200	0x3d332e59	0.043745372
201	0x3d227997	0.03966674
202	0x3d51a458	0.05118212
203	0xbbc38753	-0.0059670596
204	0xbc611cc7	-0.013739771
205	0xbdb85cd4	-0.090020806
206	0x3daa02a3	0.08301284
207	0x3cd760d2	0.026291285
208	0xbdfcef02	-0.123502746
209	0x3d394734	0.04523392
210	0x3ce8295f	0.02834004
211	0x3d54a91d	0.05191909
212	0x3c951ff8	0.01820372
213	0xbe1d2305	-0.1534539
214	0xbd8f0afd	-0.06984518
215	0x3c378bf7	0.011202804
216	0xbcd7256a	-0.026262958
217	0x3da19465	0.07889632
218	0xbe11ba64	-0.14231259
219	0x3da332a0	0.0796864
220	0x3d23bff4	0.039977983
221	0xbc8152c2	-0.015786532
222	0x3d9b0f39	0.07571263
223	0xbd982803	-0.07429507
224	0x3d551c4b	0.052028935
225	0xbe0e5f3c	-0.13903517
226	0x3e3c9891	0.18417574
227	0x3e1b7d48	0.1518451
228	0xbde44828	-0.11146575
229	0x3d5d6f51	0.054061238
230	0xbd967823	-0.07347133
231	0xbdb9fac1	-0.09081031
232	0x3e011db3	0.12608986
233	0xbd8aecf6	-0.06783478
234	0xbd681128	-0.056656986
235	0x3cccbaaf	0.024991361
236	0x3e0f1096	0.13971171
237	0xbd829329	-0.06375725
238	0xbd936f66	-0.07198982
239	0xbc907c9f	-0.017637549
240	0x3ce33cbe	0.027738925
241	0x3c692a55	0.014231284
242	0x3c0e9d74	0.008704532
243	0xbdb3fc9c	-0.08788416
244	0xbc9fa3c9	-0.019487279
245	0x3d40888a	0.047005214
246	0xbd39d667	-0.045370486
247	0x3d8eb82a	0.0696872
248	0xbdc73a6a	-0.097279385
249	0x3d524cc5	0.051342744
250	0x3d18a525	0.03726687
251	0xbc0a8f3f	-0.008457004
252	0xbddceae2	-0.10786988
253	0xbc6aedf8	-0.014338963
254	0xbd356ff9	-0.04429624
255	0x3b74e57b	0.0037368226

weight f4 [64]
0	0x3f832997	1.0247067
1	0x3f852450	1.0401707
2	0x3f83825e	1.027416
3	0x3f7c1d6a	0.9848238
4	0x3f71f0c2	0.9450799
5	0x3f88bc0f	1.0682391
6	0x3f873133	1.056189
7	0x3f82a286	1.0205848
8	0x3f761dd3	0.9613926
9	0x3f859e8c	1.043901
10	0x3f7a334b	0.97734517
11	0x3f880114	1.0625329
12	0x3f7c7042	0.9860879
13	0x3f8b6a0f	1.0891742
14	0x3f932912	1.1496909
15	0x3f8815dd	1.0631672
16	0x3f89b722	1.0759013
17	0x3f65c2b5	0.89750224
18	0x3f6b9a89	0.92032677
19	0x3f8441b9	1.0332557
20	0x3f7d1224	0.98855805
21	0x3f78d1d7	0.9719519
22	0x3f6326ce	0.88731086
23	0x3f782ded	0.9694508
24	0x3f630a70	0.886878
25	0x3f83a048	1.0283289
26	0x3f8cf5ed	1.101255
27	0x3f8420b6	1.0322483
28	0x3f84c803	1.0373539
29	0x3f692223	0.91067713
30	0x3f7014a0	0.9378147
31	0x3f773289	0.96561486
32	0x3f7fc167	0.99904484
33	0x3f808386	1.0040138
34	0x3f7da473	0.99079055
35	0x3f64d960	0.8939419
36	0x3f83b05e	1.0288198
37	0x3f89c05b	1.0761827
38	0x3f53b0d2	0.8269168
39	0x3f80dfdb	1.0068315
40	0x3f835fe5	1.026364
41	0x3f6cf823	0.92566127
42	0x3f826aba	1.018882
43	0x3f8b71b6	1.0894077
44	0x3f66da80	0.90177155
45	0x3f7ee428	0.9956689
46	0x3f725629	0.9466272
47	0x3f7560bf	0.9585075
48	0x3f798cf6	0.97480714
49	0x3f80c624	1.0060468
50	0x3f82ed23	1.0228618
51	0x3f795a2c	0.97403216
52	0x3f854589	1.0411845
53	0x3f840c15	1.0316187
54	0x3f6e6ae6	0.93131864
55	0x3f8b1b81	1.0867769
56	0x3f7f2c26	0.9967674
57	0x3f8cc016	1.099612
58	0x3f878c38	1.0589666
59	0x3f8f2016	1.1181667
60	0x3f8973f3	1.073851
61	0x3f81985a	1.0124619
62	0x3f805a94	1.0027642
63	0x3f7ce940	0.9879341

bias f4 [64]
0	0xbce062e2	-0.027390901
1	0x3d273088	0.040817767
2	0x3d038767	0.03211155
3	0xbbf611d0	-0.0075094476
4	0x3c0989af	0.008394643
5	0xbd679bd1	-0.056545082
6	0x3d3f090d	0.04663949
7	0x3d41d2d2	0.047320195
8	0x3ceb3433	0.028711414
9	0x3d0b1e0e	0.03396421
10	0xbd74d8a0	-0.059776902
11	0xbd5e688e	-0.05429893
12	0x3d88ab57	0.066733055
13	0xbd375234	-0.04475613
14	0xbdb08b03	-0.086202644
15	0xbd4341a9	-0.04767004
16	0x3d875754	0.066084534
17	0x3d81a064	0.0632942
18	0x3ce1cd77	0.027563794
19	0xbc0ad1e3	-0.008472892
20	0xbdb48158	-0.08813733
21	0xbc461798	-0.012090586
22	0xbcd827ed	-0.026386226
23	0xbd1c70f8	-0.038193673
24	0x3c117eec	0.008880358
25	0x3c5237a6	0.01283065
26	0xbd0c09fa	-0.034189202
27	0xbdaa9809	-0.0832978
28	0x3d24b3ac	0.04021041
29	0xbd8489f6	-0.064716265
30	0x3d1df98a	0.038568057
31	0xbc2149a1	-0.009844215
32	0x3d0ebab0	0.034846008
33	0xbd831c43	-0.06401875
34	0xbcd354ca	-0.025797267
35	0x3c643013	0.013927477
36	0x3c6d9f24	0.014503274
37	0x3db3423d	0.08752868
38	0x3c9d55c3	0.019205933
39	0xbcdfca21	-0.027318062
40	0x3d38d32f	0.045123275
41	0x3bef8513	0.007309565
42	0xbcedb2a4	-0.029015847
43	0x3b04c69a	0.0020259977
44	0x3d30233b	0.04300235
45	0xbcab9c12	-0.020948444
46	0xbcd60934	-0.026127435
47	0x3cf32f88	0.02968575
48	0x3ba96722	0.005169765
49	0xbd5d9eae	-0.054106407
50	0x3ce78038	0.028259382
51	0xbcaa5928	-0.020794466
52	0xb97b7593	-0.00023981025
53	0x3d5a9030	0.053360164
54	0xbcecea0c	-0.028920196
55	0x3cd99dcd	0.026564503
56	0x3c21650a	0.00985075
57	0x3da94e86	0.0826693
58	0xbc8782b9	-0.016541826
59	0xbcf246ef	-0.02957484
60	0x3b941154	0.0045186672
61	0x3ce80391	0.028322013
62	0x3ce428bb	0.027851453
63	0x3daddc26	0.084892556
