calculator/models/model_add2_2024-07-23-12-14.pth (torch, 239714 bytes, 60 tensors)

weight f4 [13, 32]
000000 d6 18 84 bf 88 da 8a bf 9a b0 8b bf ca 84 9d bf
       -1.0320079 -1.084794 -1.091327 -1.2306149
000010 44 12 00 3f d9 89 90 be 6e b1 45 3e c1 26 b6 bd
       0.5002787 -0.2823017 0.19305965 -0.088941105
000020 7d 4b dc 3e 1c 7a 30 3f 0c 7a 94 bf e7 2a 89 3f
       0.43026343 0.68936324 -1.1599746 1.0716218
000030 db 92 0b bf 97 35 41 be 1f 0d 28 be 50 fe 97 3f
       -0.5452096 -0.18868099 -0.16411255 1.1874485
000040 2b ff b9 3f 39 54 47 3e 20 61 40 3f 1b 36 14 3e
       1.4530996 0.19465722 0.751482 0.14473765
000050 ed 92 49 bf a0 50 c1 3e 60 cd 3d 3f 5d 18 87 3f
       -0.78739816 0.37756824 0.741415 1.055431
000060 37 89 4e be 50 76 74 bf 23 fd 3c 3f 51 aa 1d 3e
       -0.20169531 -0.9549303 0.73823756 0.15397002
000070 48 bf 39 3f 31 d1 08 bf 99 38 7b 3f 0e e6 da 3f
       0.725575 -0.534442 0.98133236 1.7101457
000080 35 ea 34 bf 6f c5 32 3c c5 a8 33 3f 71 a5 83 be
       -0.7066987 0.01091133 0.70179397 -0.2571216
000090 5d e1 81 bd 99 eb 95 3d 86 16 ef be 29 10 89 be
       -0.06341813 0.07320327 -0.46696872 -0.26770142
0000a0 72 56 87 be 38 d6 80 be 7e 68 9b 3e 12 be af bf
       -0.2643314 -0.25163436 0.3035316 -1.372988
0000b0 5c 8b 4d bf 21 5f 38 3f 55 6d 0c bf e9 3d 94 be
       -0.8029077 0.72020155 -0.5485433 -0.28953484
0000c0 14 d0 38 3f f8 ec 3a bf 18 ef 60 3f 39 30 1a 3e
       0.721925 -0.73017836 0.8786483 0.15057458
0000d0 29 a9 64 bf f2 b1 9a 3f 95 0e 8b 3f 37 7c 07 bf
       -0.8932062 1.2085555 1.0863825 -0.5292391
0000e0 b2 8e 24 3f 85 37 b3 bf a0 1e 93 3e fe 7b a3 bd
       0.64280236 -1.4001318 0.28734303 -0.07982634
0000f0 d4 92 e2 3e 41 b2 5b 3f 8c 1b 9c 3f df 2b fb be
       0.44252646 0.8581887 1.2195907 -0.49056908
000100 db 69 83 bf ec 9d 61 3e f6 77 ad 3e ad d5 17 bc
       -1.026668 0.22032899 0.33880585 -0.009267253
000110 29 ee 2d 3d 21 df a2 3e 4a 3b 51 bf b1 3c 80 be
       0.042463455 0.3181086 -0.8173109 -0.25046304
000120 94 29 d5 3e 2d cb 91 3e bd 0e 8b 3e 11 bb 9c 3f
       0.41633284 0.28475323 0.27159682 1.2244588
000130 94 7e 02 bf 86 ea 39 3f 8a a1 48 be 4f 62 6e 3e
       -0.5097439 0.7262348 -0.19592872 0.23279689
000140 00 9a 6c 3f a0 88 00 bf 17 80 32 3f 70 0d 14 bf
       0.92422485 -0.50208473 0.697267 -0.57833004
000150 e8 81 69 bf 58 59 0c bf d1 6a 87 3e b9 25 fb be
       -0.91213846 -0.5482383 0.26448682 -0.49052218
000160 38 9c 74 3f a8 1b 2e bf f0 99 25 3f 6e 87 05 bf
       0.9555087 -0.6801095 0.64688015 -0.52159774
000170 eb c6 7c 3e 58 9e 23 be 6d 4a 13 3f 05 78 23 bf
       0.24685256 -0.15978372 0.5753544 -0.6385501
000180 a1 87 40 bf 31 19 c2 3e 94 c6 84 3e 91 e1 a8 3e
       -0.75206953 0.37909845 0.25932753 0.32984594
000190 28 7a 73 be 3d 0f ee 3d 9f 7b 4c bf a8 1f 82 be
       -0.23777068 0.11624 -0.7987613 -0.25414777
0001a0 d4 bd cb 3e 78 5b 46 3e 83 f2 c7 3e d3 9b 84 3f
       0.39793265 0.1937083 0.3905221 1.0360054
0001b0 dc 77 b8 be fd 1c 50 3f 08 1c 8d be 23 8e 1c ba
       -0.36028945 0.8129423 -0.2756045 -0.0005972108
0001c0 66 82 4a 3f d2 09 4e be 95 c0 92 3e d7 62 0f bf
       0.7910522 -0.20120934 0.28662553 -0.5601019
0001d0 ec df 9c be 9e 11 5b be 1e 95 af be a3 77 6f 3d
       -0.3063959 -0.21393439 -0.34293455 0.058463704
0001e0 56 3d 86 3f 87 3a e8 be 5b 15 f2 3e 3e d1 10 bf
       1.0487468 -0.45357153 0.47281918 -0.5656928
0001f0 7a 9e 91 bd b3 cd b7 bc 98 5b d1 3e ea 7b e3 be
       -0.07110305 -0.022436952 0.40890193 -0.44430476
000200 86 b7 47 bf a5 68 5b 3e 44 26 a4 3e fb 80 a9 3e
       -0.7801441 0.21426637 0.32060444 0.33106217
000210 bc 4a 0d 3d da 34 b3 3e b7 3e 2a bf 3d ff 10 bf
       0.0344951 0.3500126 -0.66501945 -0.5663946
000220 3b 30 63 3e 74 b4 6f be 7b 37 dd 3e a3 85 3b 3f
       0.22186367 -0.23408681 0.4320639 0.7325079
000230 f7 b8 ab be b9 30 be 3d ff 2d 5b be 8d a5 0f be
       -0.33539554 0.09286637 -0.21404265 -0.14027996
000240 0c 43 83 3f a2 48 d6 bd 47 4a ab be 00 e6 da be
       1.0254836 -0.10463072 -0.33455107 -0.427536
000250 de ac ab be 58 73 a5 3c 93 98 9f be f1 a5 bc 3e
       -0.33530325 0.020196602 -0.31171092 0.36845353
000260 8c 55 5a 3f d6 be da bd 4b 45 98 3e 18 bd 3b bf
       0.85286784 -0.1068093 0.29740366 -0.7333541
000270 b6 e2 c4 be be e8 9b be 7b 6d 8e 3e ee 65 f2 be
       -0.38454217 -0.30451006 0.27817902 -0.4734339
000280 74 dd 27 bf 62 35 44 3e 30 f8 03 3e e8 ab 20 3f
       -0.65572286 0.19160989 0.12887645 0.6276231
000290 b9 8e 2d 3d d7 3a 1b 3e 76 55 22 bf bd a8 ee be
       0.04237244 0.15159164 -0.63411653 -0.46613112
0002a0 94 69 1d 3e 18 b1 3f be 65 97 5b 3e b8 5c 9d 3e
       0.15372306 -0.187199 0.21444471 0.307348
0002b0 a1 0e ef be 79 3e 0b be 50 13 a2 be 72 69 db be
       -0.46690848 -0.1359805 -0.3165536 -0.42853886
0002c0 39 4a 0f 3f a1 9c 65 bd 71 85 f8 be 8f 3b fc be
       0.5597263 -0.056057576 -0.48539308 -0.4926419
0002d0 0d 50 42 3e 12 34 02 3e 3c 59 05 be 3a 66 91 3e
       0.1897585 0.12715176 -0.13022321 0.28398305
0002e0 79 5e 37 3f 55 ed 04 3f 98 4a d3 3d b4 d4 72 bf
       0.7162853 0.5192464 0.10316962 -0.9485581
0002f0 59 dd e9 bd 97 9e 11 3e a2 4b c2 bc ae 50 9a 3d
       -0.11419172 0.14220653 -0.023717705 0.0753492
000300 ea 5e 10 bf 99 26 59 3e 57 8d 8a bd 24 d9 2a 3f
       -0.5639483 0.2120613 -0.0676524 0.6673758
000310 37 c2 16 3e 73 b2 86 bd 45 cf d9 be d1 42 b3 be
       0.14722525 -0.06577005 -0.42540947 -0.35011914
000320 a4 0a 7c 3e f0 06 21 bf 92 6d da 3d 53 59 a5 3e
       0.24613434 -0.6290121 0.1066543 0.3229471
000330 8b 14 dd be 0f 26 7f be e7 63 e8 be 3c d3 05 bf
       -0.43179736 -0.24916862 -0.4538872 -0.52275443
000340 6e 00 31 3f 6d 6a 3c be e9 67 18 bf a6 31 fb be
       0.6914128 -0.18399973 -0.59533554 -0.49061316
000350 8a ac 8c 3e 5e 45 e9 3e 01 7a 8a 3c dd 62 c8 3d
       0.27475387 0.45560735 0.01690388 0.09784482
000360 97 88 9c 3e 55 a8 33 3f 8b 08 91 be 97 47 5b bf
       0.3057296 0.7017873 -0.2832683 -0.8565611
000370 75 88 c0 bd d5 87 99 be 8d 4e a8 be 90 33 ea bc
       -0.09401027 -0.29986444 -0.3287243 -0.02858904
000380 00 a1 01 bf 5b 01 ae 3d 00 5b a5 be a6 f6 88 3f
       -0.5063629 0.08496352 -0.3229599 1.0700271
000390 1c 8b 22 bd 29 f9 01 be f8 59 06 bf 5e 45 bd be
       -0.039683446 -0.12692703 -0.5248103 -0.36966985
0003a0 50 b6 12 3e cd 00 3e bf c7 13 07 3f 39 34 72 bd
       0.14327359 -0.7421997 0.5276455 -0.059131835
0003b0 09 bb 18 bf fb 7a bc be 39 6b c0 be 7e 23 14 bf
       -0.59660393 -0.36812577 -0.37581804 -0.57866657
0003c0 d2 be 0a 3f 39 e6 47 bd 72 b5 51 bf 44 08 cf be
       0.5419742 -0.04880354 -0.8191749 -0.40435994
0003d0 49 54 9f 3e f9 5f 25 3f 56 c1 95 bd bc 1c 39 3e
       0.31118992 0.6459957 -0.073122665 0.18077368
0003e0 bd 85 a5 3e 88 c6 7f 3f 77 a1 6f bf 1e 20 13 bf
       0.32328597 0.9991231 -0.9360575 -0.5747088
0003f0 d4 86 d3 bd ea 8e d3 bd ea 0d 04 bf 7c 9b 7d 3e
       -0.10328451 -0.10329993 -0.5158373 0.24766344

weight f4 [8, 32]
000000 35 76 92 3e 48 0c 5a 3f 56 ee 89 bf 35 ea f0 be
       0.2860581 0.8517499 -1.0775859 -0.47053686
000010 17 54 0e 3f 99 e4 c0 3f 74 44 25 c0 3b 7e 66 be
       0.5559706 1.5069762 -2.582303 -0.2250909
000020 7f 29 91 3e 5f 2a 6d bf 45 b3 8e be fd b1 ca bd
       0.28351972 -0.9264278 -0.27871147 -0.0989723
000030 fa 69 10 3e 35 3f 29 bf 53 5b 06 3f 1e 89 53 3e
       0.14102927 -0.6611207 0.524831 0.20657775
000040 d6 c7 29 bf 9a 8e 39 3f 3f 7b cd bd 02 84 ed bf
       -0.6632055 0.7248322 -0.10033273 -1.855591
000050 eb 53 e9 be 25 75 0a 40 58 e0 64 3e f4 ac 30 bf
       -0.45571837 2.1634 0.22351205 -0.69013906
000060 1a e9 fc 3f 3c 6b a7 3e 13 87 87 bd 9f 18 17 bf
       1.9758637 0.32699 -0.0661756 -0.59021944
000070 86 1b 32 3f 3e 2e 1f 3e 54 af 5f 3e 54 15 2e 3e
       0.6957325 0.15544984 0.21844226 0.17000324
000080 f0 fe d0 bd 4f 37 b3 3e cc 26 52 3e ea 2f da be
       -0.102048755 0.35003135 0.20522612 -0.4261468
000090 cb f4 0a bf 72 53 78 bf 93 34 d1 bf e8 95 d8 3e
       -0.54279774 -0.9700233 -1.6344169 0.4230187
0000a0 ef f7 2a bf d3 f6 1c 3f de e0 57 3e 4d d2 82 bd
       -0.66784567 0.61314124 0.21081874 -0.06387768
0000b0 e8 92 2e bf b0 3c f7 be 79 7a 80 3e 37 30 86 3e
       -0.6819291 -0.48288488 0.2509344 0.2620866
0000c0 86 fa 46 3f ac 38 44 bf ff bc a6 bf ea b4 87 bf
       0.7772602 -0.76648974 -1.3026427 -1.0602086
0000d0 13 9c 6f 3e 0a 75 fa 3e 24 b6 09 be da d5 54 bd
       0.23399381 0.4891742 -0.13448387 -0.051961757
0000e0 3e e7 fb 3e fb 5d 25 be 4c 6a a3 be e6 76 f1 3c
       0.4919986 -0.16149132 -0.31917036 0.02947564
0000f0 07 0a 67 3f d0 8f 17 bf 37 e6 6d 3f 1d ae 9d 3e
       0.90249676 -0.59203815 0.92929405 0.307969
000100 46 fc 0c 3d d7 1f 71 bf ec 04 77 bf 98 0b 69 3e
       0.034420274 -0.9418921 -0.96491885 0.22758329
000110 bc 95 0f 3f 75 56 0a 3e 06 d9 b4 be 5d f1 ce be
       0.5608785 0.13509543 -0.35321826 -0.4041852
000120 95 87 16 3f 65 ca 78 bf e7 8d d4 bd d9 96 2e bf
       0.5880063 -0.9718383 -0.10378628 -0.68198925
000130 6a 63 bd 3e 70 98 a3 3e 03 dc ea be d2 aa 70 3f
       0.3698991 0.31952238 -0.4587098 0.9401065
000140 4c 7e f8 bc e9 34 8e 3c 7c 32 38 3c 20 45 cf bf
       -0.03033366 0.017359214 0.011242505 -1.619297
000150 87 b6 c3 3e b3 c6 e3 be 02 f7 cc 3e 92 6c 2d 3f
       0.38225195 -0.44487533 0.40032202 0.6774379
000160 54 7c 02 3f 97 0b 18 3d c8 b3 18 3f b2 3a ca be
       0.5097096 0.037120428 0.59649324 -0.39497906
000170 bd 8c a2 3f 87 25 04 3e 47 3f 7a bd c6 66 ab 3d
       1.26992 0.1290494 -0.061095502 0.08369212
000180 9f d1 86 3d 99 d3 8c 3f fd 46 9a 3e bc 6e c1 3d
       0.06582951 1.1002074 0.30132285 0.09444949
000190 56 ea 5e 3f 15 97 e1 be 91 3b 9d bf 80 b1 8f be
       0.8707632 -0.4406058 -1.2283803 -0.2806511
0001a0 57 d2 09 3f ea a8 33 3f fd 9f aa bf 12 5e 14 bf
       0.5383658 0.7017962 -1.3330075 -0.5795604
0001b0 0c 4a 86 be f8 6c 4c bf fa fa d8 3d 0d 09 e4 bc
       -0.26228368 -0.79853773 0.10594745 -0.027836347
0001c0 a1 d8 1d 3e e5 48 4a bf e8 06 91 bd 91 f3 4b bf
       0.15414669 -0.7901748 -0.070813954 -0.7966853
0001d0 79 81 47 3f d2 8b 9e be 9b b2 18 3e 18 79 c4 be
       0.77931935 -0.3096605 0.14911883 -0.38373637
0001e0 02 69 3e 3f 79 03 9f bd e1 b3 27 bf 2c 36 34 bf
       0.7437898 -0.07764334 -0.6550885 -0.7039516
0001f0 2b 77 c1 3c bb d1 9d 3e ef d1 41 3f 15 de f8 bd
       0.023616394 0.30824074 0.7571096 -0.12151734
000200 0a e9 9a bb 41 79 0f bf bb a3 03 3c 46 00 13 be
       -0.0047274875 -0.56044394 0.008034642 -0.14355573
000210 a7 4d b2 3e 5d d4 48 3f 43 f9 11 3e fe 05 4c 3f
       0.3482487 0.7844904 0.14255242 0.79696643
000220 ee 9c 8d bd 57 9f bc bf 4c 44 f8 3e a0 43 63 be
       -0.069146976 -1.4736127 0.48489606 -0.22193766
000230 2c 2c 9d bf 45 76 d0 be 62 8d e4 3e 14 3e 11 3f
       -1.2279105 -0.40715232 0.44639117 0.5673535
000240 ac 35 1c 3e 5f 4a 36 3d ac 31 ea 3e a1 1b 25 be
       0.15254849 0.04450452 0.45741022 -0.16123821
000250 aa c6 39 3e 10 c3 28 3e 83 42 ae bf 91 f4 4d 3f
       0.1814219 0.1648066 -1.3614048 0.80451304
000260 17 95 11 3d 26 55 bd 3e 50 e5 24 3c c1 2d 8d 3d
       0.035542574 0.36979026 0.010064438 0.068934925
000270 2c c4 84 3d 4d 33 10 be b7 3b 1c 3e 5c f9 2b 3d
       0.06482729 -0.1408207 0.15257154 0.041985855
000280 a0 e5 a5 be 3b 62 f6 3e 1d 0a f1 bd b3 7c 49 3e
       -0.32401752 0.4812182 -0.11769507 0.19676475
000290 5f 5b d4 bd 7e c6 c9 bf 09 6b 0d 3e 7b e1 f5 3e
       -0.1036899 -1.57637 0.13810362 0.4802359
0002a0 7b 85 bc be 02 20 1a bf e6 2c 23 be 3e 67 28 be
       -0.36820588 -0.6020509 -0.15935096 -0.16445634
0002b0 5f 8c 19 3f 03 0c 97 ba de 25 4c bd cd ff 5d be
       0.59979814 -0.0011523966 -0.0498408 -0.21679612
0002c0 75 41 48 be b7 cf e1 be 49 12 a8 be 11 04 45 3f
       -0.1955622 -0.44103786 -0.3282645 0.7695933
0002d0 33 b4 99 bf 06 e6 86 bf 04 44 58 3e af 85 99 3e
       -1.2008117 -1.0538948 0.21119696 0.29984805
0002e0 d7 a0 22 3f 13 a6 b1 3e f3 86 f9 3d 2f 3f c0 bc
       0.6352667 0.34697017 0.12183943 -0.023467628
0002f0 b8 bf ef be 07 2a e6 3e 26 03 33 bc 8b ad 43 be
       -0.46825957 0.4495394 -0.010926044 -0.1910917
000300 ab 03 a4 3e b5 40 20 bf 74 1a af 3e ff d6 03 bf
       0.32034048 -0.62598735 0.3419987 -0.51499933
000310 07 8c 1a 3f a1 0f e7 bd 89 6e 9b 3f 28 25 2d bf
       0.60369915 -0.11282278 1.2143108 -0.6763482
000320 96 df d7 3f 07 bb b9 3e 23 51 0e be 6f cf bc 3d
       1.6865108 0.36275503 -0.13898139 0.09219252
000330 4f 52 76 bd 28 51 8a be c0 6e a1 bf 27 4e 96 be
       -0.06013709 -0.27015042 -1.2611923 -0.293565
000340 de 1f c3 3e 69 19 40 3e 35 c9 86 3e d7 99 e4 bd
       0.3811025 0.18759693 0.26325384 -0.11162155
000350 d2 b5 32 3f fb aa 71 3f 01 c6 4b bf 5f 41 34 be
       0.69808686 0.9440152 -0.79599005 -0.17603062
000360 8d 17 ec 3d b6 9d 85 be 38 99 5c be 52 54 7b be
       0.115279295 -0.26096886 -0.21542823 -0.24543884
000370 6f 38 71 bf 32 42 cf 3e 8f 19 73 be 41 54 3a 3e
       -0.94226736 0.4048019 -0.23740219 0.18196203
000380 15 ae 92 be e4 fc 90 3d fd 68 0b 3f 1e e4 0c be
       -0.2864844 0.07079485 0.54457074 -0.13758895
000390 9a be dd 3d 0d d9 76 3e e7 ab 48 bf 60 0d 0e 3f
       0.1082737 0.24106236 -0.783873 0.5548916
0003a0 7a 7c b5 bc e4 93 b2 bf 15 5f 54 bf 41 51 d1 be
       -0.022154082 -1.3951383 -0.82957584 -0.40882304
0003b0 8f 92 5e bf e1 7a 47 bf 80 34 27 3f ec af 2f be
       -0.8694238 -0.77921873 0.65314484 -0.17156953
0003c0 e3 5c ec 3b c8 85 09 bf 03 66 c4 3e b0 69 68 3f
       0.0072132214 -0.5371976 0.3835908 0.90786266
0003d0 d6 1d 63 3e 3a 1f 11 bf cd 65 02 bf 68 24 87 3e
       0.2217935 -0.5668827 -0.50936586 0.26394963
0003e0 fa 8a 23 bd 06 ba 95 3f b9 10 15 bd 51 d7 45 3d
       -0.03992746 1.1697395 -0.0363929 0.048301045
0003f0 f3 f5 87 bf c4 8d 62 3d b9 50 4c 3e 54 fe dc 3e
       -1.0621933 0.05531098 0.19952668 0.43162787

tril f4 [8, 8]
000000 00 00 80 3f 00 00 00 00 00 00 00 00 00 00 00 00
       1.0 0.0 0.0 0.0
000010 00 00 00 00 00 00 00 00 00 00 00 00 00 00 00 00
       0.0 0.0 0.0 0.0
000020 00 00 80 3f 00 00 80 3f 00 00 00 00 00 00 00 00
       1.0 1.0 0.0 0.0
000030 00 00 00 00 00 00 00 00 00 00 00 00 00 00 00 00
       0.0 0.0 0.0 0.0
000040 00 00 80 3f 00 00 80 3f 00 00 80 3f 00 00 00 00
       1.0 1.0 1.0 0.0
000050 00 00 00 00 00 00 00 00 00 00 00 00 00 00 00 00
       0.0 0.0 0.0 0.0
000060 00 00 80 3f 00 00 80 3f 00 00 80 3f 00 00 80 3f
       1.0 1.0 1.0 1.0
000070 00 00 00 00 00 00 00 00 00 00 00 00 00 00 00 00
       0.0 0.0 0.0 0.0
000080 00 00 80 3f 00 00 80 3f 00 00 80 3f 00 00 80 3f
       1.0 1.0 1.0 1.0
000090 00 00 80 3f 00 00 00 00 00 00 00 00 00 00 00 00
       1.0 0.0 0.0 0.0
0000a0 00 00 80 3f 00 00 80 3f 00 00 80 3f 00 00 80 3f
       1.0 1.0 1.0 1.0
0000b0 00 00 80 3f 00 00 80 3f 00 00 00 00 00 00 00 00
       1.0 1.0 0.0 0.0
0000c0 00 00 80 3f 00 00 80 3f 00 00 80 3f 00 00 80 3f
       1.0 1.0 1.0 1.0
0000d0 00 00 80 3f 00 00 80 3f 00 00 80 3f 00 00 00 00
       1.0 1.0 1.0 0.0
0000e0 00 00 80 3f 00 00 80 3f 00 00 80 3f 00 00 80 3f
       1.0 1.0 1.0 1.0
0000f0 00 00 80 3f 00 00 80 3f 00 00 80 3f 00 00 80 3f
       1.0 1.0 1.0 1.0

weight f4 [32, 32]
000000 dc 1b 7b 3c f2 d1 a9 bc ae 68 95 3d ec 27 55 3c
       0.015326466 -0.020729993 0.07295357 0.013010006
000010 e4 7a 5f bd 39 e7 a5 be 20 aa b5 be 28 a1 39 3b
       -0.054560557 -0.3240297 -0.35481358 0.0028324816
000020 bd 3b 8b 3d 44 01 18 3d 04 74 f4 3b 1c 52 cf 3e
       0.067985035 0.037110582 0.007460119 0.40492332
000030 0c e3 eb 3c 69 97 47 3d 16 43 ce ba cc 2b cf bd
       0.028794788 0.04872838 -0.0015736546 -0.101157755
000040 56 d6 cf bd 56 cf a8 be 8a 23 f3 bd 55 33 f0 bc
       -0.10148303 -0.32970685 -0.11872013 -0.029321352
000050 eb d7 b4 3d d3 8a d9 3e 55 e4 61 bd 2e ef 38 3d
       0.088302456 0.42488727 -0.055149395 0.045149975
000060 40 d8 c8 bc a3 3d 95 bd c8 98 16 3e ec 8b 8c bd
       -0.024517179 -0.07287147 0.14706719 -0.068626255
000070 0b 4c 1d 3d 95 34 8e 3d b3 d1 2b 3e 82 38 02 3e
       0.0384026 0.06943623 0.16779213 0.12716869
000080 f3 53 a8 bb dd 59 25 bc 09 1a 53 be ec 1d 75 bd
       -0.0051369607 -0.010092226 -0.206154 -0.05984299
000090 19 2d 65 3d 13 e6 47 be 52 e5 88 3e 17 1d 79 3d
       0.05595121 -0.1952136 0.26737458 0.060818758
0000a0 4e d7 31 bd 73 5f b7 3c 74 75 00 be 65 00 fc bd
       -0.04341822 0.02238438 -0.12544805 -0.12304763
0000b0 74 b6 a4 3d c1 4e 47 bd 00 26 3d 3d 56 b3 8c 3d
       0.08042613 -0.04865909 0.046178818 0.06870143
0000c0 de 4e 0f bd 11 e6 7b be 08 7c 2a 3e e5 3c 7b bb
       -0.034987323 -0.24599482 0.16648877 -0.0038335857
0000d0 58 34 d4 3c 84 bf ee be 0a b8 be 3d f5 14 15 3d
       0.025903866 -0.4663049 0.093124464 0.03639694
0000e0 50 68 d1 bc 00 46 8d 3d 36 68 b1 3d 78 ef 8d 3e
       -0.025562435 0.06898117 0.08662455 0.27721763
0000f0 fb e3 cd 3e 7d af d1 bd 69 29 04 be 1e 56 06 be
       0.40212998 -0.1023855 -0.12906422 -0.13118789
000100 c0 3a e5 3a 1b bd d4 3c ff 70 fd bd b1 b0 a0 bd
       0.0017488822 0.025969079 -0.12375068 -0.07846201
000110 8e 97 d7 bb 99 51 ff 3e 6d 0b a0 3e 30 71 68 bc
       -0.006579346 0.49866942 0.31258717 -0.014187142
000120 c8 ca bb bd 15 9b 94 3b 02 74 1e bd ac 61 2e 3e
       -0.09169537 0.004535089 -0.038684852 0.17029446
000130 55 45 0b 3d fc 4f 68 3d c4 e8 e2 bd 89 a0 85 3d
       0.034001667 0.056716904 -0.11079553 0.0652476
000140 96 13 43 3c d4 db f8 be a2 3e 8b 3e 2e 8f c8 bc
       0.011906525 -0.48605216 0.27196223 -0.024482336
000150 44 e0 27 3d 03 a5 06 bf 74 47 3f bc 7c 38 1a bd
       0.04098536 -0.5259554 -0.011674751 -0.037651524
000160 54 3c a7 bb e6 43 d1 3b 3d 01 4f be 21 1c e2 be
       -0.005103627 0.006386268 -0.20215316 -0.44162086
000170 6b ee e4 be 3a b0 67 3e 02 a2 0f 3e 9d 9e 5c 3e
       -0.44713148 0.22625819 0.14026645 0.21544881
000180 b0 9d 79 bb 6e 0d e7 3d 36 e2 7c bd d8 c3 1c ba
       -0.0038088374 0.112818584 -0.06173917 -0.0005980111
000190 5d c1 1f 3d 95 63 98 be 74 0a 94 bd 18 7c f5 3a
       0.039002765 -0.29763475 -0.07228556 0.0018729
0001a0 04 98 f6 3c 95 b8 6f 3d 26 58 76 bd 08 5a 91 be
       0.030101784 0.05852564 -0.06014266 -0.28389
0001b0 dd af 2d bc 9b 17 9a bd 54 8b cf 3b 68 8b 9c b9
       -0.010601011 -0.07524034 0.006333748 -0.00029858504
0001c0 39 93 8c be 3d d4 5d 3e 47 96 50 3d a5 81 6a 3d
       -0.27456072 0.21662994 0.050924566 0.057252545
0001d0 ca 6a 18 3e bf 24 c7 3e 5d e3 05 bd 50 fa 11 3b
       0.14884487 0.38895223 -0.032687534 0.0022274442
0001e0 ec 52 2b bd b0 11 98 3d ad 2e a3 3d f8 2a a7 3e
       -0.041827127 0.074252486 0.07967887 0.3264997
0001f0 ea eb 9b 3e d9 89 2c be 66 79 d4 bc cb b9 8c bd
       0.30453426 -0.1684946 -0.025936794 -0.06871375
000200 82 5e 9a bd 00 25 8a 3d e8 b8 a7 3d 53 1a 4a 3d
       -0.07537557 0.067453384 0.08189565 0.04934151
000210 c7 1d 92 bd 25 36 ee be 36 2d 21 be f8 56 65 bc
       -0.07134586 -0.46525684 -0.15739903 -0.013997786
000220 e1 b2 13 bb 37 58 b4 3d 03 df 1e 3d c6 72 8f 3d
       -0.002253704 0.08805888 0.0387869 0.07004313
000230 bb 06 0e be 01 76 0e bd b8 80 0a bc 1e 5f 10 3e
       -0.13869755 -0.034780506 -0.0084535405 0.14098784
000240 7f 32 2c 3e 22 ab 1b 3f 9b e3 63 be 58 3f ba bc
       0.16816138 0.60808 -0.22254793 -0.022735283
000250 31 3b a0 bd 41 a6 bd be 2c 2b 6a bc 9d 44 07 bd
       -0.0782379 -0.37040904 -0.01429252 -0.03302442
000260 c8 3a 87 3c 55 bc 0c be 43 ae 61 3d a7 8e ea 3d
       0.016507521 -0.13743718 0.05509783 0.1145299
000270 53 23 19 3e 44 b5 7f bd a1 96 8f be b2 87 59 bd
       0.14954881 -0.062428728 -0.28044608 -0.053107925
000280 60 d0 21 3d 2c 17 f5 3d c4 fe 00 3d fe 90 1a be
       0.039505363 0.1196731 0.031492963 -0.15094373
000290 c3 01 b4 bd 6a 43 d9 bc ab f0 5e 3e 89 58 1c bc
       -0.087893985 -0.026521403 0.21771495 -0.009542593
0002a0 1d 6f 54 be 7e c2 9e 3d 39 b8 31 bc 64 3d 77 bd
       -0.20745511 0.0775194 -0.010847145 -0.06036128
0002b0 81 f8 10 3d f2 fd e9 3d 18 ba 56 be fc 75 75 3d
       0.03539324 0.11425389 -0.20969427 0.05992697
0002c0 2f ad 1b be b9 c5 dd 3d 08 eb e4 3e 64 d8 4a bd
       -0.15202783 0.10828728 0.44710565 -0.049522772
0002d0 58 81 25 3e 7e 40 94 be d4 49 94 bc 0f 48 4d 3d
       0.16162622 -0.28955454 -0.01810161 0.05011755
0002e0 f9 4a ee 3d 2a 9e 1a 3e 85 28 d8 bd c0 02 0e 3e
       0.11635394 0.15099397 -0.105546035 0.13868237
0002f0 80 53 6e 3e 0c 34 da bd 99 74 d2 bd 55 31 ec bd
       0.2327404 -0.106544584 -0.102761455 -0.11532847
000300 7c b8 52 3d 82 27 20 3d f9 48 b0 3b 68 29 43 bd
       0.05144547 0.039100178 0.005379793 -0.04764691
000310 f0 9a 01 bd 25 49 96 3e e4 af ee 3d 0b 8a 9f bc
       -0.0316419 0.2935268 0.11654642 -0.019475004
000320 98 fa 47 3e 10 8b 24 be 6f 1d 1d bd 4e 67 99 3d
       0.19529188 -0.16068673 -0.03835815 0.07490407
000330 8a 2b 26 3d 92 1c 8a bc 8e d3 be 3c d1 a8 6c be
       0.040568866 -0.016859327 0.023294237 -0.23111273
000340 5c 09 74 3d c6 5e ab be ed b9 df bd 13 11 67 bd
       0.05957924 -0.33470744 -0.109241344 -0.056412768
000350 33 4b e4 3c 16 33 49 be 8c ad 59 bd 46 2f 1e bc
       0.027867889 -0.19648394 -0.053144023 -0.009654826
000360 d0 85 44 bd 58 99 34 3e ae ca 23 bd 1e 81 be 3c
       -0.047979176 0.17636621 -0.039988212 0.023254927
000370 ba 06 0a be e6 2e 1b 3c 1a 67 45 3c 05 2c cf 3d
       -0.13479128 0.009471631 0.012048507 0.10115818
000380 ef 8b 65 bc 55 fd 22 3d e1 91 3f be bb f3 f8 bd
       -0.014010414 0.039792378 -0.18707992 -0.12155863
000390 7f 8b a3 3d c7 8e d7 bd d5 e1 87 bc 23 0b 62 bb
       0.07985591 -0.105252795 -0.016587177 -0.0034491501
0003a0 ff 48 e2 3d f1 77 0a 3e 07 8e b9 3d da 71 4c be
       0.11049079 0.13522317 0.09060293 -0.19965306
0003b0 8b 02 67 be a4 41 39 be 8f 14 81 bd cf 39 88 3c
       -0.22559564 -0.18091446 -0.06302749 0.016629128
0003c0 d0 b7 2c 3e f4 79 52 3d 2f b0 29 be 98 f4 1c be
       0.16866994 0.051385835 -0.16571115 -0.1532768
0003d0 a9 f4 e8 3c 28 b6 d1 3d 94 9b 7a bd b2 e3 9e 3d
       0.028436976 0.10239822 -0.061183527 0.07758273
0003e0 5f 8a 01 be 93 71 b4 bd e3 7e cf bb bc 52 3b 3a
       -0.1265044 -0.08810725 -0.0063322647 0.0007145812
0003f0 4c a8 6c be 8e dd b6 bd 9a 46 f4 bd c6 a7 92 bd
       -0.23111075 -0.08928977 -0.11927529 -0.071609065

bias f4 [32]
000000 83 52 1b be 99 e2 4b 3e f4 cd a8 3c c8 66 2f be
       -0.15168194 0.19910659 0.020606019 -0.17129052
000010 99 ff 4e bc cb e8 e2 bd 21 17 cb be bf e8 0c bd
       -0.012634181 -0.11079558 -0.39666083 -0.03440165
000020 6e dd b4 3d 7b 1c ca be 92 c5 26 3e fb d6 77 3e
       0.08831297 -0.39474854 0.16286305 0.24203102
000030 e6 2b d3 3d 96 e7 c7 3c 12 72 99 3b be 57 45 3e
       0.10311107 0.024402421 0.0046827877 0.19271752
000040 52 cb e4 3d 96 89 6e 3b ff 39 69 be da 68 e3 be
       0.11171593 0.0036397926 -0.2277603 -0.44415933
000050 b1 ca f2 bd 71 2f 9b 3d 45 72 0b 3e 5e 0e a2 3d
       -0.118550666 0.07577408 0.13617809 0.079128966
000060 1e c6 fc 3e 95 a9 36 3e 7c 04 84 be b9 6d e4 3c
       0.493699 0.17838128 -0.2578467 0.027884351
000070 06 03 23 3e ea 28 f0 bd c6 8c 10 be 88 bd 1e be
       0.15919122 -0.11726554 -0.14116201 -0.15501988

weight f4 [32, 32]
000000 9d 88 ef be 78 f1 75 3d d2 bb d6 be 7f 48 88 be
       -0.46783915 0.060044736 -0.4194017 -0.2661781
000010 5c f3 d6 3d b4 34 b7 3e 91 45 bb 3e 68 4a 5d bd
       0.10495636 0.35782397 0.36576512 -0.054026037
000020 de 3f f3 3d fc c4 c3 be f9 c7 7f 3e 26 b9 ea 3e
       0.11877416 -0.38236225 0.24978627 0.45844382
000030 33 5d d0 3d 74 bd 34 bf e2 17 fc 3e 09 30 f2 be
       0.10174026 -0.7060158 0.4923697 -0.47302273
000040 f7 8a 90 be 86 29 08 3f 1d 48 03 be 4c e6 fb 3d
       -0.28231022 0.5318836 -0.12820478 0.12299785
000050 21 4a 3f 3e ec 17 3c be 03 ea 02 3d f1 b1 7f be
       0.18680622 -0.183685 0.031961452 -0.24970223
000060 07 7b 58 3d 43 55 72 3e 20 7d 3b bf 78 ee 54 3f
       0.052851703 0.23665337 -0.732378 0.83176374
000070 31 60 85 bf b7 53 d3 3e ae 0c 01 bf da c7 28 3e
       -1.041998 0.41274807 -0.5040997 0.16482487
000080 e7 6a 06 bf b3 9e f7 be e5 bf 63 bf 55 d9 99 3e
       -0.5250687 -0.48363265 -0.8896468 0.30048624
000090 e4 53 ae 3d 5d 7a 79 3d 0f da 3e be 61 6d 4e bf
       0.085120946 0.06090771 -0.1863787 -0.8063565
0000a0 78 f6 d4 3e cd f5 7f bf 06 ed 0a be 55 70 05 be
       0.4159429 -0.9998444 -0.1356698 -0.13031133
0000b0 60 4a 04 bf 98 fd 39 3f 5c f2 1d bf 44 e9 3d be
       -0.5167599 0.7265258 -0.61697936 -0.18546015
0000c0 83 1b 29 3e f6 b0 7f 3c 73 2c a7 3e fe 55 26 be
       0.16514401 0.015606156 0.326511 -0.16243741
0000d0 bc 21 37 be 26 fc f5 3e a2 d6 4c 3f 98 06 cc bd
       -0.17883962 0.48043936 0.80015004 -0.09962195
0000e0 54 b5 b1 3d 76 95 ab 3e e5 dd 42 3f 9c ad 48 bf
       0.08677164 0.33512467 0.76119834 -0.78389907
0000f0 d2 32 fb 3e 44 fe ad 3e 6a fd 05 bf 96 57 05 bf
       0.4906221 0.33983052 -0.52339804 -0.5208677
000100 6d e2 b9 3e e4 f2 9e be cc bd b4 bf b9 5c da 3e
       0.36305562 -0.31044686 -1.4120421 0.42648867
000110 10 49 b1 3e e1 56 91 3f 15 61 73 be c9 19 9b be
       0.34626055 1.1354638 -0.23767503 -0.3029311
000120 75 c5 10 3d 71 b6 a1 bf 0e 01 cc be db 3c b4 be
       0.03534456 -1.2633802 -0.39844555 -0.3520268
000130 bb 74 44 3f d0 62 1e 3e fa 63 f6 3d 68 f6 41 3e
       0.76740617 0.15467381 0.12030788 0.18941653
000140 7a 93 8f bf 74 0f 63 3f 3e 9b ea 3e d4 d3 3c be
       -1.1216881 0.88695455 0.45821565 -0.18440181
000150 0e 8f d6 be e5 ef b4 3e e2 13 a3 3e d2 97 2a be
       -0.41906017 0.35339275 0.31851107 -0.16659477
000160 da a2 9e 3d c2 43 7d 3e 57 9c 84 3e a0 1f b9 be
       0.07745905 0.24732879 0.25900528 -0.3615694
000170 92 3e 81 3e f4 78 3b 3e ba 29 38 bf 8c 8b cf be
       0.2524305 0.18307859 -0.7193867 -0.40536153
000180 42 c6 38 bf 7e a0 63 3e fb 78 17 3f 99 5a 4f be
       -0.7217752 0.22229192 0.59168977 -0.20249404
000190 08 f2 bd bd 2a 98 2d be ff 2c 07 bd 48 61 15 3d
       -0.092746794 -0.16952577 -0.033001896 0.036469728
0001a0 b1 04 aa 3d a3 dc cd 3e d2 7f 21 3e 63 25 a6 3e
       0.08301676 0.40207395 0.15771416 0.324504
0001b0 fe fd 9a be 03 14 a7 bd b8 94 f9 bd 40 2d f5 bd
       -0.30271906 -0.08158114 -0.12186569 -0.119715214
0001c0 d5 15 d2 3e 01 ff 73 bd a1 bc 38 be 15 d2 11 be
       0.41032282 -0.059569363 -0.18040706 -0.14240296
0001d0 f0 f0 ad 3e f8 fb 0a bf 5f c5 cb 3d a4 d1 58 bd
       0.33972883 -0.54290724 0.09949755 -0.052934304
0001e0 3b f7 d7 3e 0e 77 db 3c bb f8 fb bd ca ab 11 3e
       0.4218081 0.026790168 -0.12303301 0.14225689
0001f0 bb 08 da be 83 07 55 3e cc 98 95 3d d8 36 3c 3e
       -0.42584786 0.20803647 0.07304534 0.18380296
000200 cc 4a 19 3e f2 e3 f6 be 8f bb 33 bf a5 67 12 be
       0.14969939 -0.48220783 -0.70208067 -0.1429735
000210 ec ce da 3c c7 5d 1f 3f 9c eb 01 3e 55 03 30 3e
       0.026709996 0.6225247 0.12687534 0.17188771
000220 1c f1 28 bd d0 a0 bf bf 13 5d 73 3e 98 70 92 3b
       -0.041245565 -1.4970951 0.23765974 0.0044689886
000230 5c 1b 1a 3f d1 92 5c bd 7d 3b 37 3e fa 9d 08 3e
       0.60198 -0.053850953 0.17893787 0.13341513
000240 1e 3d 74 bf 00 19 07 3f b5 d3 6f 3e 30 fa 2a 3e
       -0.9540576 0.5277252 0.23420604 0.16697001
000250 7f 06 da be 05 1c 80 bb ca 15 66 bd 81 a6 13 be
       -0.4258308 -0.00390959 -0.056173123 -0.14418985
000260 47 9a 8f 3e 37 85 00 3e 97 5b d5 3d fd 51 01 3f
       0.28047392 0.12550817 0.1041786 0.5051573
000270 70 46 b1 bd 0a e6 af 3d 7a 8f d1 be 48 6c 63 be
       -0.08656013 0.08588798 -0.40929776 -0.22209275
000280 a2 cf c7 3f 90 ff a8 3f 04 58 66 be 4b 47 6c 3e
       1.561024 1.3202991 -0.22494513 0.23074071
000290 1b 90 9c be e0 09 b5 3e c3 0a 89 bf 1c 5d 2a bf
       -0.30578694 0.35359097 -1.0706409 -0.66548324
0002a0 6f 07 a4 be f1 30 13 3f a2 3f c7 be 7d 7b 35 bd
       -0.3203692 0.57496554 -0.38915735 -0.04430722
0002b0 ab 86 d1 bd 7d 93 76 3e e8 a7 01 3e 12 64 10 bf
       -0.10230764 0.240797 0.12661707 -0.56402695
0002c0 52 32 8a be 07 83 b1 bd 1f 46 4f be 55 31 f2 3e
       -0.26991516 -0.086675696 -0.20241593 0.47303262
0002d0 35 9a 0f bf 72 49 0c 40 bc d4 be 3e 0f 2c 0d be
       -0.56094676 2.1919827 0.37271678 -0.13786338
0002e0 16 3d 98 be 99 27 a8 3c 5e f6 59 3e 29 4b 8c bf
       -0.29734105 0.020526694 0.21285388 -1.0960437
0002f0 4f 0c ed 3e af 11 ac be 79 ab d6 3e 5c ef 1f be
       0.46298453 -0.33607242 0.41927698 -0.15618652
000300 29 ce 92 be dc c3 39 bf f8 ac e9 bd cb 60 53 bd
       -0.28672913 -0.7256448 -0.11409944 -0.05160598
000310 31 6b df 3d 13 c7 06 3f fb 6c ac 3d db d9 9e 3e
       0.10909117 0.52647513 0.08419224 0.31025586
000320 aa b8 89 3e fc fd 9b bf 48 e7 36 be 6c 35 1e bd
       0.268987 -1.2186885 -0.17861664 -0.038625166
000330 ee 65 0b 3f 98 57 fd 3e e9 51 55 bf 93 bb 77 3f
       0.5445241 0.4948089 -0.8332811 0.9677059
000340 31 06 ff be 1e 34 f9 3d f9 27 02 3f 18 3a 92 be
       -0.4980941 0.12168144 0.50842243 -0.28559947
000350 cc 7d 2c bf 40 12 67 bf ce 48 c6 be c7 29 97 3d
       -0.6737945 -0.9026222 -0.3872742 0.07381015
000360 3d 1e 0d 3f e0 bb c5 3c 66 d1 5b 3f 51 f9 0a be
       0.55124265 0.024137437 0.8586639 -0.13571669
000370 5f a1 05 3f 62 80 6b 3b 56 46 96 be cc 47 de be
       0.5219936 0.0035934676 -0.29350537 -0.43414152
000380 1e 6f 86 3f 50 8c 06 bf 68 1a 16 bf 26 2e 22 3f
       1.050266 -0.5255785 -0.5863404 0.63351667
000390 66 1b 13 3e 67 ee d1 be d9 13 1d be dc b8 01 bf
       0.1436592 -0.410022 -0.15339603 -0.506727
0003a0 ee 31 eb be 7d 41 bf 3e 26 62 56 be 58 75 55 bf
       -0.4593653 0.3735465 -0.20935878 -0.8338218
0003b0 95 77 a0 be 3f 4d 26 3f bf 3e 57 3e a2 fc 27 3e
       -0.31341234 0.6496162 0.2102003 0.16404966
0003c0 8b 84 cc 3e e4 52 2f bf 6e b5 5b 3e 99 91 03 bf
       0.39944872 -0.68485856 0.21455929 -0.5139404
0003d0 27 6f 41 3e 28 2f 11 3f 39 dc 7e 3e 61 4d 33 3e
       0.18890058 0.5671258 0.24888696 0.17509986
0003e0 56 39 4c bf 31 87 e7 bd 8f 04 47 3f 24 0b 38 bf
       -0.7977499 -0.113050826 0.7774133 -0.71892
0003f0 96 4c a4 3f e8 0f 08 bf 92 d1 d0 3e e7 8a f6 bd
       1.2835872 -0.5314927 0.4078489 -0.12038212

weight f4 [32, 32]
000000 5f e9 c4 3e 82 9d 83 be d7 6e 93 be f8 5f 04 be
       0.38459298 -0.25706106 -0.28795502 -0.12927234
000010 1a e0 af 3d 77 a2 08 3f d9 b7 9b bd eb 6e 71 3e
       0.08587666 0.533729 -0.076034255 0.23577468
000020 67 fe af 3a 43 7d 50 be b5 88 31 bf ec c9 00 bf
       0.0013427258 -0.20360284 -0.69349223 -0.5030811
000030 b3 f6 d7 3e f1 79 21 bf 3d 7b c3 3e 52 19 89 3e
       0.42180404 -0.6307669 0.3817996 0.2677713
000040 68 d2 f3 be 75 ce f5 bd 7c f0 0e 3e b2 6c 41 3e
       -0.47621465 -0.12002269 0.13958925 0.1888912
000050 d1 b5 30 3f f1 85 99 bd cc 4e 9b 3e 19 4c 76 3e
       0.6902743 -0.074962504 0.30333555 0.24052466
000060 7e fc 57 bf ff 7f 2b 3f ff 36 19 bf 78 a7 c5 3e
       -0.8436965 0.6699218 -0.5984954 0.3860433
000070 78 90 3a 3e 1f 4a 93 bd 54 2e bd bc f1 13 0e 3f
       0.18219173 -0.07191872 -0.02309338 0.5549918
000080 f0 51 c1 be da b8 b1 be d2 4e 97 bc a9 e5 01 3e
       -0.37757826 -0.34711343 -0.018470202 0.12685265
000090 3f b6 82 be 82 b0 02 3f ff 05 1b 3e a1 25 48 be
       -0.25529668 0.5105058 0.15139006 -0.19545604
0000a0 0e 7a c8 3d b0 0d b3 be aa 38 84 3f 22 b6 77 3f
       0.09788905 -0.3497138 1.0329792 0.9676229
0000b0 1f 37 50 be db 42 fe bb 13 63 90 be 6a 4a 9b 3d
       -0.20333527 -0.0077594346 -0.28200588 0.07582553
0000c0 31 18 01 3e 24 4d 2c 3f 98 f2 e9 be 9f 12 94 be
       0.12606885 0.6730521 -0.45692897 -0.28920457
0000d0 ef f1 c4 3e fa 1d 63 bc a5 9f b5 bf 72 b2 b9 3d
       0.3846583 -0.013862127 -1.4189345 0.09067239
0000e0 f9 be e1 3d d7 bd df 3e c5 36 25 3e 2a 17 26 bf
       0.11022753 0.43699524 0.16134174 -0.64879096
0000f0 2e 15 9f be 36 de e8 be e1 d0 3e bf 44 55 21 be
       -0.31070846 -0.45482033 -0.74537474 -0.15755183
000100 9f 01 bf 3e 99 c3 cb bf 4f 44 09 be 6f c4 77 be
       0.37305924 -1.5919067 -0.13404964 -0.24196027
000110 52 a4 23 3e 2b 63 a6 3f f7 1d 8c 3e 21 15 af be
       0.15980652 1.2999014 0.2736661 -0.34195808
000120 74 c8 2f 3e 7d 75 90 bf f9 d3 71 3e b2 ea 8b be
       0.1716631 -1.1285855 0.23616017 -0.27327496
000130 dd db 03 bf b1 e7 55 be fb d8 a9 be bd 07 cd 3e
       -0.5150736 -0.20889165 -0.33173355 0.40044966
000140 5c ea 50 3e 25 3a 0f 3c 9b 28 76 3f e4 1f ae bd
       0.20401901 0.00874189 0.9615571 -0.085021764
000150 58 8b 67 3f 7f bb 83 3e b2 9c 2d bf 56 25 20 3e
       0.90446997 0.25728986 -0.67817223 0.15639243
000160 02 b5 8d bf 09 99 88 3e 62 af f6 bb 60 f3 27 3e
       -1.1070864 0.26679257 -0.0075282315 0.16401434
000170 79 3b 51 3d 75 35 d7 bd 4e b4 2a bf 39 c9 b6 3e
       0.05108211 -0.10508243 -0.66681373 0.35700396
000180 bd fd 80 be 4e b6 33 3f e9 01 94 be cd f2 fc ba
       -0.25193587 0.7020005 -0.28907707 -0.0019298434
000190 a7 64 2e bd 14 84 b7 be 98 36 89 3b 98 3e ae 3d
       -0.04257646 -0.35842955 0.0041874163 0.085080326
0001a0 73 dd f4 3d 91 be e3 3e 26 3a b0 bb f0 0d 5c 3e
       0.119563006 0.44481328 -0.0053780256 0.21489692
0001b0 d5 0f 09 3e e1 36 32 bd 72 bb a2 3e 33 2c 57 bd
       0.13384946 -0.043509368 0.31783634 -0.052532386
0001c0 e7 10 16 3e aa da 67 3e 26 ec bd be b1 3e 7c be
       0.14654885 0.22642007 -0.3709423 -0.2463329
0001d0 86 ca 1b bb d2 68 b3 be b4 12 4f 3e bc 77 b6 3d
       -0.0023771836 -0.3504091 0.20221978 0.08909556
0001e0 28 9f b3 3e 8a 89 05 3d f7 82 f7 bd 7c 5d d5 bd
       0.35082364 0.03260187 -0.120855264 -0.10418221
0001f0 6f 84 03 3e d1 ac be 3d cb ec 78 bc e5 d2 9a 3d
       0.12843488 0.09310306 -0.015193175 0.07559756
000200 ff 95 e1 3e 24 30 6e bf db 58 41 be 66 96 f6 bb
       0.4405975 -0.93042207 -0.18881552 -0.007525253
000210 0f 96 61 3e b6 ec 9b 3f 9a 09 c7 bd db a4 0f bf
       0.22029899 1.2181613 -0.09718628 -0.56110924
000220 e1 d5 38 3d 40 65 97 be 9b 1f 1e be 85 ab 01 bf
       0.045125846 -0.29569435 -0.15441744 -0.50652343
000230 b0 36 89 be 20 5b 9e be 19 13 fe b9 40 90 df 3e
       -0.26799536 -0.30928898 -0.00048460884 0.43664742
000240 60 b2 ad bd 86 34 aa be 4b aa 43 3f 6e 82 8a bd
       -0.08481288 -0.33243197 0.7643172 -0.06763159
000250 fa c9 13 3f cd 1e ed 3e 05 2f 3e bd 10 08 00 3e
       0.57730067 0.46312562 -0.04643156 0.12503076
000260 53 c5 95 bf 6c 87 6f 3b b1 72 15 3e 12 23 3e bd
       -1.1700844 0.0036549224 0.14594533 -0.046420164
000270 5c e8 a9 3e 47 b0 19 bd 99 37 d7 bd ee 16 91 3d
       0.3318509 -0.037521627 -0.10508651 0.070844516
000280 63 f3 50 bf 12 82 c7 bc 39 48 a8 3e 02 49 85 3e
       -0.8162138 -0.024354015 0.32867602 0.26032263
000290 c4 92 a6 be e2 96 45 3e 43 f8 24 3d c8 24 cb 3f
       -0.32533848 0.19295838 0.040275823 1.58706
0002a0 72 2e 07 bf 42 a0 c7 bf e2 8e 16 3f e9 ba b7 be
       -0.52805245 -1.5595782 0.5881177 -0.3588479
0002b0 30 3d 8a bf 69 5e 65 3e 01 50 e4 3e ff 48 69 be
       -1.0799923 0.22399296 0.44592288 -0.22781752
0002c0 90 c4 90 3d 43 51 aa be 00 d8 66 3f 69 a8 89 3f
       0.07068741 -0.33265123 0.9017334 1.075452
0002d0 97 bd 54 bf 45 f2 ae be 73 1e b4 3d 8a f7 1f 3e
       -0.8310179 -0.34169212 0.0879487 0.15621772
0002e0 e8 db a0 3d 81 8d 0b 3f a2 4a 41 3e 8d 30 1c 3f
       0.07854444 0.5451279 0.18876126 0.6101158
0002f0 69 e9 06 bf 7f f0 10 3f f2 2e c6 bd dd 25 8a be
       -0.52699906 0.5661697 -0.09676923 -0.26982012
000300 8f 14 42 bc 79 82 28 bf 7e 77 a7 be 5f f6 17 be
       -0.011845722 -0.65824085 -0.32708353 -0.14840077
000310 f4 49 80 3e 80 74 34 3f 45 8c db bc d2 c3 81 bf
       0.25056422 0.70490265 -0.026800284 -1.0137885
000320 54 ab 24 3e a0 aa a3 3e b3 c8 77 3e 05 6b b5 3e
       0.16080981 0.31966114 0.24197654 0.35433212
000330 c1 c7 d7 be 60 47 f7 3e c1 09 cd be 3c 5f e9 3e
       -0.42144588 0.48296642 -0.40046504 0.4558047
000340 b0 e6 dc 3e 78 cc 04 3e f8 35 23 3f f7 1a 80 bf
       0.4314475 0.12968624 0.63754225 -1.0008229
000350 79 12 ca 3e a2 ed b6 3e a7 12 1f bf 2a e6 05 be
       0.3946722 0.35728174 -0.62137836 -0.13076082
000360 93 bf e1 bd db 7d 9c bf 30 9a 2a 3f bb 58 7a be
       -0.11022868 -1.2225908 0.6664152 -0.2444791
000370 db 51 b1 3e 26 65 8a be 94 d6 32 3d 34 42 ce be
       0.34632763 -0.27030295 0.04366167 -0.40284884
000380 8f 4e 2b be 69 c6 b5 be 08 27 13 3f 85 82 81 3e
       -0.16729186 -0.35502937 0.5748143 0.2529489
000390 1b 77 09 bf ad a2 91 bf f0 02 07 3f dc f2 c9 bc
       -0.53697366 -1.137777 0.5273886 -0.024651937
0003a0 76 c9 30 3e 68 7c d0 bc 67 16 a5 3e cc cd 6c 3f
       0.17264351 -0.025449947 0.32243654 0.9250152
0003b0 94 8c b9 3c 0b ba 25 3f 97 ee a5 bf 8b 35 dc be
       0.02265004 0.64737004 -1.2963437 -0.430096
0003c0 2c 92 24 3f f1 7c 61 3e 77 71 e5 be ec d6 fe 3e
       0.6428554 0.22020318 -0.4481313 0.49773347
0003d0 d6 fa f4 be 75 e0 5e 3e 15 0f 83 bf 7e f7 48 bb
       -0.47847623 0.21765311 -1.0238978 -0.0030665095
0003e0 06 30 db 3e 22 25 a7 3d b7 47 01 3f 9c dc 13 bf
       0.42810076 0.081613794 0.50500053 -0.577585
0003f0 7b ed 32 bf 18 62 26 bc 58 ec cc be eb 61 eb be
       -0.69893616 -0.010155223 -0.40024066 -0.45973143

weight f4 [32, 32]
000000 1d f5 55 bd ff 09 14 3d db a0 41 bd ba 92 e3 3d
       -0.05223571 0.036142346 -0.047272544 0.1111197
000010 3c ed a5 3c b1 7e 0a be 04 d3 ea 39 e1 77 f9 3d
       0.020254724 -0.13524891 0.00044789177 0.12181068
000020 e0 ea c1 bd 18 7c dc bc 64 72 ce bc b9 66 0a 3e
       -0.09468627 -0.026914641 -0.02520103 0.13515748
000030 9a 97 7b 3d f1 c1 43 3d e6 30 b8 3c a1 d3 e5 3b
       0.061423875 0.04779238 0.022484254 0.0070137535
000040 c5 6c 58 bd bf 95 33 bd ca df b0 3d f5 d8 3c 3c
       -0.052838106 -0.04384398 0.086364344 0.011526336
000050 3d 8a d3 bc 0d 71 5e bd 25 f5 5f bd ca 1f 4c bb
       -0.025822753 -0.054307032 -0.054677147 -0.0031146877
000060 90 3d 35 bd 91 30 ba bb 71 2d 97 3d 33 72 dd 3d
       -0.044248164 -0.005682059 0.07381714 0.108127974
000070 63 75 b6 3d 29 4a ed 3d cc 39 ab bd 9a e9 db bc
       0.089091085 0.115864106 -0.08360633 -0.026844788
000080 0e 65 43 bd cf 37 af 3c a0 ec f4 3c 90 ed 48 bc
       -0.047703795 0.021388916 0.029897988 -0.012263671
000090 83 06 65 3c 95 c5 83 3d ed ec 3c 3d 4d 50 05 3e
       0.013978603 0.0643417 0.046124388 0.13018914
0000a0 84 7b e9 bd 74 ff b4 3d d5 eb 15 be ad 24 a2 3d
       -0.11400512 0.08837786 -0.14640744 0.079171516
0000b0 93 c1 f2 bc 88 65 56 3e 9d ce 2b bc 63 90 93 bc
       -0.029633319 0.20937169 -0.010486272 -0.018013185
0000c0 b9 4a 3d be 51 c6 10 bd 63 a8 b8 3c 76 47 59 bd
       -0.18485536 -0.03534538 0.02254123 -0.053046666
0000d0 c7 65 af 3d 4b fd 63 3c 57 b9 f2 bd 35 26 60 bd
       0.08564334 0.01391537 -0.11851757 -0.054723937
0000e0 ef 2e 21 bd a7 f3 a7 3d 2c 7b a2 3d 37 cf 00 3d
       -0.0393514 0.0820077 0.079336494 0.031447615
0000f0 36 4d 96 3c 53 22 66 bd 99 03 a2 bd 51 54 24 be
       0.018347364 -0.056185078 -0.079108424 -0.16047789
000100 c9 fb 5a bd 16 3d 9f bc 06 78 bc 3d ef 50 43 bd
       -0.053462777 -0.019438308 0.0920258 -0.047684606
000110 20 84 17 3d 9c 25 01 3c 8f 7b 9a bb 9b 61 c6 3c
       0.03699124 0.007882502 -0.0047144364 0.024216464
000120 2f 45 91 bc 08 ce bb bd 78 f9 cf bd e7 50 fd bd
       -0.017733185 -0.09170157 -0.10155004 -0.123689465
000130 41 95 2b 3c 84 8a bf bb 5f 62 8f bd ef 04 a4 3d
       0.010472597 -0.00584537 -0.07001185 0.080087535
000140 ef a2 97 bd 49 77 c3 bd ec f4 54 3d 7b b0 6d bd
       -0.07404124 -0.09544236 0.05199139 -0.058029633
000150 e1 e5 b4 3d 31 99 3e 3e 44 aa c7 3d 39 34 24 be
       0.088329084 0.18613125 0.097492725 -0.16035546
000160 fe 18 eb bd 34 0f 26 be 85 98 0d be ca 6f 8b 3d
       -0.11479376 -0.16216737 -0.13827713 0.068084314
000170 ce e7 26 3d 88 26 ea 3c 16 7b 0e be 0a dd d5 3d
       0.04074841 0.028582826 -0.13914141 0.104425505
000180 8a fc 8f bd e8 d0 f4 3a 8a 45 8a bc 0f 03 27 3c
       -0.0703059 0.0018677982 -0.016878862 0.0101936
000190 8d b9 2a 3d b3 e5 f1 bc 4c 1b 15 3d e0 16 82 bc
       0.04168086 -0.029528474 0.036402985 -0.015880048
0001a0 10 d0 5f bc c7 36 8c bc b4 f9 aa b9 7f fa 02 be
       -0.013660446 -0.017115964 -0.0003261097 -0.12790869
0001b0 08 d1 e7 3d 14 f2 76 3d 29 03 56 bd 8c 55 be 3d
       0.113191664 0.060289457 -0.052249108 0.092936605
0001c0 c8 77 81 bd 4c 12 8e bd af c6 1e 3e 42 d9 da 3b
       -0.063216746 -0.069370836 0.1550548 0.006678731
0001d0 78 98 28 3c 2e 96 51 bc e3 a4 7d 3d f0 07 28 bd
       0.010290258 -0.012792153 0.061924826 -0.041023195
0001e0 5d a0 a1 bd a3 94 f4 bd 92 5d 33 bd 8b cc 6e 3d
       -0.07891915 -0.11942413 -0.043790407 0.058300536
0001f0 7e 2d 03 3e b6 38 9f 3c dd d2 bf bd a6 e9 70 bd
       0.12810323 0.019436222 -0.09366391 -0.058816575
000200 f4 cb 22 3d 62 1e 9d bc 4a 1b bf bc 6d b5 8d bd
       0.039745286 -0.019179527 -0.023328442 -0.0691937
000210 10 a0 9b bc df 24 eb bc b5 86 19 bd 7b 7c 9d 3c
       -0.018997222 -0.028704105 -0.037481982 0.019224396
000220 32 26 86 3d 81 71 72 3d d6 fc 7e 3d bc f0 16 3d
       0.06550254 0.059190277 0.062252842 0.036850676
000230 f1 4c 81 3d 00 75 12 bd 6b 34 9b 3d be de 64 3d
       0.063135035 -0.03575611 0.07578357 0.055876486
000240 9a f9 42 3d aa 84 28 b9 78 43 97 3c 98 fa 03 3c
       0.04760132 -0.0001607115 0.018464789 0.008055352
000250 50 ae f9 bd 30 fc 0c be 89 f4 9e bd 78 22 aa 3d
       -0.121914506 -0.13768077 -0.07761485 0.08307356
000260 0c 9e 6b 3d 9a 58 84 3d 7b 84 fd 3d ef 67 9c bd
       0.057523772 0.06462212 0.12378784 -0.07637011
000270 22 91 92 bd 13 d5 8c bd 0c ee 42 bd c8 ca 87 bd
       -0.07156588 -0.06876578 -0.0475903 -0.06630474
000280 dc 06 a2 bc 73 ec 8c 3d 5c c5 e6 be 83 74 94 3e
       -0.019778661 0.068810366 -0.45072448 0.2899514
000290 d6 be 0a 3d dc c8 8b bc 25 2c 44 3d 06 62 3a be
       0.0338734 -0.01706355 0.047893662 -0.18201455
0002a0 89 02 49 3d 4c f3 07 bc 06 73 0b 3e 1f 2b fb 3d
       0.049074683 -0.008297753 0.13618097 0.12264084
0002b0 e8 2b e2 bd 96 34 af be 46 ab 90 3e fa 1a a7 bd
       -0.11043531 -0.34219807 0.2825567 -0.08159442
0002c0 25 07 6d 3d 82 99 76 3d 52 e7 b7 be 6d 0a 79 bd
       0.05786814 0.06020499 -0.3591867 -0.06080096
0002d0 7e f4 fb 3e 25 1c 2b 3d eb ce b9 3d 57 3c 82 bd
       0.4920997 0.041774888 0.090726696 -0.06359165
0002e0 46 47 79 be 12 cc 45 3f 11 07 b7 be 2e 7c 13 bd
       -0.24343595 0.7726451 -0.3574758 -0.0360071
0002f0 25 23 cc bd ab 39 64 bd a5 56 b1 be b1 cb 84 bc
       -0.09967641 -0.05571906 -0.34636417 -0.016210409
000300 fc f7 37 3e 17 b3 6f be 7e b2 b1 be 96 b8 44 3e
       0.17965692 -0.23408161 -0.3470649 0.19211039
000310 b9 f3 0b bd 91 b7 cb bd 41 35 b3 bd 66 f2 e0 bc
       -0.03416798 -0.09947122 -0.08750392 -0.027459335
000320 6f f3 b5 bd 63 2b b6 bb dd 1b 7f 3b dd 22 b1 3d
       -0.08884322 -0.0055593713 0.003892652 0.08649228
000330 ef 9e 41 be 75 8b 13 3d d1 f9 50 3e a6 96 4a be
       -0.18908285 0.03602167 0.20407797 -0.1978403
000340 6d 8f dd 3d 20 74 99 bd b1 e1 36 be 3e 36 16 bc
       0.10818372 -0.07492852 -0.17859532 -0.009168206
000350 20 44 b0 3e 40 c3 7f ba 06 f7 9b bd 62 0a 7b 3d
       0.34426975 -0.00097565725 -0.07615475 0.0612892
000360 92 bd 6e 3d 8c 5b 20 3e bf 57 28 be a3 8a dd 3d
       0.058286257 0.15659922 -0.16439722 0.108174585
000370 ea 06 01 bd 7f 2d 4b 3d e8 ed 88 bc dc e0 b9 bc
       -0.031500734 0.049603935 -0.016715005 -0.02269023
000380 2d a4 e4 bc 0e 48 fd 3a 02 bb a6 bb 53 c4 ba 3b
       -0.027910316 0.0019323842 -0.005088211 0.005699673
000390 65 a5 98 3c 24 4e 8c 3d 00 9a 9c 3d 66 4a b3 3d
       0.018633554 0.06850842 0.07646561 0.08754425
0003a0 c4 de c3 bc 35 88 97 bb 3d 69 b7 bd 74 4f 90 bc
       -0.023909934 -0.0046243914 -0.089556195 -0.017616011
0003b0 9b a0 7c bd 3f 85 ae 3d 8f fb 3b 3d 5d d4 07 be
       -0.061676603 0.085215084 0.0458942 -0.13264604
0003c0 fb a1 ad 3c df b6 72 bb 0e 61 dd bb 34 68 83 bd
       0.021195402 -0.003703527 -0.0067559546 -0.064163595
0003d0 d2 1d dd bc 4a fc 16 bd 3f 3c a2 bd 8b f4 a0 3b
       -0.026991758 -0.036861695 -0.07921647 0.0049119643
0003e0 fb c0 d5 bd 68 76 38 bd 8a de e9 3b 86 f3 96 3c
       -0.10437199 -0.045034796 0.0071371244 0.018426668
0003f0 f7 84 9c 3c e8 d6 1d bd 88 2f ea bc d3 84 47 bd
       0.019106371 -0.03853503 -0.028587118 -0.048710655

weight f4 [32]
000000 4a 5c fd 3d 92 20 ca 3e 93 af a6 3e 00 7b 6c 3e
       0.12371118 0.39477974 0.32555827 0.23093796
000010 00 98 8b 3d c7 1b 90 3e ad a9 c4 3d 03 e7 d5 3e
       0.06816101 0.28146192 0.096026756 0.4177781
000020 96 25 f7 3c 36 aa ad 3e be df 9c 3e e6 da 39 3e
       0.03016929 0.33918923 0.30639452 0.1814991
000030 ac cd b6 3e 80 e1 4e 3e ec e4 8c 3e e7 17 ce 3d
       0.3570379 0.20203209 0.27518404 0.10063153
000040 85 33 80 3e b2 b5 c5 3d 75 27 26 3e 43 2f 73 3e
       0.25039306 0.09653796 0.16225989 0.23748498
000050 ce b1 90 3e ab 90 5b 3e af 2a ba 3e 9d 0f 19 3d
       0.28260654 0.21441905 0.3636069 0.037368406
000060 a9 ba 4c 3e de 88 9d 3e 44 ad 80 3e 92 5f 46 3e
       0.1999308 0.30768484 0.2513219 0.19372395
000070 c8 4f 81 3e 83 9d aa 3d ca 43 6d 3e d0 dc 43 3d
       0.2525618 0.08330824 0.2317039 0.047818005

bias f4 [32]
000000 f8 eb 6e bd 7a 90 28 be 7c f2 db bb 36 c6 11 bd
       -0.058330506 -0.16461363 -0.006712256 -0.03558942
000010 50 df af bc 32 7d 63 be 17 a4 e8 3d c5 d5 5d 3d
       -0.021468788 -0.22215727 0.11359423 0.054158945
000020 77 2e c8 bc 23 6e 4d 3e 51 2f bb bc 5e b2 39 3d
       -0.024436219 0.20061545 -0.02284971 0.04533612
000030 0e 13 a0 3d db 42 97 3d 05 08 1b bb be ce 2a bd
       0.078161344 0.073857985 -0.0023655903 -0.04170107
000040 de 91 fe bd 8e 38 3e 3d 76 42 9f 3c 6c 73 8f 3e
       -0.12430166 0.046440654 0.01944087 0.28017747
000050 94 56 35 3d ea 0c 36 be d4 0c 14 3c 32 fb 17 bc
       0.04427202 -0.17778364 0.009036262 -0.009276198
000060 da ef 8b be 65 51 e5 bc ba a4 ee 3c a4 6b 14 3e
       -0.2733143 -0.027992913 0.029131282 0.14494187
000070 47 66 35 be 1a c1 71 3c cd d8 0c be 0c 84 e2 bb
       -0.17714797 0.014755512 -0.13754578 -0.006912714
