calculator/models/model_add_2024-07-22-22-46.pth (torch, 239650 bytes, 60 tensors)

weight f4 [13, 32]
0	0x3e2eda06	0.17075357
1	0xbd75aeff	-0.059981342
2	0xbebd3a8d	-0.36958733
3	0xbf67b57b	-0.9051129
4	0x3f1d9eb3	0.6157028
5	0x3c7e12e5	0.0155074345
6	0x3f71c565	0.94441825
7	0x3d98409d	0.07434199
8	0x3eb3c549	0.35111454
9	0x3f943186	1.1577613
10	0xbfab7d32	-1.3397582
11	0xbf00083d	-0.5001257
12	0x3e675b53	0.22593431
13	0xbe6b44bf	-0.22975443
14	0xbf6e577d	-0.93102247
15	0x3fc6cd61	1.5531427
16	0x3fade995	1.3586909
17	0xbe193800	-0.14962769
18	0x3e8d318d	0.27576867
19	0x3f799b26	0.9750236
20	0xc0030129	-2.0469458
21	0x3f00ca4e	0.5030869
22	0x3fbd096a	1.4768498
23	0x3f14bac8	0.58097506
24	0x3e0b4810	0.13601708
25	0xbfc6b958	-1.5525312
26	0xbf9332c5	-1.1499869
27	0xbea64d26	-0.32480735
28	0x3ee01dce	0.4377274
29	0xbf4aa3ff	-0.7915649
30	0x3fc1b907	1.5134591
31	0x401fe4bd	2.498336
32	0xbf272cf2	-0.65302956
33	0xbe770a48	-0.24125016
34	0x3f800170	1.0000439
35	0x3e06b0fb	0.1315345
36	0x3e17f1da	0.14838353
37	0x3f8fdc22	1.1239054
38	0xbf94f6d1	-1.1637822
39	0xbe9de246	-0.30836695
40	0xbefeb675	-0.4974858
41	0xbf6f0f67	-0.9338288
42	0x3f0e80ac	0.5566509
43	0xbfbe084b	-1.4846281
44	0xbf99093b	-1.1955942
45	0x3f14ee64	0.58176255
46	0xbf1b77aa	-0.6072947
47	0xbf2f00d3	-0.6836063
48	0x3fd153f0	1.6353741
49	0xbf4afc56	-0.79291284
50	0x3fabaeec	1.3412757
51	0xbe926067	-0.28589174
52	0xbfc2a5c1	-1.5206834
53	0x40060d50	2.0945625
54	0x40302bf4	2.7526827
55	0xbfde40de	-1.7363546
56	0x3fbb109f	1.4614447
57	0xbfc00454	-1.5001321
58	0x3f4fa264	0.81107163
59	0xbe4e579d	-0.2015061
60	0x3f44d16b	0.76882046
61	0x3fc584cf	1.5431155
62	0x3fccbee4	1.5995755
63	0xbed38d58	-0.41318774
64	0xbf5826ea	-0.8443438
65	0x3f1b94e9	0.60774094
66	0xbd7b7f54	-0.061400726
67	0xbd5f7260	-0.054552436
68	0xbf01c7d6	-0.5069555
69	0x3ee952ca	0.45570976
70	0xbe88d2bb	-0.26723275
71	0xbf89e020	-1.0771523
72	0x4001330b	2.0187404
73	0xbf0c0326	-0.54692304
74	0x3e6e5d0d	0.23277684
75	0x3f34fcf5	0.7069848
76	0xbfb7dfe9	-1.4365207
77	0x3f6a7543	0.9158518
78	0x3e09cf6c	0.13458031
79	0x3e5f358c	0.2179777
80	0x401ffb52	2.4997144
81	0xbf9de4d8	-1.2335463
82	0x3f80129d	1.000568
83	0x3f0bc2c8	0.5459409
84	0xbfcd39f2	-1.6033309
85	0xbfa158ae	-1.2605188
86	0x3f2e2554	0.6802571
87	0xbe530fdd	-0.2061152
88	0x3eb5b2ce	0.3548798
89	0xbea9e881	-0.331852
90	0x3eee808f	0.46582457
91	0xbf419a77	-0.7562632
92	0xbedb9b83	-0.42892084
93	0xbee4d6c0	-0.4469509
94	0xbf816bf2	-1.0111067
95	0xbecc7cae	-0.39938873
96	0xbfd4110d	-1.6567703
97	0xbfad70e1	-1.3550073
98	0xbe33b83a	-0.17550746
99	0x3f78df28	0.9721551
100	0x3cb080da	0.021545816
101	0xbf4077c2	-0.75182736
102	0xbe9d9267	-0.3077576
103	0x3beac260	0.0071642846
104	0xbe2b3820	-0.16720629
105	0xbdfcc32e	-0.12341915
106	0x3e9167c1	0.2839947
107	0x3fb28951	1.3948156
108	0x3de32023	0.11090114
109	0x40234c51	2.551533
110	0xbf268057	-0.6503958
111	0xbffded96	-1.983813
112	0xbeadd7b2	-0.33953625
113	0x3c931c7e	0.017957922
114	0x3f6fa702	0.9361421
115	0xbff27a9e	-1.894367
116	0x3e353104	0.17694479
117	0x3eefe940	0.46857643
118	0xbfe0c597	-1.75603
119	0x3f188eb4	0.5959275
120	0x3fe163be	1.7608564
121	0x3e8a986c	0.27069414
122	0x3e9a13c5	0.30093208
123	0xbf24c90b	-0.6436927
124	0xbf25c689	-0.64756066
125	0x3e9de8eb	0.30841765
126	0xbf0f3d74	-0.55953145
127	0xbfba362a	-1.454778
128	0xc002e622	-2.0452962
129	0x3feb2bfc	1.8372798
130	0x3fa58e0b	1.2933973
131	0xbee15316	-0.44008702
132	0x3fab2262	1.3369868
133	0x3fd724d0	1.6808109
134	0xbe09a8d7	-0.13443314
135	0xbfd60a98	-1.6721983
136	0xbc88081e	-0.016605433
137	0x3d83285d	0.06404183
138	0x3f87e2d4	1.0616097
139	0x3f301553	0.6878254
140	0x3ea21c8c	0.31662405
141	0xbf3cb66c	-0.73715854
142	0x3f3bc169	0.73341995
143	0x3f60a85d	0.877569
144	0x4011bdc6	2.2772079
145	0x3f737786	0.95104253
146	0xbfc50f8d	-1.5395371
147	0xbe8ffb75	-0.28121534
148	0xbdfdd482	-0.12394048
149	0xbe9b7642	-0.3036366
150	0xbf23a5cd	-0.63924867
151	0x3f906f2f	1.128393
152	0xbf7b2e46	-0.9811748
153	0x3e384a97	0.17997204
154	0x3f9b7cf7	1.2147511
155	0xbe65e765	-0.22451551
156	0xbf88953e	-1.0670545
157	0xbf24ea70	-0.64420223
158	0x3fca553a	1.5807259
159	0xbf359ca0	-0.70942116
160	0xbf62cebc	-0.885967
161	0x3d9c06b2	0.076184645
162	0xbd87baf7	-0.066274576
163	0x4016769a	2.3509889
164	0xc02eec1b	-2.7331607
165	0x3effce76	0.49962205
166	0xbf530b08	-0.8243871
167	0xbe71ae26	-0.23601589
168	0x3c6db318	0.014508031
169	0x400261e5	2.037225
170	0xbe171214	-0.1475299
171	0xbe55a7ff	-0.20864867
172	0xbfae4f3f	-1.3617934
173	0xbd41a36c	-0.047274992
174	0xbfee90c2	-1.8637927
175	0xbfaff7de	-1.3747518
176	0xbeabb4fd	-0.3353652
177	0xbf9610cb	-1.1723875
178	0x3e1e2c65	0.15446623
179	0x3e200ed4	0.15630656
180	0x3f42b847	0.76062435
181	0x3f6c4f13	0.9230816
182	0xbfde6895	-1.7375666
183	0x3fa5cff9	1.2954093
184	0x3f781f49	0.9692274
185	0x3f88f111	1.0698568
186	0x3f23c9f6	0.6398004
187	0xbfa36591	-1.2765371
188	0xbf32899d	-0.6974123
189	0x4008313c	2.128005
190	0x3f005934	0.50136113
191	0x3f9abf77	1.208968
192	0x3e394dd9	0.18096103
193	0xbeaa39fc	-0.33247364
194	0x3fe485af	1.7853297
195	0x3fb35e76	1.4013202
196	0x3f8b512e	1.0884149
197	0xbf1ada16	-0.6048902
198	0xbef0077f	-0.4688072
199	0x3f0eb366	0.5574249
200	0x3c07c7b1	0.008287356
201	0xbfd5d8f3	-1.6706833
202	0x3f8dabfa	1.1068108
203	0x3f0793f9	0.52960163
204	0xbfa04780	-1.252182
205	0xbf78c2e4	-0.9717238
206	0xbdc289f5	-0.094989695
207	0x3dde451b	0.108530246
208	0x3e9de6ee	0.30840248
209	0xbf3c7d23	-0.73628443
210	0xbea4c7e6	-0.3218376
211	0xbeee96f2	-0.46599537
212	0x3f224e74	0.6340096
213	0x3f1e0217	0.6172194
214	0x3f9d6166	1.2295349
215	0x3f3e0f43	0.7424204
216	0x3efcff23	0.49413404
217	0x3f619a62	0.88126194
218	0xbe873c24	-0.2641307
219	0xbf3ca01f	-0.73681825
220	0xbf17dab0	-0.59318066
221	0x3ec27b13	0.37984523
222	0xbf10c928	-0.5655694
223	0xbed104e5	-0.40824047
224	0xbf1262d3	-0.57182044
225	0xbe57df2b	-0.21081226
226	0x3b67b848	0.0035357643
227	0xbea1a417	-0.31570503
228	0xbd256633	-0.040380668
229	0x3f4fc00d	0.8115242
230	0xbc1d8101	-0.009613276
231	0xbeea2d4a	-0.45737678
232	0x3f548f69	0.83031327
233	0xbfc3886f	-1.5276011
234	0x3f1b166c	0.6058109
235	0xbfed63cf	-1.8546084
236	0xbf77b68c	-0.9676292
237	0x3d95f2d0	0.073217034
238	0xbeedf870	-0.46478605
239	0xbed97219	-0.42469862
240	0x3fc11830	1.5085506
241	0xbd4c3cb1	-0.049862567
242	0xbf50a53c	-0.8150213
243	0xbf960eeb	-1.1723303
244	0x3ed59066	0.4171173
245	0xbe8b360c	-0.27189672
246	0xbcba8c4d	-0.022771979
247	0xbf5e2a01	-0.8678284
248	0xbe9ff959	-0.31244925
249	0x3e459b25	0.19297464
250	0xbf70b183	-0.9402086
251	0xbf9e8be8	-1.2386446
252	0x3f8df5bf	1.1090621
253	0xbff2e8e8	-1.8977327
254	0xbf099a4c	-0.53751063
255	0x3f8907b1	1.0705472

weight f4 [8, 32]
0	0x3e991ae7	0.29903337
1	0x3f968755	1.176005
2	0xc00b00cb	-2.1719234
3	0xbf86aacb	-1.0520872
4	0x3f815a43	1.0105671
5	0x404ca968	3.1978397
6	0xc070214a	-3.7520318
7	0xbf0aff35	-0.54295665
8	0x3f27276d	0.65294534
9	0xbfca7164	-1.5815854
10	0xbf0d56ef	-0.55210775
11	0xbe92a251	-0.28639463
12	0x3f0a8b33	0.5411865
13	0xbf9cf546	-1.2262352
14	0x3f736743	0.9507944
15	0x3f4550ed	0.7707661
16	0xbfaec892	-1.3654959
17	0x3f9a74c5	1.2066885
18	0x3c896502	0.016771797
19	0xc00cccbd	-2.1999962
20	0xbf9767c9	-1.1828548
21	0x4021c790	2.5278053
22	0x3fce3545	1.6110007
23	0xbfe6d0eb	-1.8032507
24	0x40062caf	2.0964773
25	0x3e276bf7	0.16349779
26	0x3dd409d3	0.10353436
27	0xbe4056a0	-0.18783045
28	0x3fd372b7	1.6519383
29	0x3f1ae6bf	0.6050834
30	0x3f2a9108	0.6662755
31	0x3f1cdc90	0.6127405
32	0x3dd5961a	0.1042902
33	0xbe9c70e5	-0.30554882
34	0x3f465e5a	0.7748772
35	0xbf613e03	-0.8798525
36	0xbfd2385e	-1.6423452
37	0xbf643823	-0.8914816
38	0xbfb8e280	-1.4444122
39	0x3e6c8916	0.23099169
40	0xbfce2414	-1.610476
41	0x3ee0a278	0.43873954
42	0x3efb5abc	0.49092662
43	0xbf433a44	-0.7626078
44	0xbf8b7400	-1.0894775
45	0xbbd4f190	-0.006498523
46	0x3c2f149e	0.010686068
47	0x3db7c0b0	0.08972299
48	0x3e41dd31	0.18932034
49	0xbfc75d3a	-1.5575325
50	0xc0081554	-2.1263018
51	0xbf9878b5	-1.1911837
52	0x3d853377	0.06503957
53	0x3f2a369a	0.66489565
54	0xbf02b154	-0.5105183
55	0xbe530e97	-0.20611034
56	0x3d1e3e80	0.038633823
57	0xbd8aaaf6	-0.067708895
58	0x3c88c3ac	0.016694866
59	0xbf9a90b9	-1.2075416
60	0x3f91a20b	1.1377577
61	0xbfcaac12	-1.5833762
62	0x3fb051a8	1.377492
63	0x3f370d81	0.7150498
64	0x3f27c89b	0.65540475
65	0xbea47f7a	-0.32128507
66	0xbf864205	-1.0488898
67	0x3f6bcb34	0.9210694
68	0x3fa4e4fe	1.2882383
69	0x3f0b8757	0.5450339
70	0xbef3562b	-0.47526678
71	0xbf0fd27a	-0.56180537
72	0x3f975713	1.1823448
73	0xbf2c940e	-0.67413414
74	0x3a67d680	0.00088439137
75	0xbf949e62	-1.1610835
76	0x3efc6bfd	0.4930114
77	0x3eb88c07	0.36044332
78	0xbf159976	-0.5843729
79	0x3f9f19a1	1.2429696
80	0xbf29fd58	-0.66402197
81	0x3ed06a6c	0.40706193
82	0x3e3b3de5	0.1828533
83	0xc00a899f	-2.1646497
84	0x3fd4d6a5	1.6628004
85	0xbd0485f0	-0.032354295
86	0xbe02a064	-0.12756497
87	0x3f88428c	1.0645308
88	0xbbba83d6	-0.0056919856
89	0x3e83fd6a	0.25779277
90	0x3f047e04	0.51754785
91	0xbf648c48	-0.8927655
92	0x3fe375fa	1.7770379
93	0x3dcbab27	0.09944754
94	0xbec4f990	-0.3847165
95	0xbeefab28	-0.4681027
96	0xbf18bcbd	-0.5966299
97	0x3febd9a2	1.8425791
98	0x3e9b291a	0.30304796
99	0x3d09bcc0	0.03362727
100	0x40081df4	2.1268282
101	0xbf314158	-0.6924033
102	0xbfce65e3	-1.6124843
103	0xbe130ee5	-0.1436115
104	0x3f90b61f	1.1305579
105	0x3f6225c9	0.88338906
106	0xc018f188	-2.389742
107	0xbfaa794c	-1.3318267
108	0xbf81911e	-1.0122411
109	0xbffd0640	-1.9767532
110	0xbde4a8c9	-0.11165006
111	0xbf4c1c17	-0.7973036
112	0x3f6f7757	0.93541473
113	0xbfbc50bd	-1.4712139
114	0x3df3e471	0.11908806
115	0xbfdb9a4b	-1.7156461
116	0x4001761e	2.0228343
117	0xbf04242e	-0.51617706
118	0xbde485fd	-0.11158369
119	0xbe95451f	-0.29154298
120	0x3fa145c1	1.2599412
121	0xbe508c46	-0.2036601
122	0xbf9aca47	-1.209298
123	0xbf56231b	-0.83647317
124	0xbeb0b09d	-0.34509745
125	0x3f81c955	1.0139567
126	0x3f5b054c	0.8555496
127	0x3e370fb4	0.17877084
128	0xbe66a109	-0.22522368
129	0xbe7e90c0	-0.24859905
130	0x3b4be314	0.003111069
131	0x3f5c9fef	0.8618154
132	0x3f666ecc	0.9001281
133	0xbe4a2b6c	-0.19743127
134	0x3f3b9a32	0.7328216
135	0x3fbb6789	1.4640971
136	0xbeca1ed8	-0.39476657
137	0xbf9e5bf9	-1.2371818
138	0x3ea80857	0.32818863
139	0x3ebf88e0	0.37409115
140	0xbfb86816	-1.4406765
141	0xbebe2473	-0.37137184
142	0x3f36425a	0.71194994
143	0x3eb6515f	0.35608956
144	0x3f7c93e2	0.9866315
145	0x3ebc2344	0.36745656
146	0x3e03ca8b	0.12870233
147	0xbdee0650	-0.11622298
148	0x3e93f39e	0.28896803
149	0x3de0f9a3	0.109851144
150	0xbf9dd83b	-1.2331613
151	0x3fe5d974	1.7956986
152	0x3f6dd43c	0.9290197
153	0x3e786dec	0.24260682
154	0x3ee5eb9e	0.44906324
155	0x3e87f921	0.26557258
156	0xbeb03a65	-0.34419551
157	0x3f28b0f9	0.6589504
158	0x3f436de9	0.76339585
159	0xbf06a0ac	-0.52588916
160	0xbf84d050	-1.0376072
161	0x3f0b6d8d	0.54464036
162	0xbf4e45c5	-0.8057521
163	0x3ef9d5b9	0.4879587
164	0x3e2ccd92	0.16875294
165	0xc0148118	-2.3203793
166	0x3ea0112c	0.312631
167	0x3fc43905	1.5329901
168	0xbf83b866	-1.0290649
169	0xbf7a4c94	-0.977731
170	0xbf2f9c8a	-0.68598235
171	0x3ef4e8e8	0.47833943
172	0x3eb277e3	0.3485709
173	0xbf5dff39	-0.86717564
174	0x3ea21e1d	0.316636
175	0xbf139e18	-0.57663107
176	0x3d5c2d9b	0.05375443
177	0xbee92bd7	-0.4554126
178	0xbd166a5f	-0.036722537
179	0x3fe42534	1.7823853
180	0xc003dea5	-2.0604641
181	0xbfef2e26	-1.8685958
182	0xbf566382	-0.83745587
183	0x3e9c8357	0.30568954
184	0x3f9c0160	1.218792
185	0x3e8652d6	0.26235074
186	0x3d1f00d5	0.038819153
187	0x3f73b8e9	0.95204026
188	0xbfc92b6a	-1.5716374
189	0x3f87cd14	1.060946
190	0x3ef5c68e	0.48003048
191	0xbef47fc8	-0.4775374
192	0x3f9d617f	1.2295378
193	0xc0061494	-2.095006
194	0x3f708e66	0.9396728
195	0xbfc6d2c7	-1.5533074
196	0x3eb6b560	0.35685253
197	0xbf6ee0b5	-0.93311626
198	0x4018f002	2.389649
199	0xbf31ec68	-0.6950135
200	0x40256778	2.5844402
201	0x3f6ceef7	0.9255213
202	0xbedaac7d	-0.42709723
203	0xbdba2f44	-0.090910465
204	0xbbae34a8	-0.0053163357
205	0xbd86565a	-0.06559439
206	0xc00fcc06	-2.2468276
207	0x3c81a6af	0.015826551
208	0xbc98094a	-0.018559117
209	0x3ef7d927	0.48407862
210	0x3eb07483	0.3446389
211	0x3e9bef10	0.30455828
212	0x3db9d708	0.09074217
213	0x402710fd	2.610412
214	0xbfa2dbdc	-1.2723346
215	0xbee28657	-0.44243118
216	0xbe88c53d	-0.2671298
217	0xbfa73220	-1.3062172
218	0xbdf6be4d	-0.12048016
219	0xbc6fadec	-0.014628869
220	0xbf778cee	-0.96699417
221	0x3f20374e	0.6258439
222	0x3e7821d0	0.24231648
223	0x3f03b3ea	0.514464
224	0xbf2cfb10	-0.6757059
225	0x3e4c321a	0.19940987
226	0x3fa80b91	1.312853
227	0xbf385d15	-0.7201703
228	0xbf08cae0	-0.5343456
229	0x3ec79b13	0.389855
230	0xc00a8748	-2.164507
231	0x3e7513c9	0.23933329
232	0x3e00663e	0.12539002
233	0xc0439944	-3.0562296
234	0xbfaabfc3	-1.3339771
235	0xbe8b98d3	-0.27265033
236	0xbf32dab3	-0.6986496
237	0xbf2df945	-0.6795848
238	0x3f19903a	0.599857
239	0x3f1028af	0.5631208
240	0x3d61adc4	0.055097356
241	0xbfe48845	-1.7854086
242	0x3fa983d4	1.3243356
243	0x3fd8d590	1.6940174
244	0x3f03ef04	0.51536584
245	0xbfa294d3	-1.2701668
246	0xbf960450	-1.1720066
247	0x3f27b72e	0.65513885
248	0x3d20411f	0.039124604
249	0x406778de	3.6167521
250	0xbe00ab34	-0.12565309
251	0xbee8d8a8	-0.45477796
252	0xbfb60c4b	-1.4222502
253	0x3e0a9f5a	0.1353735
254	0xbf913428	-1.1344042
255	0x3efefea2	0.49803644

tril f4 [8, 8]
0	0x3f800000	1.0
1	0x00000000	0.0
2	0x00000000	0.0
3	0x00000000	0.0
4	0x00000000	0.0
5	0x00000000	0.0
6	0x00000000	0.0
7	0x00000000	0.0
8	0x3f800000	1.0
9	0x3f800000	1.0
10	0x00000000	0.0
11	0x00000000	0.0
12	0x00000000	0.0
13	0x00000000	0.0
14	0x00000000	0.0
15	0x00000000	0.0
16	0x3f800000	1.0
17	0x3f800000	1.0
18	0x3f800000	1.0
19	0x00000000	0.0
20	0x00000000	0.0
21	0x00000000	0.0
22	0x00000000	0.0
23	0x00000000	0.0
24	0x3f800000	1.0
25	0x3f800000	1.0
26	0x3f800000	1.0
27	0x3f800000	1.0
28	0x00000000	0.0
29	0x00000000	0.0
30	0x00000000	0.0
31	0x00000000	0.0
32	0x3f800000	1.0
33	0x3f800000	1.0
34	0x3f800000	1.0
35	0x3f800000	1.0
36	0x3f800000	1.0
37	0x00000000	0.0
38	0x00000000	0.0
39	0x00000000	0.0
40	0x3f800000	1.0
41	0x3f800000	1.0
42	0x3f800000	1.0
43	0x3f800000	1.0
44	0x3f800000	1.0
45	0x3f800000	1.0
46	0x00000000	0.0
47	0x00000000	0.0
48	0x3f800000	1.0
49	0x3f800000	1.0
50	0x3f800000	1.0
51	0x3f800000	1.0
52	0x3f800000	1.0
53	0x3f800000	1.0
54	0x3f800000	1.0
55	0x00000000	0.0
56	0x3f800000	1.0
57	0x3f800000	1.0
58	0x3f800000	1.0
59	0x3f800000	1.0
60	0x3f800000	1.0
61	0x3f800000	1.0
62	0x3f800000	1.0
63	0x3f800000	1.0

weight f4 [32, 32]
0	0x3e2037ea	0.1564633
1	0x3e04095e	0.12894198
2	0xbd847996	-0.06468503
3	0xbd2b7a40	-0.041864634
4	0xbd522e90	-0.051313937
5	0x3caa133e	0.020761129
6	0xbd3c7ca6	-0.04601731
7	0x3e24f80f	0.16110252
8	0x3da507d6	0.08058135
9	0x3d7258fb	0.05916689
10	0xbd9c5662	-0.07633664
11	0x3e02f6ff	0.12789534
12	0xbd9e6f42	-0.077360645
13	0x3c00cfcd	0.007862044
14	0x3e325da2	0.1741853
15	0x3d37ad81	0.0448432
16	0xbdb78118	-0.089601696
17	0xbdf373fd	-0.118873574
18	0xbdeab133	-0.11459579
19	0xbd0ad602	-0.0338955
20	0xbd4e8c56	-0.050426804
21	0x3e180cd9	0.14848651
22	0x3e270057	0.16308723
23	0xbc8f2024	-0.01747138
24	0xbe16bf74	-0.14721471
25	0xbdb814eb	-0.08988365
26	0x3dccade0	0.099941015
27	0x3c02ae42	0.007976117
28	0xbe16b2e1	-0.14716674
29	0x3de0a63f	0.10969209
30	0x3d1f4020	0.038879514
31	0x3e231694	0.15926582
32	0x3def5224	0.11685589
33	0x3db8d6d4	0.0902535
34	0x3d478851	0.048713986
35	0xbd2fd94e	-0.042931847
36	0xbe0c0ea7	-0.13677464
37	0xbe2b5fd6	-0.16735777
38	0x3e14d06e	0.14532635
39	0x3e271149	0.16315188
40	0xbdeadddf	-0.114681
41	0x3df35c35	0.118828215
42	0xbdf647a8	-0.12025386
43	0x3b91ef2a	0.0044535594
44	0xbe0fbdfc	-0.14037317
45	0x3d920033	0.07128944
46	0x3df2626e	0.1183518
47	0x3e0502cc	0.12989348
48	0x3e26e5ef	0.1629865
49	0x3e15049c	0.1455254
50	0x3e155395	0.14582665
51	0x3cf7a246	0.030228745
52	0xbe111cf5	-0.14171202
53	0xbdb08d56	-0.08620708
54	0xbcfda988	-0.030964628
55	0xbd8a6ffc	-0.067596406
56	0xbdc92e59	-0.09823293
57	0x3d1ee71a	0.038794614
58	0x3d8b131a	0.06790753
59	0xbe196698	-0.14980543
60	0xbe1ca712	-0.15298107
61	0xbdfd99da	-0.123828605
62	0xbe275640	-0.16341496
63	0xbe37e3a1	-0.17957927
64	0xbdf34119	-0.11877651
65	0x3d90ea2b	0.07075914
66	0xbdaa740f	-0.08322918
67	0xbe1339d1	-0.14377524
68	0xbcba82d8	-0.02276747
69	0x3bdb6b64	0.0066961516
70	0x3e31a364	0.17347485
71	0xbe24a3d6	-0.16078123
72	0xbdafee7e	-0.08590411
73	0xbe104f8f	-0.14092849
74	0xbe240c05	-0.1602021
75	0xbe28fd7c	-0.16502947
76	0x3c6e9ad3	0.01456328
77	0x3b0bf558	0.0021355953
78	0x3da54e42	0.08071567
79	0x3dc56ec2	0.09640266
80	0xbd07f7b0	-0.033195198
81	0xbe17a357	-0.14808403
82	0x3de16ee0	0.11007476
83	0x3da1dc0a	0.07903297
84	0x3da152e1	0.07877136
85	0xbe18a065	-0.14904936
86	0xbb61d8dc	-0.0034461534
87	0xbd26aabb	-0.040690165
88	0xbc31e277	-0.010857216
89	0xbdbed094	-0.09317127
90	0xbe2aac2f	-0.16667245
91	0x3da0df54	0.078550965
92	0x3d1a2f6e	0.03764289
93	0xbd865ed6	-0.06561057
94	0x3d8f82ec	0.07007393
95	0xbcb7f328	-0.022454813
96	0xbdca0d04	-0.09865764
97	0x3a1368e0	0.00056232326
98	0xbe0e545d	-0.1389937
99	0xbc9b67ac	-0.018970333
100	0x3dfa082d	0.12208591
101	0x3d55524c	0.052080438
102	0xbdd4ed8f	-0.10396873
103	0xbd2dff56	-0.042479835
104	0xbdfdf400	-0.12400055
105	0x3e315123	0.17316107
106	0xbe267d38	-0.16258705
107	0xbcb42a32	-0.021992777
108	0x3dc66f6b	0.0968922
109	0x3d0772fd	0.033068646
110	0xbb5079b8	-0.0031810831
111	0xbdff0bdc	-0.12453434
112	0xbe223e21	-0.15844013
113	0x3e1417e2	0.14462236
114	0xbd21cddd	-0.039502967
115	0xbd490489	-0.04907659
116	0x3d58620c	0.05282788
117	0x3dda556b	0.106608234
118	0xbdd51984	-0.10405257
119	0xbdb8052e	-0.08985363
120	0xbe277fc0	-0.16357327
121	0x3d23ab48	0.03995827
122	0xbdf7fcf2	-0.12108792
123	0x3d861b74	0.06548205
124	0x3d921ca2	0.071343675
125	0xbdbee08e	-0.09320174
126	0x3e02478f	0.1272261
127	0xbd661ce6	-0.056179903
128	0x3d68cede	0.05683791
129	0x3db977cb	0.09056052
130	0x3e1788fc	0.14798349
131	0xbdfa469a	-0.122204974
132	0x3ddc8d70	0.107691646
133	0xbc7ed440	-0.015553534
134	0xbd052bc8	-0.032512456
135	0x3e1f676e	0.15566799
136	0x3d15a840	0.03653741
137	0x3de87e18	0.113521755
138	0xbd0cc689	-0.034369025
139	0xbe0deff5	-0.13861068
140	0x3db3a3bc	0.08771464
141	0xbcb8658c	-0.022509359
142	0x3adb2748	0.0016720081
143	0x3e1ca419	0.15296973
144	0xbd9d78bc	-0.07689044
145	0x3df757e7	0.12077313
146	0x3d868192	0.06567682
147	0x3dbf8787	0.09352022
148	0xbd9ece1b	-0.07754155
149	0xbd7c23f1	-0.061557714
150	0xbd2d3acb	-0.042292397
151	0xbe132d83	-0.1437283
152	0x3cc7dde3	0.024397796
153	0xbe3b0c2a	-0.18266359
154	0xbd4f3edd	-0.05059706
155	0x3e2a072f	0.16604303
156	0xbc7843d0	-0.0151528865
157	0x3dee622a	0.11639817
158	0xbe35e96d	-0.17764826
159	0x3cfda31c	0.030961566
160	0x3dc9cf62	0.09854008
161	0x3e25168e	0.16121885
162	0x3cb8e731	0.022571178
163	0x3df826ee	0.121168
164	0xbd9c05b2	-0.07618274
165	0x3d51f9db	0.05126367
166	0xbcf5cc08	-0.030004516
167	0x3d86f0c6	0.06588893
168	0x3e0ac872	0.13553026
169	0xbdd5d4a8	-0.104409516
170	0xbe2a58e5	-0.16635473
171	0xbe091df7	-0.13390337
172	0x3e287044	0.16449076
173	0xbe221a98	-0.15830457
174	0xbd6ec94e	-0.058297448
175	0xbe1cfcdc	-0.15330833
176	0xbbcf4124	-0.006324904
177	0x3dfb3ecd	0.12267838
178	0x3d927fa7	0.07153254
179	0x3df7752e	0.12082897
180	0x3e15a928	0.14615309
181	0xbe039841	-0.12851049
182	0xbe312555	-0.17299397
183	0x3dbbcadc	0.09169552
184	0x3dc06755	0.09394709
185	0x3cd26fcd	0.025688076
186	0xbe271d27	-0.16319714
187	0x3d1717ad	0.036887813
188	0x3df1509d	0.11782954
189	0x3e269992	0.1626952
190	0x3dd760a8	0.105164826
191	0x3e25e96e	0.16202328
192	0xbe0399a6	-0.12851581
193	0xbdce9de2	-0.100887075
194	0xbdfb123e	-0.12259339
195	0xbcd7785a	-0.026302505
196	0xbde651eb	-0.11246093
197	0x3d19ec04	0.037578598
198	0x3e2f7e81	0.17138101
199	0xbd16d64c	-0.036825463
200	0x3dfe7ba1	0.12425924
201	0x3e13d9e0	0.14438581
202	0x3e17e616	0.14833865
203	0x3e3d3a07	0.18479167
204	0xbdc68aa5	-0.09694413
205	0xbe0d114c	-0.1377613
206	0xbd9ff4e2	-0.078103796
207	0xbd5ab0ed	-0.053391386
208	0x3d5b0e68	0.053480536
209	0x3db1b460	0.08676982
210	0x3de6714e	0.1125208
211	0x3de0ee29	0.109829254
212	0xbe0e08e7	-0.13870583
213	0x3e22dea5	0.15905245
214	0x3e1f53a3	0.15559249
215	0xbd3068d2	-0.043068714
216	0x3db43b0a	0.08800323
217	0x3e1eda8c	0.15513057
218	0x3db6f6f6	0.08933823
219	0xbc216a8f	-0.009852066
220	0xbe37c34a	-0.1794559
221	0x3d922baf	0.07137238
222	0xbe26abb5	-0.16276439
223	0x3de24d86	0.11049943
224	0xbd13ef6c	-0.036117002
225	0x3d426a09	0.047464404
226	0xbdce9de3	-0.10088708
227	0xbd779142	-0.060441263
228	0xbdb150a5	-0.0865796
229	0xbe160781	-0.146513
230	0x3c3d2840	0.011545241
231	0xbe18a0a5	-0.14905031
232	0x3e0792f3	0.1323965
233	0x3d1196a1	0.03554404
234	0x3d5cab3c	0.05387424
235	0x3dac980b	0.084274374
236	0x3d8a6fdc	0.06759617
237	0x3e170084	0.1474629
238	0x3cecfea0	0.028930008
239	0x3d983d59	0.07433576
240	0x3dfb9523	0.12284305
241	0xbdeeb37e	-0.11655329
242	0xbe3385b4	-0.17531472
243	0xbe1db147	-0.15399657
244	0xbdf6464a	-0.12025125
245	0x3dc7662a	0.09736283
246	0x3c990300	0.018678188
247	0x3d6a2818	0.057167143
248	0x3e00bbd8	0.12571657
249	0x3af51f00	0.0018701255
250	0xbdf01764	-0.117232114
251	0xbe2261f2	-0.15857676
252	0xbde8773a	-0.11350866
253	0xbe205998	-0.15659177
254	0xbd9cced0	-0.07656634
255	0x3da0efc6	0.07858233

bias f4 [32]
0	0xbe193932	-0.14963225
1	0x3df9b56c	0.121928066
2	0xbcf3d13c	-0.029762857
3	0xbdb32795	-0.08747784
4	0x3c69b577	0.014264456
5	0xbdd13d7b	-0.102168046
6	0x3e0df15b	0.13861601
7	0x3ab3edb0	0.0013727453
8	0xbdc22296	-0.09479253
9	0xbdb91224	-0.09036663
10	0xbe2a26a9	-0.1661631
11	0x3e2529bd	0.16129203
12	0x3e207de2	0.1567302
13	0x3bc759cd	0.006083703
14	0x3c3e8f90	0.011630908
15	0x3e3b8b1a	0.18314782
16	0xbd76d5a2	-0.06026233
17	0xbd3f3b50	-0.046687424
18	0x3cfb582a	0.030681688
19	0xbe05fdef	-0.13085149
20	0xbe0ce3e6	-0.13758811
21	0x3ca5c4fe	0.020235535
22	0x3de2625f	0.11053919
23	0x3cf44d58	0.029822037
24	0x3d614cda	0.055004932
25	0xbdb0d174	-0.086337
26	0xbe08b9dd	-0.13352151
27	0x3df4d0bc	0.119538754
28	0x3e25fcf6	0.16209778
29	0xbc0a8a89	-0.008455881
30	0xbdad1f3c	-0.08453223
31	0xbdbbe6c1	-0.09174872

weight f4 [32, 32]
0	0xbe0d52e8	-0.13801157
1	0x3c7fb0ff	0.015606164
2	0xbe0b3f00	-0.13598251
3	0xbe0d3c77	-0.13792597
4	0xbdfee266	-0.12445526
5	0x3d2fe139	0.0429394
6	0x3dd34045	0.10314993
7	0xbe1c46b3	-0.15261345
8	0xbc149862	-0.009069534
9	0x3d98b3ea	0.07456191
10	0x3d668f2f	0.056288894
11	0x3d0ab776	0.03386637
12	0xbe3c56e3	-0.1839252
13	0xbdc4ab81	-0.09603024
14	0x3e0e1f59	0.13879146
15	0xbe173452	-0.14766052
16	0xbd9600d0	-0.07324374
17	0x3ce2ef66	0.027702045
18	0x3d4248e2	0.047432788
19	0xbe236928	-0.15958083
20	0x3d5d0d20	0.053967595
21	0xbc2ef5e4	-0.010678742
22	0xbe3352a7	-0.17511998
23	0xbd5d9f08	-0.054106742
24	0xbddfdd50	-0.10930884
25	0x3d731bc9	0.05935267
26	0xbd3d621b	-0.04623614
27	0x3d7ac77b	0.061225396
28	0xbdc4719b	-0.09591981
29	0x3e1a277e	0.15054128
30	0x3df99e60	0.12188411
31	0x3dfa2018	0.12213153
32	0x3cf7206e	0.03016683
33	0xbe1d2da7	-0.15349446
34	0xbe21c7b0	-0.15798831
35	0x3d870e2d	0.06594501
36	0xbdc66bee	-0.09688555
37	0xbde96a0a	-0.113971785
38	0x3d1cfc13	0.038326334
39	0x3dd2f784	0.10301116
40	0x3e15731a	0.14594689
41	0xbe028e30	-0.12749553
42	0xbd18203f	-0.037140127
43	0x3da1b682	0.07896139
44	0xbd268e6c	-0.040663168
45	0xbe1d581f	-0.15365647
46	0x3c907c3a	0.01763736
47	0xbbde563a	-0.0067851814
48	0x3ce65cb2	0.028120372
49	0xbdca3034	-0.09872475
50	0x3d7b3235	0.061327178
51	0x3e106fe1	0.14105178
52	0xbda80eb0	-0.082059264
53	0xbe2b86d0	-0.16750646
54	0xbe05fff7	-0.13085924
55	0x3c7e53c7	0.015522904
56	0x3e2205f4	0.15822583
57	0xbe17e97f	-0.14835165
58	0x3e010bf7	0.1260222
59	0xbe0ddeeb	-0.13854568
60	0x3e18310b	0.14862458
61	0xbd3f1aeb	-0.04665653
62	0xbdf71ae8	-0.12065679
63	0xbcb49fc4	-0.022048838
64	0xbe1a84ef	-0.15089773
65	0x3d8baada	0.06819697
66	0x3d6e1ef3	0.058134984
67	0x3e195785	0.14974792
68	0x3cdd094d	0.026981974
69	0x3e00809c	0.1254906
70	0xbda4433c	-0.080206364
71	0x3dc5219a	0.096255496
72	0x3c8514ee	0.016245332
73	0x3da591f5	0.0808448
74	0xbcd17efd	-0.025573248
75	0xbe128cca	-0.1431152
76	0x3dd21a82	0.10258962
77	0xbe028d77	-0.12749277
78	0xbcb137dc	-0.021633081
79	0xbcf93a52	-0.030423317
80	0x3baaa449	0.0052075726
81	0x3e1dc9f8	0.15409076
82	0xbd4a418a	-0.04937891
83	0x3e1f94e0	0.15584135
84	0xbdbf3920	-0.093370676
85	0x3e23e17d	0.16003986
86	0x3deb2b70	0.114828944
87	0x3c4aa5ec	0.01236866
88	0xbd71e2c6	-0.05905416
89	0x3deff95f	0.11717486
90	0xbd7b387a	-0.061333157
91	0x3d88a35b	0.066717826
92	0xbe277a61	-0.16355278
93	0xbdb307fa	-0.08741756
94	0xbd33f415	-0.043933947
95	0x3e04f9e5	0.12985952
96	0xbe1ab5f9	-0.1510848
97	0xbd90263a	-0.07038541
98	0x3ddad38f	0.10684883
99	0xbdc4500c	-0.0958558
100	0xbe269eb3	-0.16271476
101	0x3d2052fa	0.039141633
102	0xbe2a36fb	-0.16622536
103	0x3e16ed3d	0.14738937
104	0xbe39ca3e	-0.18143556
105	0x3af3a508	0.0018588612
106	0x3e24ce1f	0.16094254
107	0x3b313f20	0.0027045682
108	0xbd6db923	-0.05803789
109	0x3d58f363	0.052966487
110	0x3d212163	0.03933848
111	0xbc54d9b7	-0.01299136
112	0xbcca0d58	-0.024664566
113	0x3c871184	0.016487844
114	0x3c2257b6	0.009908607
115	0xbd90959c	-0.07059786
116	0xbb83cb04	-0.004022004
117	0xbdc3e10d	-0.095644094
118	0x3e1b72c0	0.15180492
119	0xbe26b7bc	-0.16281027
120	0x3e14ec16	0.14543185
121	0x3da45b10	0.08025181
122	0x3e1a183b	0.15048306
123	0x3cc89668	0.024485782
124	0xbe0b0ccb	-0.13579099
125	0xbcc7ea4b	-0.024403712
126	0x3de798d0	0.113084435
127	0x3d8eeff1	0.06979359
128	0x3e2d8ed5	0.16949017
129	0xbd7188eb	-0.058968466
130	0xbd848eb7	-0.06472533
131	0xbdd840ac	-0.1055921
132	0xbe322cbe	-0.1739988
133	0xbe170d50	-0.14751172
134	0x3dcbaaac	0.099446625
135	0x3bb09d52	0.005389848
136	0x3d04070c	0.032233283
137	0xbd6dc61d	-0.058050264
138	0xbe25dfae	-0.16198608
139	0xbda86dc9	-0.08224065
140	0x3dc0c1c5	0.094119586
141	0x3deddca3	0.11614349
142	0xbdcecf93	-0.100981854
143	0xbd2c137e	-0.042010777
144	0xbe35c82a	-0.17752138
145	0x3d1d6258	0.038423866
146	0x3d2885f7	0.041143384
147	0x3e228f6b	0.15875022
148	0xbc48cb0f	-0.012255444
149	0xbd3fa41e	-0.046787374
150	0x3c2f826c	0.010712247
151	0x3e13dcba	0.14439669
152	0x3d2f07a0	0.04273188
153	0x3cc0770e	0.02349427
154	0xbc8210d0	-0.015877157
155	0xbd918214	-0.071048886
156	0x3d303c55	0.043026287
157	0x3deb7520	0.11496949
158	0x3d50cab4	0.050974563
159	0xbd846585	-0.06464676
160	0xbb0869b0	-0.0020814948
161	0x3e1c7c6e	0.15281841
162	0xbd7b29af	-0.06131905
163	0xbddd4c2a	-0.10805543
164	0xbe1ee6cd	-0.15517731
165	0x3daece36	0.08535425
166	0xbdd9421d	-0.10608313
167	0xbe2845fe	-0.1643295
168	0x3dbc97c4	0.092086345
169	0xbde4f5e4	-0.111797124
170	0xbe15c978	-0.14627635
171	0x3bd94426	0.0066304384
172	0xbe238e83	-0.15972333
173	0x3d923b46	0.07140212
174	0xbd951896	-0.0728008
175	0xbd58cf14	-0.05293186
176	0xbd2e3c7b	-0.042538147
177	0xbd18bdcf	-0.03729039
178	0x3da4dfd9	0.08050508
179	0x3e1d3bf4	0.15354902
180	0xbd35119c	-0.044206247
181	0x3d6707f5	0.056404073
182	0xbe364acc	-0.1780197
183	0xbda78064	-0.081787854
184	0x3e068e5a	0.1314024
185	0x3d49b20a	0.049242057
186	0xbcdc5616	-0.026896518
187	0x3e12f93a	0.14352885
188	0x3dc59684	0.09647849
189	0xbe01f6b1	-0.12691762
190	0xbd844ee4	-0.0646036
191	0x3e2669c9	0.16251291
192	0xbdbb2247	-0.09137397
193	0xbdbf3610	-0.093364835
194	0xbde7cc10	-0.11318219
195	0x3df78051	0.12085021
196	0x3e0910f3	0.13385372
197	0x3dfef77e	0.12449549
198	0xbe0a425d	-0.13501878
199	0x3cf9539a	0.030435372
200	0x3e129ae4	0.14316899
201	0xbe28e91f	-0.16495179
202	0xbe340ddb	-0.1758341
203	0xbcf711f6	-0.030159932
204	0x3d21a213	0.039461207
205	0xbe29d3e6	-0.16584739
206	0xbe209250	-0.15680814
207	0xbd320c64	-0.043468848
208	0x3dcc8efc	0.099882096
209	0xbe150014	-0.14550811
210	0xbe1ee92d	-0.15518637
211	0xbdc9e6c3	-0.098584674
212	0xbe007dfd	-0.1254806
213	0xbd3eca87	-0.046579864
214	0x3e114198	0.14185178
215	0xbda25ce6	-0.07927875
216	0x3dd4f542	0.10398342
217	0x3db7c0a5	0.08972291
218	0xbdc8902a	-0.09793122
219	0xbc80489c	-0.015659623
220	0x3e1d7eb4	0.15380365
221	0xbc76450e	-0.015031112
222	0xbd264c53	-0.040600132
223	0x3ab54f90	0.0013832916
224	0x3d20e48f	0.03928047
225	0xbb878096	-0.0041352017
226	0xbd36d1cc	-0.04463367
227	0xbd8be464	-0.068306714
228	0x3dcb108c	0.099152654
229	0x3d5589ec	0.052133486
230	0x3dfc46b1	0.12318171
231	0xbd22cd22	-0.03974641
232	0xbd92f1ad	-0.07175002
233	0xbd1f44da	-0.03888402
234	0xbc8d763a	-0.017268289
235	0x3d9ebd69	0.07750971
236	0x3d9045a1	0.07044531
237	0xbd339824	-0.043846264
238	0x3d9c7a39	0.076404996
239	0x3ce19b78	0.027539954
240	0x3e0f91c8	0.14020455
241	0xbda00eee	-0.078153476
242	0x3e0eb918	0.13937795
243	0xbdc38ade	-0.09547971
244	0x3d864ee3	0.06558015
245	0x3e1bfb5c	0.15232605
246	0xbddb177e	-0.1069784
247	0xbdd26cba	-0.10274644
248	0x3de408e3	0.111345075
249	0x3de69b5a	0.112601
250	0x3c55eec5	0.013057415
251	0x3dbe9c3a	0.093071416
252	0x3e16db9b	0.1473221
253	0xbda1009b	-0.078614436
254	0xbdb0eed3	-0.08639302
255	0x3c350594	0.011048693

weight f4 [32, 32]
0	0xbe0b1148	-0.13580811
1	0x3c87a6d7	0.016559048
2	0xbbb26d00	-0.0054451227
3	0x3dbf50d4	0.093415886
4	0xbdd44c9e	-0.10366176
5	0x3daec660	0.08533931
6	0xbd80ca66	-0.062886044
7	0x3d71d9ce	0.059045605
8	0x3dccc055	0.09997622
9	0xbbae23de	-0.0053143343
10	0x3e05a29a	0.13050309
11	0x3c4360ac	0.011924904
12	0x3cd8fcff	0.026487825
13	0x3c5d11b5	0.013492991
14	0xbe05f6ee	-0.13082477
15	0xbd1c3e1e	-0.038145177
16	0x3e0a9a7e	0.13535497
17	0x3dc6916d	0.096957065
18	0x3d37e8ba	0.04489968
19	0x3d842fc2	0.064544216
20	0x3dc9d6af	0.09855401
21	0xbcc5a17c	-0.024124853
22	0xbbcd470c	-0.006264573
23	0x3d1c1baa	0.03811232
24	0xbe20d482	-0.15706065
25	0x3e01198f	0.12607406
26	0x3e20e453	0.15712099
27	0x3e28adb8	0.16472518
28	0xbe162ddb	-0.1466593
29	0xbda9d471	-0.08292473
30	0x3e0975b2	0.13423803
31	0x3dabd49a	0.0839016
32	0xbe211d84	-0.15733916
33	0x3dc4f14c	0.09616336
34	0xbbe7b9e9	-0.0070717228
35	0xbdd1b3bc	-0.1023936
36	0xbe1f8743	-0.15578942
37	0xbb7aab9c	-0.003824926
38	0xbda52d27	-0.08065253
39	0xbdad256f	-0.084544055
40	0xbd6b6b8a	-0.057475604
41	0x3d8c594d	0.0685297
42	0xbd3558ef	-0.044274267
43	0xbd28163c	-0.04103683
44	0x3cf3ea0f	0.029774694
45	0x3e14c928	0.1452986
46	0x3d61d838	0.055137843
47	0xbc6568f1	-0.014002071
48	0x3dbbc772	0.091689005
49	0xbdef9811	-0.11698926
50	0x3dc43fc8	0.09582478
51	0x3e08ed73	0.1337183
52	0x3d813834	0.06309548
53	0x3ceb6c5f	0.028738199
54	0xbdfbd7fa	-0.12297054
55	0x3e12155d	0.14265962
56	0xbded0424	-0.115730554
57	0x3e12e88e	0.14346525
58	0xbd7b2f62	-0.061324485
59	0xbd9b3b97	-0.07579725
60	0xbd17ce9c	-0.037062272
61	0x3e1602a7	0.1464945
62	0x3ceae23c	0.02867233
63	0xbe36300c	-0.17791766
64	0x3d1a1adf	0.037623283
65	0xbdb77642	-0.08958103
66	0xbd48a4d1	-0.048985306
67	0xbd9e81ea	-0.07739623
68	0x3bcb1e46	0.0061986772
69	0xbdcf1a14	-0.10112396
70	0xbce55cde	-0.027998384
71	0xbdaa0053	-0.08300843
72	0xbda40071	-0.08007897
73	0xbc57534c	-0.013142418
74	0xbd6a4216	-0.05719193
75	0x3e227a20	0.158669
76	0x39fd0a00	0.0004826337
77	0x3de314de	0.110879645
78	0xbe299755	-0.16561635
79	0x3c8ceb96	0.01720218
80	0x3e11ed9f	0.14250802
81	0x3e3c98c2	0.18417647
82	0x3d3455a0	0.04402697
83	0xbe077608	-0.13228619
84	0x3e37c72d	0.17947073
85	0xbd48ca91	-0.049021307
86	0x3d96e9ce	0.073688135
87	0xbdb3154f	-0.08744299
88	0xbe0d2354	-0.13783008
89	0xbde3de84	-0.11126426
90	0x3e13465d	0.1438231
91	0x3d7f09ad	0.062265087
92	0x3db4e6a9	0.088330574
93	0xbe0e98dc	-0.13925499
94	0xbc4d6ef2	-0.012538658
95	0xbcc78beb	-0.02435871
96	0xbd36975b	-0.044577938
97	0x3e21180c	0.1573183
98	0x3d275e52	0.040861435
99	0xbd0fe7a6	-0.035133027
100	0x3d31720e	0.04332166
101	0x3e1500f8	0.14551151
102	0xbd77a6c1	-0.060461763
103	0x3e25e9b3	0.1620243
104	0x3d877b37	0.06615298
105	0x3e192233	0.14954452
106	0x3d620218	0.055177778
107	0x3dad0d8c	0.084498495
108	0xbe0b3fd7	-0.13598572
109	0xbe108d8a	-0.14116493
110	0x3d31f7c9	0.043449197
111	0xbe3a9e22	-0.18224385
112	0x3e32ad84	0.17449003
113	0x3d5dc215	0.05414017
114	0x3dca10e2	0.098665014
115	0xbe0ea710	-0.13930917
116	0x3db3d69a	0.087811664
117	0xbc9845a8	-0.018587902
118	0x3e1779f7	0.1479262
119	0x3d3bc48c	0.04584174
120	0xbdddf5a2	-0.10837866
121	0xbe25ff50	-0.16210675
122	0xbd6ab487	-0.05730107
123	0xbd3fec24	-0.04685606
124	0x3db84c04	0.08998874
125	0x3df7bb5d	0.120962836
126	0xbdd8cbc3	-0.105857395
127	0x3b3755d6	0.0027974746
128	0x3dc55ebd	0.096372105
129	0x3d692591	0.05692059
130	0x3e18da22	0.14926961
131	0x3e1965aa	0.14980188
132	0xbddc7188	-0.10763842
133	0xbd33aeee	-0.043867998
134	0x3e13f6c0	0.14449596
135	0xbd90b46d	-0.070656635
136	0x3d4880aa	0.04895083
137	0x3e2b3d10	0.16722512
138	0xbd6d2bf3	-0.05790324
139	0xbd35fbc9	-0.044429574
140	0x3cb3acf6	0.02193306
141	0xbe12ab2c	-0.1432311
142	0x3e25108b	0.16119592
143	0x3e0cc47c	0.13746828
144	0x3de19e55	0.110165276
145	0xbc34e7a9	-0.01104156
146	0x3dbe7bb7	0.093009405
147	0x3df48915	0.11940209
148	0x3d9bc835	0.07606546
149	0x3dec0109	0.11523635
150	0x3df02f76	0.117278025
151	0xbe34283d	-0.17593475
152	0xbe1d52a4	-0.15363556
153	0x3dd695f0	0.10477817
154	0x3e0bc2a2	0.13648465
155	0xbe00c0fc	-0.12573618
156	0x3c5e00bc	0.01354998
157	0xbd27c9dd	-0.040963996
158	0xbd99fb0b	-0.07518586
159	0x3d0d2cb8	0.034466475
160	0x3d8e1463	0.06937482
161	0xbd2489a2	-0.04017032
162	0x3dd70cc2	0.1050048
163	0x3e2a853b	0.16652386
164	0x3c9e7f08	0.019347683
165	0xbde4c45e	-0.111702666
166	0xbe15a352	-0.14613083
167	0xbd9cd9fa	-0.07658763
168	0x3c951f56	0.018203419
169	0x3d78ba2f	0.060724434
170	0xbdd5cac6	-0.104390666
171	0xbe02ef04	-0.1278649
172	0xbdb42bb2	-0.08797397
173	0xbd7fecc8	-0.06248167
174	0xbe0c8af8	-0.13724887
175	0x3e27af51	0.16375472
176	0xbd930736	-0.0717911
177	0xbd8dae68	-0.06918031
178	0xbdc0d664	-0.09415892
179	0x3d3b7218	0.045763105
180	0x3e289836	0.16464314
181	0x3da43f88	0.0801993
182	0x3e1710f6	0.14752564
183	0x3d38c894	0.04511316
184	0x3d522b4d	0.051310826
185	0x3c9ec866	0.019382667
186	0x3d6b798c	0.057488963
187	0xbc334c9f	-0.010943561
188	0xbdc57fa3	-0.096434854
189	0x3d0bbb7f	0.034114357
190	0xbc59f492	-0.013302939
191	0xbe0072eb	-0.12543838
192	0x3e08cd90	0.13359666
193	0x3d9fd178	0.07803625
194	0x3d32fd0e	0.043698363
195	0x3dda7660	0.106671095
196	0xbd02c544	-0.03192641
197	0xbe19c22f	-0.15015481
198	0x3d064446	0.032779954
199	0x3e20884c	0.15676993
200	0xbdd44ff5	-0.10366813
201	0x3df4eec1	0.11959601
202	0xbde51be9	-0.11186964
203	0xbdc3c888	-0.09559733
204	0xbe1b26a1	-0.15151455
205	0x3e11b077	0.14227472
206	0xbda5f4ba	-0.081033185
207	0xbc27c81d	-0.010240582
208	0xbdb1ec26	-0.0868762
209	0x3e1b93fe	0.15193173
210	0x3d1f3774	0.038871244
211	0x3d133eff	0.03594875
212	0xbd64503e	-0.055740587
213	0xbcc566bc	-0.02409684
214	0xbdd6f376	-0.10495655
215	0x3cede7a2	0.029041115
216	0x3dc05ad3	0.09392323
217	0xbe14a689	-0.14516653
218	0x3e1b896c	0.15189141
219	0x3e18a010	0.14904809
220	0xbdc94e24	-0.09829357
221	0xbdfa11d9	-0.122104354
222	0xbd996abe	-0.074910626
223	0xbe369b0e	-0.17832586
224	0x3de25bce	0.110526666
225	0xbdc37798	-0.09544295
226	0xbd4fa3c6	-0.050693296
227	0xbd843900	-0.064561844
228	0x3e019566	0.12654647
229	0xbdcae257	-0.09906452
230	0x3d4545bb	0.048162203
231	0x3e325f0e	0.17419073
232	0x3e324503	0.17409138
233	0xbe29090a	-0.16507354
234	0xbd7a415b	-0.061097484
235	0x3d47ecfd	0.048809994
236	0x3e1f91bd	0.15582938
237	0xbcca3293	-0.024682319
238	0xbd7d5972	-0.06185288
239	0xbc715b96	-0.014731308
240	0x3e26d64e	0.16292688
241	0x3d3f0850	0.046638787
242	0xbe2aebb0	-0.1669147
243	0xbdfde3fb	-0.123969994
244	0x3dcb972d	0.09940944
245	0x3c8bc15b	0.017059973
246	0x3c4d8d19	0.012545847
247	0xbb20be78	-0.002452759
248	0x3c694b1c	0.014239099
249	0xbe29e861	-0.16592552
250	0x3d3462d8	0.044039577
251	0x3da6c694	0.081433445
252	0x3db10995	0.08644406
253	0x3d3eb4b4	0.04655905
254	0x3daaee41	0.083462246
255	0xbd659238	-0.05604765

weight f4 [32, 32]
0	0xbd88c678	-0.0667848
1	0xbda101d1	-0.078616746
2	0x3de541d4	0.11194196
3	0xbd8c5b0c	-0.06853303
4	0x3cd94874	0.026523806
5	0xbe15e9cb	-0.14639966
6	0xbd839686	-0.064251944
7	0x3e064646	0.13112745
8	0x3c6a5a78	0.014303796
9	0x3daa598a	0.083178595
10	0xbd02324c	-0.031786248
11	0x3dd4df69	0.103941746
12	0x3c919554	0.0177714
13	0x3dc32b55	0.09529749
14	0x3d11f85e	0.035637252
15	0x3d0caee0	0.03434646
16	0x3e392038	0.18078697
17	0x3dddc4ac	0.10828528
18	0xbd219fa4	-0.039458886
19	0xbdb1efb4	-0.08688298
20	0x3df087b9	0.11744637
21	0xbdeb3df3	-0.11486425
22	0x3e235dd4	0.15953761
23	0xbdae8466	-0.08521347
24	0xbd66ec30	-0.05637759
25	0xbe051e12	-0.12999752
26	0xbe1c6a37	-0.15274893
27	0xbd9a481b	-0.07533284
28	0x3e3ba6e3	0.18325381
29	0x3e2432f6	0.16035065
30	0xbc61314d	-0.013744664
31	0xbd80982d	-0.06279025
32	0xbd8c6ba8	-0.06856471
33	0x3d00118b	0.03126673
34	0xbba85742	-0.005137355
35	0x3d03c310	0.032168448
36	0xbe024c1b	-0.12724344
37	0x3d3d5609	0.046224628
38	0x3dc72c36	0.097252294
39	0x3da0e337	0.07855838
40	0xbce8ba94	-0.02840928
41	0xbe13458a	-0.14381996
42	0xbbd2c1f4	-0.0064318124
43	0xbd1ea26d	-0.03872912
44	0x3e3c8def	0.18413518
45	0x3dfd15a1	0.12357641
46	0x3d7a4391	0.061099593
47	0xbe003c68	-0.12523043
48	0x3dbbb248	0.09164864
49	0xbe35f23b	-0.17768185
50	0x3e03ac33	0.12858658
51	0xbe191688	-0.14950001
52	0x3e02cfee	0.12774631
53	0x3dacbf21	0.084348924
54	0x3d4d176d	0.05007117
55	0x3d8c9eb5	0.068662085
56	0xbde977c8	-0.113997996
57	0x3d8f64b4	0.070016295
58	0x3de8b15b	0.11361953
59	0x3d891aff	0.06694602
60	0xbe21a9aa	-0.15787378
61	0xbd8a7854	-0.06761232
62	0xbda479c7	-0.0803104
63	0x3d2c69d3	0.04209311
64	0xbcee60ec	-0.02909895
65	0x3e093023	0.13397269
66	0x3e2a708b	0.16644494
67	0x3e2e7e48	0.1704036
68	0x3d0d421a	0.034486867
69	0x3de5f18f	0.11227714
70	0xbe237546	-0.15962705
71	0xbe03e4f4	-0.12880307
72	0xbd73dfb8	-0.059539527
73	0xbd2278fa	-0.039666153
74	0xbdc2ff3c	-0.09521338
75	0xbd1a0214	-0.037599638
76	0xbe038c10	-0.12846398
77	0xbcaceaf2	-0.021108124
78	0xbcde4af9	-0.02713536
79	0xbd9679f2	-0.07347478
80	0x3da6df0a	0.0814801
81	0xbd9e81e5	-0.07739619
82	0x3d3be18d	0.0458694
83	0x3d4ef2c1	0.050524477
84	0x3c3a4f22	0.011371406
85	0x3e17670b	0.14785402
86	0xbe3b7f4b	-0.18310277
87	0xbdebf48d	-0.11521254
88	0xbd7c11ed	-0.061540533
89	0xbde6c84c	-0.11268672
90	0x3c99b503	0.01876307
91	0x3dd95d54	0.10613504
92	0xbe158a07	-0.14603435
93	0x3d053b45	0.032527227
94	0xbe062b5f	-0.13102482
95	0x3d0e8ae9	0.034800444
96	0xbe0640e0	-0.13110685
97	0x3d1e7a4d	0.038690854
98	0xbd921b08	-0.07134062
99	0x3ab32450	0.0013667438
100	0x3e20dcdb	0.1570925
101	0x3dc9543e	0.09830521
102	0xbd25e001	-0.04049683
103	0xbb99f48e	-0.0046983426
104	0x3cb5f066	0.022209357
105	0x3db8971f	0.09013199
106	0xbc8fa46d	-0.017534459
107	0xbde446cc	-0.11146316
108	0xbc452e4d	-0.012034965
109	0xbdb47f8f	-0.08813392
110	0xbddb11dc	-0.10696766
111	0x3e1516db	0.145595
112	0xbe002788	-0.1251508
113	0x3d9bda18	0.076099575
114	0xbdefc10d	-0.117067434
115	0xbaf785f0	-0.0018884521
116	0xbc4ce7cf	-0.012506439
117	0x3def8185	0.11694626
118	0xbd2d87f8	-0.042365998
119	0xbbd58562	-0.0065161446
120	0xbddc37a0	-0.10752797
121	0xbdfdf3fa	-0.124000505
122	0xbe05d7be	-0.1307058
123	0xb99d8aa0	-0.00030048657
124	0x3e21b029	0.15789856
125	0xbcd6232c	-0.026139818
126	0xbd465bc8	-0.048427373
127	0xbe1a4636	-0.15065846
128	0xbd2722e1	-0.040804747
129	0x3df222b2	0.11823024
130	0xbdbd1fc8	-0.092345774
131	0xbdf2b71e	-0.11851333
132	0xbdd26bf4	-0.10274497
133	0xbe10f5cd	-0.14156266
134	0xbd9059d7	-0.070483856
135	0xbddd3b72	-0.10802354
136	0x3e1cffee	0.15332004
137	0x3e308941	0.17239858
138	0x3d0b4501	0.034001354
139	0xbd94e858	-0.072708786
140	0x3e137bfe	0.14402768
141	0xbd8905ec	-0.06690583
142	0x3d4de906	0.050271057
143	0x3c2ed884	0.010671739
144	0xbdedc635	-0.116100706
145	0x3dc0d509	0.09415633
146	0xbd4bd08c	-0.049759433
147	0xbd134ce8	-0.035962015
148	0xbe178359	-0.14796199
149	0xbd4aafc3	-0.049484026
150	0x3d20b12b	0.03923146
151	0x3d19bdf5	0.037534673
152	0x3dc35e8c	0.09539518
153	0x3d1813c0	0.03712821
154	0x3d91e53e	0.071238026
155	0xbd8ffb32	-0.070303336
156	0xbe03865a	-0.1284422
157	0xbdb0b4f6	-0.086282656
158	0xbdef1fcb	-0.11675986
159	0xbde69e20	-0.11260629
160	0xbe1a46c3	-0.15066056
161	0x3bd26bd4	0.0064215455
162	0xbdb5de71	-0.08880318
163	0x3e3cfb5d	0.18455262
164	0x3cca8029	0.024719315
165	0xbdbfcc4e	-0.0936514
166	0x3dd74f90	0.10513222
167	0x3cbd008a	0.023071546
168	0xbdc2c606	-0.09510426
169	0x3dbbd0be	0.09170674
170	0xbe04c8c0	-0.12967205
171	0xbd06d680	-0.032919407
172	0xbe0184ad	-0.12648268
173	0xbd9edaca	-0.077565745
174	0x3d74ffb3	0.059814166
175	0xbdba2a9c	-0.09090158
176	0x3e0d1da7	0.13780843
177	0x3d01b0e0	0.03166282
178	0xbe221c94	-0.15831214
179	0xbdf993e7	-0.12186413
180	0x3c944dae	0.018103447
181	0x3c0ea77d	0.0087069245
182	0xbcae14b6	-0.02125011
183	0x3d8692dc	0.0657098
184	0xbde01e3b	-0.10943266
185	0x3d750ed8	0.05982861
186	0xbdfd768a	-0.12376125
187	0xbdb77f8e	-0.08959876
188	0xbe3a8cb2	-0.18217734
189	0xbd04437d	-0.032290924
190	0xbc5995ee	-0.013280375
191	0xbd5e5ac6	-0.054285787
192	0xbbc80708	-0.006104354
193	0xbe286336	-0.16444096
194	0xbc8dc891	-0.017307552
195	0xbe2019a4	-0.15634781
196	0x3d53a0d4	0.05166705
197	0x3dc7ff50	0.09765494
198	0xbd72b14b	-0.05925111
199	0xbdcec717	-0.10096567
200	0xbe312328	-0.17298567
201	0xbe32dfdc	-0.17468208
202	0xbe259cb8	-0.16173065
203	0x3dd8b61a	0.10581608
204	0x3d958b6a	0.07301982
205	0x3dabd403	0.083900474
206	0xbe0b10d5	-0.1358064
207	0xbe176bf0	-0.14787269
208	0xbd4b7d5c	-0.0496801
209	0xbe025382	-0.12727168
210	0xbe11ce9a	-0.14238968
211	0xbe0f87ad	-0.140166
212	0xba8bb1c0	-0.0010657832
213	0x3d238c48	0.039928705
214	0xbe242574	-0.16029912
215	0x3daa340e	0.0831071
216	0xbd842056	-0.0645148
217	0x3ca00374	0.019532897
218	0xbe145f52	-0.14489487
219	0x3ddc3e91	0.10754121
220	0x3e03ebea	0.12882963
221	0x3db01c8a	0.085991934
222	0xbe253157	-0.16132103
223	0x3e2d8d48	0.16948426
224	0x3d9c19a3	0.07622077
225	0x3e11ef5d	0.14251466
226	0x3d6b18e6	0.057396792
227	0xbe0f5c6a	-0.14000097
228	0xbd54e200	-0.051973343
229	0x3e197214	0.14984924
230	0xbe361fdd	-0.17785592
231	0x3d34fa30	0.04418391
232	0x3e2889f9	0.16458882
233	0xbde9bc41	-0.1141286
234	0x3d577c1b	0.05260859
235	0x3db059c0	0.086108685
236	0x3de50409	0.1118241
237	0x3dd020e3	0.10162523
238	0x3e17ded1	0.14831091
239	0x3cc18b6a	0.023626048
240	0x3dee30b2	0.11630382
241	0xbdd1a0b4	-0.1023573
242	0xbddd0ba2	-0.107932344
243	0xbe185f2c	-0.14880055
244	0x3c40b98c	0.011762988
245	0x3c59a6e6	0.013284421
246	0xbdf78bbd	-0.120872
247	0x3dd10db8	0.10207695
248	0x3d4d106d	0.050064493
249	0x3d48e2c0	0.04904437
250	0xbe3973b8	-0.1811055
251	0xbd9bd45c	-0.07608864
252	0x3d353ed5	0.044249374
253	0x3c9c3c07	0.019071592
254	0xbd2cfc77	-0.042232957
255	0x3db3fb2c	0.087881416

weight f4 [32]
0	0x3f7d6a2d	0.98990136
1	0x3f7d6a1b	0.9899003
2	0x3f7d6a18	0.9899001
3	0x3f814467	1.0099
4	0x3f814467	1.0099
5	0x3f7d6a16	0.9899
6	0x3f7d6a16	0.9899
7	0x3f7d6a17	0.98990005
8	0x3f814466	1.0098999
9	0x3f814467	1.0099
10	0x3f7d6a19	0.9899002
11	0x3f7d6a16	0.9899
12	0x3f814467	1.0099
13	0x3f7d6a16	0.9899
14	0x3f814462	1.0098994
15	0x3f814465	1.0098997
16	0x3f7d6a18	0.9899001
17	0x3f7d6a17	0.98990005
18	0x3f814467	1.0099
19	0x3f814467	1.0099
20	0x3f7d6a18	0.9899001
21	0x3f7d6a16	0.9899
22	0x3f7d6a16	0.9899
23	0x3f7d6a16	0.9899
24	0x3f814467	1.0099
25	0x3f814466	1.0098999
26	0x3f814467	1.0099
27	0x3f814467	1.0099
28	0x3f81445c	1.0098987
29	0x3f7d6a16	0.9899
30	0x3f7d6a17	0.98990005
31	0x3f814466	1.0098999

bias f4 [32]
0	0xbc23d6f0	-0.009999976
1	0xbc23d6ef	-0.009999975
2	0xbc23d6e2	-0.0099999625
3	0x3c23d67e	0.009999869
4	0x3c23d62d	0.009999794
5	0xbc23d6fc	-0.009999987
6	0x3c23d705	0.009999995
7	0xbc23d6f1	-0.0099999765
8	0x3c23d6ee	0.009999974
9	0xbc23d6f2	-0.009999977
10	0xbc23d6e5	-0.009999965
11	0x3c23d6ff	0.0099999895
12	0x3c23d6fd	0.009999988
13	0x3c23d6fb	0.009999986
14	0xbc23d6fb	-0.009999986
15	0x3c23d6c2	0.009999933
16	0xbc23d6e2	-0.0099999625
17	0x3c23d655	0.009999831
18	0xbc23d705	-0.009999995
19	0xbc23d6f6	-0.009999981
20	0xbc23d6f6	-0.009999981
21	0xbc23d6e8	-0.009999968
22	0xbc23d4ee	-0.009999497
23	0x3c23d701	0.009999991
24	0x3c23d6f8	0.009999983
25	0x3c23d6f7	0.009999982
26	0xbc23d702	-0.009999992
27	0xbc23d6d8	-0.009999953
28	0x3c23d635	0.009999801
29	0xbc23d703	-0.009999993
30	0xbc23d6d7	-0.009999952
31	0x3c23d6e8	0.009999968
