calculator/models/model_add2_2024-07-28-08-45.pth (torch, 927586 bytes, 60 tensors)

weight f4 [28, 64]
0.19611551 0.13500348 -0.47226298 -0.6882002 0.8793075 -0.26351893 1.1359715 -0.1006758
0.36253574 1.4614539 -1.2328113 -0.34281373 -0.0029139488 -0.19523318 -0.78296757 1.45894
1.3744245 0.0015924693 0.7025542 1.0780948 -2.0108793 0.37757406 1.3488294 0.42636886
0.05520634 -1.4231023 -1.1194619 -0.4396724 -0.09907102 -0.726511 1.5104203 2.5079207
-0.5957866 -0.42507884 1.088267 0.26781356 -0.06327171 1.3087691 -0.9438768 -0.52359813
-0.25235033 -0.9925026 0.1395429 -1.5085219 -1.4835601 0.532486 -0.34331292 -0.90179926
1.4276105 -0.95939386 1.1737133 -0.55304855 -1.3307272 1.7486525 2.7220206 -1.5293788
1.2555743 -1.6041714 0.955283 -0.35374057 0.89591354 1.477582 1.7736028 -0.48858792
-0.8376146 0.5505279 0.21006523 0.22201738 -0.40103912 0.35460383 -0.11833867 -1.0123931
1.966991 -0.57233876 0.24834378 0.63056254 -1.4043971 0.6665166 -0.025558798 -0.040221166
2.730263 -1.0428257 0.94529164 0.5047288 -1.6253588 -1.0600264 0.97017264 -0.28474918
0.1902709 -0.32359824 0.6249384 -0.7816106 -0.16206683 -0.58382416 -0.829489 -0.49483737
-1.6576716 -1.6726309 -0.10750633 1.008109 -0.021427559 -0.43211573 -0.24841417 -0.032521926
-0.10470156 -0.3123626 0.38527155 1.2208755 0.11080647 2.3677626 -0.46197313 -1.7711647
-0.28097633 -0.26453093 0.9691298 -2.0103774 0.38716903 0.5605713 -1.6236019 0.34650525
1.8798563 0.14194894 0.14719573 -0.7904486 -0.7220055 0.5980937 -0.24638037 -1.5754149
-2.016204 1.9400549 1.1767235 -0.1917975 1.4183172 1.4909782 -0.06516778 -1.3697697
-0.29360488 -0.020818373 0.97017956 0.804962 0.26572707 -0.69048077 0.4398757 0.80182576
2.3859742 1.0482335 -1.0941805 -0.11440827 -0.112520695 -0.14436387 -0.46319833 1.2594489
-0.9549766 -0.05943432 1.0785961 -0.2594578 -1.1490173 -0.72868425 1.29662 -0.6187698
-0.9943061 0.074977666 -0.13113616 1.8905833 -2.6157348 0.4875911 -0.68361866 -0.2710522
-0.12632112 1.6243654 -0.17605528 -0.0059913765 -1.3862281 0.062697746 -1.7958869 -1.5217274
-0.29264304 -1.1396307 0.14334865 -0.0072865654 0.9433921 0.9105956 -1.26163 1.083819
1.356043 0.92817324 0.47399312 -1.1851021 -0.3016159 1.801041 0.22922103 1.0463595
-0.03361947 -0.27087232 1.8545014 1.7232774 1.3838351 -0.6099198 -0.155011 0.37976107
-0.32603744 -1.7842733 1.1446259 0.41154724 -1.2334424 -0.9012576 -0.18125938 0.10123831
0.98531085 -0.42365628 -0.24742393 -0.48687738 0.4450096 0.89298606 1.7418146 0.40628406
0.51733613 0.7319286 -0.57455575 -0.8778572 -0.3778646 0.38981754 -0.6039434 -0.5163069
-0.57669216 -0.5907241 0.06513576 -0.31634983 -0.3932438 1.0356344 0.044947945 -0.47076318
1.1146523 -1.2376509 0.8750599 -1.848672 -1.036818 -0.031066786 -0.59160966 -0.49204782
1.5727012 -0.48024282 -0.91842216 -1.4925064 0.8551253 -0.29891443 -0.01623522 -1.2339623
0.009089091 0.1145122 -1.1423942 -1.3067666 1.4417074 -1.661915 -0.76803064 1.3768297
00000000: 81d2 483e 5a3e 0a3e 74cc f1be e32d 30bf
00000010: 4c1a 613f f4eb 86be 8467 913f 1d2f cebd
00000020: 499e b93e ec10 bb3f c3cc 9dbf 4885 afbe
00000030: f3f7 3ebb 35eb 47be 9070 48bf 8cbe ba3f
00000040: 24ed af3f 67ba d03a 98da 333f 03ff 893f
00000050: 3fb2 00c0 6351 c13e 71a6 ac3f 054d da3e
00000060: 0b20 623d 3728 b6bf 874a 8fbf be1c e1be
00000070: bfe5 cabd a0fc 39bf 7455 c13f c681 2040
00000080: 7885 18bf efa3 d9be 554c 8b3f dc1e 893e
00000090: 9994 81bd bf85 a73f e9a1 71bf 870a 06bf
000000a0: 1034 81be a714 7ebf 55e4 0e3e 3f17 c1bf
000000b0: 4ce5 bdbf 0151 083f b6c6 afbe 51dc 66bf
000000c0: f1bb b63f d69a 75bf 3d3c 963f 9794 0dbf
000000d0: 4555 aabf d8d3 df3f 9635 2e40 afc2 c3bf
000000e0: a9b6 a03f 7d55 cdbf 6d8d 743f 7c1d b5be
000000f0: 975a 653f 6821 bd3f 6b05 e33f 3228 fabe
00000100: e96d 56bf 65ef 0c3f 571b 573e 8658 633e
00000110: 0055 cdbe a28e b53e 8b5b f2bd 1996 81bf
00000120: 5cc6 fb3f cb84 12bf d54d 7e3e 8c6c 213f
00000130: 49c3 b3bf d5a0 2a3f af60 d1bc f3be 24bd
00000140: a1bc 2e40 507b 85bf a2fe 713f e835 013f
00000150: c20b d0bf f2ae 87bf 3c5d 783f a5ca 91be
00000160: 60d6 423e abae a5be f7fb 1f3f a217 48bf
00000170: d9f4 25be 8075 15bf 6459 54bf 535b fdbe
00000180: 952e d4bf c518 d6bf 472c dcbd b709 813f
00000190: d988 afbc 463e ddbe 4960 7ebe b635 05bd
000001a0: c66d d6bd feed 9fbe 5042 c53e a645 9c3f
000001b0: 81ee e23d 6c89 1740 be87 ecbe 86b5 e2bf
000001c0: 21dc 8fbe 9970 87be e418 783f 06aa 00c0
000001d0: 053b c63e 9a81 0f3f 30d2 cfbf 2369 b13e
000001e0: 229f f03f 105b 113e 7aba 163e d75a 4abf
000001f0: 5ad5 38bf ab1c 193f 234b 7cbe 32a7 c9bf
00000200: 7d09 01c0 b853 f83f e09e 963f 9066 44be
00000210: 6b8b b53f 60d8 be3f af76 85bd 9d54 afbf
00000220: 6153 96be 4b8b aabc b05d 783f fd11 4e3f
00000230: 610d 883e 59c3 30bf 6337 e13e 7444 4d3f
00000240: cdb3 1840 842c 863f 1b0e 8cbf e24e eabd
00000250: 4071 e6bd 1fd4 13be 5528 edbe 9f35 a13f
00000260: 5979 74bf 6771 73bd 700f 8a3f a7d7 84be
00000270: 0013 93bf 0d8b 3abf a5f7 a53f b367 1ebf
00000280: d88a 7ebf e48d 993d 8f48 06be a2fe f13f
00000290: 3368 27c0 8aa5 f93e a201 2fbf 5bc7 8abe
000002a0: 535a 01be 35eb cf3f d647 34be 4f53 c4bb
000002b0: ec6f b1bf ad67 803d 9fdf e5bf f7c7 c2bf
000002c0: 4fd5 95be 6bdf 91bf fdc9 123e 24c4 eebb
000002d0: 2582 713f cb1c 693f 187d a1bf 95ba 8a3f
000002e0: d192 ad3f c39c 6d3f 3aaf f23e 6db1 97bf
000002f0: 666d 9abe 8388 e63f ebb8 6a3e 1cef 853f
00000300: 92b4 09bd c7af 8abe 4d60 ed3f 5b94 dc3f
00000310: 8221 b13f b423 1cbf 34bb 1ebe 0b70 c23e
00000320: 61ee a6be 1163 e4bf 1a83 923f 52b6 d23e
00000330: 71e1 9dbf d1b8 66bf 0f9c 39be 0856 cf3d
00000340: 553d 7c3f 7ae9 d8be b35c 7dbe fe47 f9be
00000350: 4cd8 e33e bc9a 643f c8f3 de3f 7704 d03e
00000360: 2470 043f ac5f 3b3f 1616 13bf 40bb 60bf
00000370: 7877 c1be 2a96 c73e 099c 1abf b02c 04bf
00000380: 19a2 13bf b239 17bf e665 853d 9bf8 a1be
00000390: 4057 c9be ab8f 843f 561b 383d df07 f1be
000003a0: edac 8e3f 586b 9ebf ed03 603f 49a1 ecbf
000003b0: 74b6 84bf c67f febc bb73 17bf b1ed fbbe
000003c0: 464e c93f 63e2 f5be b71d 6bbf 730a bfbf
000003d0: 7ee9 5a3f 500b 99be b9ff 84bc 7af2 9dbf
000003e0: 69ea 143c 5f85 ea3d f939 92bf 2144 a7bf
000003f0: de89 b83f a1b9 d4bf a89d 44bf f53b b03f

weight f4 [64, 64]
-0.29194686 -0.55429024 -1.4574474 2.3151252 0.465902 1.5923117 -0.7040821 -2.006259
-0.0005470736 -1.7833287 0.5578379 0.83484554 -1.8314064 1.3003687 0.44378543 0.84813637
-0.6987534 1.564373 -0.20715006 -0.72049516 0.7904678 0.51228005 -1.2356769 0.7860303
0.8177196 -2.2844987 0.87132615 -2.2971144 0.30600163 2.8038225 1.8059053 -0.7564453
0.52893 -1.0827118 2.322148 -1.013135 -0.4253836 -0.85595244 -0.18832645 -2.3641443
0.22478516 0.13771175 -0.6006877 -0.018059967 0.14290722 -1.1480358 0.13792789 0.13297695
0.8798707 0.18188457 1.0163604 -0.69435674 0.66262245 -0.76666117 0.40428224 0.048369937
-0.29709467 -1.5185589 -0.10388012 -0.13082445 0.75840145 0.8508065 -2.4740217 -0.12545666
-2.0680635 -0.57072353 1.1337533 0.22522916 -0.033664133 0.5762823 0.8435595 -0.9980901
-1.5523401 0.37569645 0.29465878 0.44823304 -0.5709883 -0.26739466 1.8280123 1.0273832
0.16894849 -1.284975 -1.2534394 -1.6174339 -0.7941914 0.93102473 -0.24515589 -1.4002049
-0.17646979 -0.69148237 -0.08145119 2.4259942 -0.63441575 -0.43157843 -0.96820897 1.9034754
0.40653855 1.2114915 1.4919889 -0.80968124 0.15057215 -1.0824069 -0.02883461 -0.3500032
-0.97810817 1.8998005 0.4149239 -0.17499997 0.1925 -1.1016543 0.9181384 0.03947817
0.7399903 -0.7195194 -1.480739 2.00514 0.1373023 0.48003116 -0.09498552 0.49237165
-0.56305236 -1.0761113 1.0623314 -0.69037396 -1.3618941 1.5821176 0.31431553 -0.56425035
0.62170744 0.66573715 0.669507 -1.864598 -1.1533965 2.0857415 0.49508274 -1.2574115
-0.44984224 -0.29469326 -0.07864373 0.6466077 -1.5534297 0.12529275 0.45587733 0.7662458
0.13250653 0.106115416 -0.0924463 -0.86480266 0.7495 -0.6556298 -1.901252 -1.1375464
-1.7107371 -0.4734729 0.25840515 0.3381267 0.076517165 0.5287506 1.1513813 -0.04296251
-0.46401942 -0.6673949 -0.5886436 -0.3674283 -0.40629527 -1.2474215 -0.21956585 -0.9640852
1.1855974 0.8894539 0.47631052 -0.6857266 -1.3713187 1.0839914 -1.6092982 -0.28360903
1.3587793 0.44357324 -1.9732758 0.30299583 1.3097314 -0.7203055 0.10806112 -1.0093429
-1.5688862 -1.0109401 -0.8793468 -0.4690865 -1.0472797 2.2538826 0.8121271 -0.2530752
-0.6253122 -0.4335303 -0.4740979 -1.664375 -0.5441135 -0.7810355 -0.70535135 -1.6330075
-0.6999691 -0.75488734 -0.9536673 -1.017416 -0.42921123 0.2833522 2.190462 0.1820473
1.1012048 1.057427 -0.77147806 -0.31225008 0.8479366 0.6550911 0.60657054 -1.6359537
-0.00461884 -1.0794687 0.617676 1.2409004 -1.3196691 1.444563 -1.8590808 -1.10576
-0.45217797 -0.38834926 0.4753291 0.52831054 -1.1870403 -0.71165496 -1.0017681 1.0860595
0.62045807 -1.075211 -1.3530046 -0.96093875 0.9228843 1.4010392 -0.057382964 -0.4915885
-0.8252632 0.47906056 1.3145134 -0.58263105 -0.7415902 0.39061624 1.3077286 -1.0442011
0.0137375 -1.5872695 -0.40589783 3.0588076 -0.04548599 0.13065298 0.53653085 -0.71983016
00000000: 0f7a 95be f7e5 0dbf a38d babf 032b 1440
00000010: b58a ee3e dfd0 cb3f b93e 34bf 8c66 00c0
00000020: 7d69 0fba 1d44 e4bf 77ce 0e3f 70b8 553f
00000030: 866b eabf 7b72 a63f d837 e33e 771f 593f
00000040: 81e1 32bf 603d c83f 251f 54be 5f72 38bf
00000050: 195c 4a3f c924 033f a92a 9ebf 4839 493f
00000060: 1256 513f 3a35 12c0 3b0f 5f3f ec03 13c0
00000070: 3fac 9c3e d471 3340 e827 e73f 66a6 41bf
00000080: f567 073f 4d96 8abf 139e 1440 68ae 81bf
00000090: e1cb d9be b31f 5bbf a6d8 40be 244e 17c0
000000a0: 152e 663e 4f04 0d3e abc6 19bf 7ff2 93bc
000000b0: 4556 123e d6f2 92bf f83c 0d3e 1c2b 083e
000000c0: 353f 613f f33f 3a3e 1918 823f 5dc1 31bf
000000d0: a0a1 293f e843 44bf 15fe ce3e 8e1f 463d
000000e0: cb1c 98be 2360 c2bf 1abf d4bd d8f6 05be
000000f0: 9926 423f 74ce 593f 5f56 1ec0 b677 00be
00000100: 275b 04c0 f01a 12bf d41e 913f 79a2 663e
00000110: 67e3 09bd 3d87 133f 84f3 573f d582 7fbf
00000120: 15b3 c6bf 495b c03e 84dd 963e cd7e e53e
00000130: 4a2c 12bf f4e7 88be 4ffc e93f 4b81 833f
00000140: d500 2d3e 107a a4bf b470 a0bf 1308 cfbf
00000150: 2150 4bbf a357 6e3f 250a 7bbe ea39 b3bf
00000160: 7fb4 34be fd04 31bf e2cf a6bd 7d43 1b40
00000170: 1269 22bf d9f7 dcbe 8bdc 77bf 15a5 f33f
00000180: d225 d03e 2712 9b3f 7ef9 be3f 4547 4fbf
00000190: 962f 1a3e 4f8c 8abf 8f36 ecbc 9f33 b3be
000001a0: 4c65 7abf aa2c f33f e870 d43e 3133 33be
000001b0: b81e 453e 0203 8dbf 1e0b 6b3f ddb3 213d
000001c0: 0170 3d3f 6c32 38bf db88 bdbf 3754 0040
000001d0: f998 0c3e a5c6 f53e c587 c2bd 2318 fc3e
000001e0: 3324 10bf 04be 89bf 7afa 873f 59bc 30bf
000001f0: 8c52 aebf d482 ca3f f7ed a03e b672 10bf
00000200: 3828 1f3f c06d 2a3f d064 2b3f 26ab eebf
00000210: 7fa2 93bf ca7c 0540 7c7b fd3e dcf2 a0bf
00000220: b951 e6be 09e2 96be f70f a1bd 1588 253f
00000230: c9d6 c6bf be4c 003e c168 e93e af28 443f
00000240: cbaf 073e 0a53 d93d 7c54 bdbd b563 5dbf
00000250: 3bdf 3f3f 5bd7 27bf 3a5c f3bf 1f9b 91bf
00000260: 6ff9 dabf 0a6b f2be ae4d 843e f11e ad3e
00000270: 08b5 9c3d 335c 073f 7660 933f 75f9 2fbd
00000280: f493 edbe 64da 2abf 59b1 16bf 901f bcbe
00000290: ef05 d0be 82ab 9fbf dfd5 60be 4ace 76bf
000002a0: a8c1 973f 40b3 633f f9de f33e c78b 2fbf
000002b0: 5f87 afbf 3bc0 8a3f 7cfd cdbf 3435 91be
000002c0: 7bec ad3f 081c e33e 4d94 fcbf 4522 9b3e
000002d0: 47a5 a73f f165 38bf 264f dd3d 2632 81bf
000002e0: 43d1 c8bf 7c66 81bf df1c 61bf 1b2c f0be
000002f0: 430d 86bf 9d3f 1040 90e7 4f3f 1393 81be
00000300: 7614 20bf aff7 ddbe f6bc f2be 3d0a d5bf
00000310: 064b 0bbf f1f1 47bf e891 34bf 6406 d1bf
00000320: 2d31 33bf 4c40 41bf 8a23 74bf b03a 82bf
00000330: 93c1 dbbe 8a13 913e 8830 0c40 9b6a 3a3e
00000340: 47f4 8c3f c559 873f 967f 45bf 3edf 9fbe
00000350: 5f12 593f 0db4 273f 3548 1b3f ee66 d1bf
00000360: a359 97bb 082c 8abf 0420 1e3f d3d5 9e3f
00000370: ebea a8bf 71e7 b83f 5cf6 edbf 8b89 8dbf
00000380: df83 e7be b7d5 c6be 565e f33e 5c3f 073f
00000390: f0f0 97bf 052f 36bf f039 80bf ff03 8b3f
000003a0: 57d6 1e3f 84a0 89bf 412f adbf 1500 76bf
000003b0: 2542 6c3f 4155 b33f 660a 6bbd 7db1 fbbe
000003c0: 7344 53bf 6d47 f53e fa41 a83f 4f27 15bf
000003d0: dbd8 3dbf dafe c73e a763 a73f 62a8 85bf
000003e0: 4013 613c a62b cbbf d7d1 cfbe 81c3 4340
000003f0: 844f 3abd e5c9 053e 165a 093f ca46 38bf

tril f4 [64, 64]
1.0 0.0 0.0 0.0 0.0 0.0 0.0 0.0
0.0 0.0 0.0 0.0 0.0 0.0 0.0 0.0
0.0 0.0 0.0 0.0 0.0 0.0 0.0 0.0
0.0 0.0 0.0 0.0 0.0 0.0 0.0 0.0
0.0 0.0 0.0 0.0 0.0 0.0 0.0 0.0
0.0 0.0 0.0 0.0 0.0 0.0 0.0 0.0
0.0 0.0 0.0 0.0 0.0 0.0 0.0 0.0
0.0 0.0 0.0 0.0 0.0 0.0 0.0 0.0
1.0 1.0 0.0 0.0 0.0 0.0 0.0 0.0
0.0 0.0 0.0 0.0 0.0 0.0 0.0 0.0
0.0 0.0 0.0 0.0 0.0 0.0 0.0 0.0
0.0 0.0 0.0 0.0 0.0 0.0 0.0 0.0
0.0 0.0 0.0 0.0 0.0 0.0 0.0 0.0
0.0 0.0 0.0 0.0 0.0 0.0 0.0 0.0
0.0 0.0 0.0 0.0 0.0 0.0 0.0 0.0
0.0 0.0 0.0 0.0 0.0 0.0 0.0 0.0
1.0 1.0 1.0 0.0 0.0 0.0 0.0 0.0
0.0 0.0 0.0 0.0 0.0 0.0 0.0 0.0
0.0 0.0 0.0 0.0 0.0 0.0 0.0 0.0
0.0 0.0 0.0 0.0 0.0 0.0 0.0 0.0
0.0 0.0 0.0 0.0 0.0 0.0 0.0 0.0
0.0 0.0 0.0 0.0 0.0 0.0 0.0 0.0
0.0 0.0 0.0 0.0 0.0 0.0 0.0 0.0
0.0 0.0 0.0 0.0 0.0 0.0 0.0 0.0
1.0 1.0 1.0 1.0 0.0 0.0 0.0 0.0
0.0 0.0 0.0 0.0 0.0 0.0 0.0 0.0
0.0 0.0 0.0 0.0 0.0 0.0 0.0 0.0
0.0 0.0 0.0 0.0 0.0 0.0 0.0 0.0
0.0 0.0 0.0 0.0 0.0 0.0 0.0 0.0
0.0 0.0 0.0 0.0 0.0 0.0 0.0 0.0
0.0 0.0 0.0 0.0 0.0 0.0 0.0 0.0
0.0 0.0 0.0 0.0 0.0 0.0 0.0 0.0
00000000: 0000 803f 0000 0000 0000 0000 0000 0000
00000010: 0000 0000 0000 0000 0000 0000 0000 0000
00000020: 0000 0000 0000 0000 0000 0000 0000 0000
00000030: 0000 0000 0000 0000 0000 0000 0000 0000
00000040: 0000 0000 0000 0000 0000 0000 0000 0000
00000050: 0000 0000 0000 0000 0000 0000 0000 0000
00000060: 0000 0000 0000 0000 0000 0000 0000 0000
00000070: 0000 0000 0000 0000 0000 0000 0000 0000
00000080: 0000 0000 0000 0000 0000 0000 0000 0000
00000090: 0000 0000 0000 0000 0000 0000 0000 0000
000000a0: 0000 0000 0000 0000 0000 0000 0000 0000
000000b0: 0000 0000 0000 0000 0000 0000 0000 0000
000000c0: 0000 0000 0000 0000 0000 0000 0000 0000
000000d0: 0000 0000 0000 0000 0000 0000 0000 0000
000000e0: 0000 0000 0000 0000 0000 0000 0000 0000
000000f0: 0000 0000 0000 0000 0000 0000 0000 0000
00000100: 0000 803f 0000 803f 0000 0000 0000 0000
00000110: 0000 0000 0000 0000 0000 0000 0000 0000
00000120: 0000 0000 0000 0000 0000 0000 0000 0000
00000130: 0000 0000 0000 0000 0000 0000 0000 0000
00000140: 0000 0000 0000 0000 0000 0000 0000 0000
00000150: 0000 0000 0000 0000 0000 0000 0000 0000
00000160: 0000 0000 0000 0000 0000 0000 0000 0000
00000170: 0000 0000 0000 0000 0000 0000 0000 0000
00000180: 0000 0000 0000 0000 0000 0000 0000 0000
00000190: 0000 0000 0000 0000 0000 0000 0000 0000
000001a0: 0000 0000 0000 0000 0000 0000 0000 0000
000001b0: 0000 0000 0000 0000 0000 0000 0000 0000
000001c0: 0000 0000 0000 0000 0000 0000 0000 0000
000001d0: 0000 0000 0000 0000 0000 0000 0000 0000
000001e0: 0000 0000 0000 0000 0000 0000 0000 0000
000001f0: 0000 0000 0000 0000 0000 0000 0000 0000
00000200: 0000 803f 0000 803f 0000 803f 0000 0000
00000210: 0000 0000 0000 0000 0000 0000 0000 0000
00000220: 0000 0000 0000 0000 0000 0000 0000 0000
00000230: 0000 0000 0000 0000 0000 0000 0000 0000
00000240: 0000 0000 0000 0000 0000 0000 0000 0000
00000250: 0000 0000 0000 0000 0000 0000 0000 0000
00000260: 0000 0000 0000 0000 0000 0000 0000 0000
00000270: 0000 0000 0000 0000 0000 0000 0000 0000
00000280: 0000 0000 0000 0000 0000 0000 0000 0000
00000290: 0000 0000 0000 0000 0000 0000 0000 0000
000002a0: 0000 0000 0000 0000 0000 0000 0000 0000
000002b0: 0000 0000 0000 0000 0000 0000 0000 0000
000002c0: 0000 0000 0000 0000 0000 0000 0000 0000
000002d0: 0000 0000 0000 0000 0000 0000 0000 0000
000002e0: 0000 0000 0000 0000 0000 0000 0000 0000
000002f0: 0000 0000 0000 0000 0000 0000 0000 0000
00000300: 0000 803f 0000 803f 0000 803f 0000 803f
00000310: 0000 0000 0000 0000 0000 0000 0000 0000
00000320: 0000 0000 0000 0000 0000 0000 0000 0000
00000330: 0000 0000 0000 0000 0000 0000 0000 0000
00000340: 0000 0000 0000 0000 0000 0000 0000 0000
00000350: 0000 0000 0000 0000 0000 0000 0000 0000
00000360: 0000 0000 0000 0000 0000 0000 0000 0000
00000370: 0000 0000 0000 0000 0000 0000 0000 0000
00000380: 0000 0000 0000 0000 0000 0000 0000 0000
00000390: 0000 0000 0000 0000 0000 0000 0000 0000
000003a0: 0000 0000 0000 0000 0000 0000 0000 0000
000003b0: 0000 0000 0000 0000 0000 0000 0000 0000
000003c0: 0000 0000 0000 0000 0000 0000 0000 0000
000003d0: 0000 0000 0000 0000 0000 0000 0000 0000
000003e0: 0000 0000 0000 0000 0000 0000 0000 0000
000003f0: 0000 0000 0000 0000 0000 0000 0000 0000

weight f4 [64, 64]
-0.16173771 -0.07012208 -0.013214853 0.008134244 0.020958042 -0.11009382 0.11419788 -0.17061427
-0.073559344 0.1002425 0.10021613 -0.19398773 0.05051622 0.10155795 0.14460647 -0.02664003
-0.08098395 -0.031462673 -0.12715699 -0.0834055 -0.00089717214 0.04836481 0.10514738 -0.058547616
0.09751566 0.09272805 0.06796044 0.11292905 0.0898963 -0.062169015 -0.007484987 0.12845467
-0.101422995 0.12460839 -0.096090496 -0.06417483 0.13693313 -0.11309857 0.20311822 0.014898943
0.020763448 0.024817144 -0.18017922 -0.061922282 0.13307315 -0.027301664 0.10308225 -0.16041192
-0.13839513 0.057394788 0.14076136 0.09776567 0.20094244 0.07877579 0.18935965 0.026934339
-0.223757 0.092520714 0.045587014 0.043485686 -0.019596474 0.027283827 -0.005300201 -0.00010095867
-0.1337968 0.050375465 -0.06494983 -0.07462492 0.1009367 0.11452047 0.0999229 0.0572566
0.08355236 0.016597003 -0.072171845 -0.020650335 -0.014334055 -0.07355722 0.11755263 -0.035413317
0.040113032 -0.061730493 -0.034509618 -0.003261156 0.16821498 -0.02033231 -0.036837913 -0.08341806
-0.08575405 0.021777824 0.052706037 -0.026817108 0.11288943 -0.06322174 0.009309474 0.16903429
-0.040039953 -0.04551935 0.10662874 -0.033426072 0.046073627 0.029595042 0.021582654 0.037415374
0.06894606 -0.10380562 -0.04727606 -0.050127808 -0.046921242 -0.0071202386 -0.04709621 0.094388776
0.04128923 -0.07145345 0.008120097 0.11777858 0.08200641 0.02452231 0.041089695 0.08637017
0.028254982 0.10306485 0.048395123 0.035404235 0.02545333 0.09277673 -0.008278603 0.02383808
0.020245828 -0.02980562 -0.03680738 -0.06508313 0.040153027 0.017633896 -0.12293538 -0.15854761
-0.074584655 0.08887201 -0.122806884 -0.0395861 -0.034808286 -0.053730562 -0.044879086 0.019302825
-0.0849219 0.09502198 -0.035261635 -0.05725222 -0.04314251 -0.060349192 -0.10046868 -0.09820482
0.043903273 -0.029976087 -0.015575634 -0.01964485 0.10895019 0.11317639 -0.02648177 0.041764315
0.062188428 -0.10390598 0.0068023023 -0.023896253 0.033462018 0.014845557 -0.066212766 -0.02204196
0.11496102 -0.03581324 -0.11152899 0.1007519 0.042912155 0.036248405 0.008108803 0.055248186
0.082984 -0.04101069 -0.026275923 0.024930587 -0.020283211 0.02939716 0.016796302 0.054668922
0.0605539 -0.035360232 0.15002738 -0.16834556 0.13957156 0.04641491 -0.07939013 -0.03391234
0.19052605 0.08977817 -0.041119214 -0.00022689055 0.10395345 0.047872923 -0.052120127 -0.008699477
0.11417664 0.0031730712 -0.07131962 -0.059086137 0.0008982397 -0.05107562 0.07502916 -0.00721025
0.108110376 -0.12800148 0.033111278 -0.008665049 -0.0025256653 -0.012634657 -0.009692424 0.08660305
0.058120362 -0.014068548 0.06596194 -0.00413406 0.0035598134 -0.11909625 -0.030687109 -0.05310522
-0.05183988 -0.07532234 0.06586742 0.055658214 0.026016612 -0.023183258 -0.17035268 0.106097296
0.05705456 -0.09343281 0.10622578 0.036946137 -0.11074287 -0.02614354 -0.032781597 0.014730034
0.11327956 -0.15608947 0.0025065618 -0.059886437 0.025651002 -0.002352702 -0.07677133 -0.055244524
0.044490237 0.05976189 -0.008874419 -0.032948576 0.1642644 0.069017194 0.026609734 0.0016778015
00000000: 929e 25be 2a9c 8fbd 1c83 58bc 7e45 053c
00000010: 33b0 ab3c de78 e1bd 94e0 e93d 82b5 2ebe
00000020: 48a6 96bd f14b cd3d 1d3e cd3d b8a4 46be
00000030: 19ea 4e3d 9dfd cf3d b813 143e 313c dabc
00000040: eada a5bd 01df 00bd 7135 02be 81d0 aabd
00000050: 3430 6bba 2e1a 463d 8257 d73d a0cf 6fbd
00000060: 4ab6 c73d 34e8 bd3d d82e 8b3d 5947 e73d
00000070: 8d1b b83d f0a4 7ebd 9f44 f5bb 9f89 033e
00000080: dcb6 cfbd af32 ff3d 18cb c4bd 186e 83bd
00000090: 3338 0c3e 39a0 e7bd 39fe 4f3e b21a 743c
000000a0: 1b18 aa3c 534d cb3c e780 38be 38a2 7dbd
000000b0: 5444 083e bda7 dfbc c91c d33d 0643 24be
000000c0: 74b7 0dbe cc16 6b3d bf23 103e 5e39 c83d
000000d0: dbc3 4d3e 3455 a13d 7fe7 413e 67a5 dc3c
000000e0: 8e20 65be 807b bd3d 73b9 3a3d 0c1e 323d
000000f0: c988 a0bc 5582 df3c 4fad adbb c6b9 d3b8
00000100: 0702 09be 8156 4e3d 6b04 85bd f3d4 98bd
00000110: e7b7 ce3d b589 ea3d 61a4 cc3d e685 6a3d
00000120: 801d ab3d 70f6 873c d5ce 93bd e42a a9bc
00000130: 62d9 6abc 2ba5 96bd 6fbf f03d 8e0d 11bd
00000140: 904d 243d 1dd9 7cbd f559 0dbd 1eb9 55bb
00000150: 8c40 2c3e f28f a6bc 5ae3 16bd 16d7 aabd
00000160: d29f afbd 6867 b23c 49e2 573d 8daf dbbc
00000170: 9332 e73d 667a 81bd c486 183c 5317 2d3e
00000180: ef00 24bd 7f72 3abd 2b60 da3d c7e9 08bd
00000190: b3b7 3c3d 4d71 f23c 1bce b03c dd40 193d
000001a0: 9833 8d3d 0a98 d4bd 8ba4 41bd d152 4dbd
000001b0: 7d30 40bd e450 e9bb f5e7 40bd e74e c13d
000001c0: e51e 293d 3056 92bd 280a 053c e535 f13d
000001d0: faf2 a73d 03e3 c83c ab4d 283d d8e2 b03d
000001e0: fe76 e73c aa13 d33d f739 463d 0804 113d
000001f0: 8083 d03c ba01 be3d faa2 07bc 1448 c33c
00000200: 94da a53c ea2a f4bc 56c3 16bd 4e4a 85bd
00000210: 8077 243d f674 903c 8bc5 fbbd 4e5a 22be
00000220: d7bf 98bd 8702 b63d 2d82 fbbd 0925 22bd
00000230: 2293 0ebd 9414 5cbd 22d3 37bd f520 9e3c
00000240: 88eb adbd e29a c23d 816e 10bd 4e81 6abd
00000250: 33b6 30bd b730 77bd 86c2 cdbd 9c1f c9bd
00000260: ebd3 333d 6990 f5bc f230 7fbc 3dee a0bc
00000270: 4721 df3d 06c9 e73d 4cf0 d8bc 0f11 2b3d
00000280: 4bb9 7e3d a9cc d4bd d9e5 de3b 13c2 c3bc
00000290: 780f 093d c73a 733c 8f9a 87bd 5791 b4bc
000002a0: af70 eb3d e7b0 12bd 5069 e4bd 0357 ce3d
000002b0: a8c4 2f3d 3579 143d c9da 043c ec4b 623d
000002c0: 84f3 a93d d3fa 27bd 9b40 d7bc 3b3b cc3c
000002d0: fa28 a6bc 50d2 f03c 6698 893c 85ec 5f3d
000002e0: 5e07 783d e4d5 10bd c7a0 193e c762 2cbe
000002f0: d9eb 0e3e 901d 3e3d 4b97 a2bd aae7 0abd
00000300: 4319 433e 9edd b73d 9f6c 28bd 78e9 6db9
00000310: 8ce5 d43d 6616 443d ea7b 55bd 4088 0ebc
00000320: 71d5 e93d 4df3 4f3b 0510 92bd 4e04 72bd
00000330: d977 6b3a ab34 51bd e3a8 993d f643 ecbb
00000340: f968 dd3d d212 03be b19f 073d daf7 0dbc
00000350: a285 25bb 9801 4fbc f9cc 1ebc f15c b13d
00000360: 9e0f 6e3d c47f 66bc 0e17 873d 0277 87bb
00000370: c24b 693b bce8 f3bd 8863 fbbc dc84 59bd
00000380: 0e56 54bd 9942 9abd 7fe5 863d def9 633d
00000390: ca20 d53c d1ea bdbc ef70 2ebe 8a49 d93d
000003a0: 0bb2 693d b359 bfbd e78c d93d d554 173d
000003b0: 28cd e2bd fa2a d6bc ff45 06bd 3e56 713c
000003c0: 1dff e73d ebd5 1fbe 2145 243b 7b4b 75bd
000003d0: 0d22 d23c ca2f 1abb 493a 9dbd 1548 62bd
000003e0: 653b 363d e2c8 743d 0366 11bc 16f5 06bd
000003f0: ed34 283e e358 8d3d a8fc d93c ade9 db3a

bias f4 [64]
-0.051690385 0.012319532 -0.049460147 0.032899953 -0.017006759 -0.007406288 0.06451873 -0.024824359
-0.041298527 0.060948778 0.081291005 -0.018828588 -0.04401226 -0.08953325 0.07894096 -0.042707168
-0.05896584 -0.034534097 -0.010077809 -0.018074743 -0.027356496 -0.09622335 -0.08583737 0.03991443
-0.03280174 0.070389524 0.024917006 -0.07579561 0.016277725 0.048440624 0.029596256 0.045538418
-0.012819426 0.04111253 0.043060888 -0.015392299 0.050279178 0.04881088 0.04236 -0.120205745
0.020972207 -0.04349606 0.08560564 0.01128086 0.062185053 -0.05985365 0.012695824 0.018789468
0.04956431 -0.08334412 -0.028265346 0.06461717 -0.023418736 -0.04531711 0.057099935 0.045198403
-0.0075688306 0.035879064 -0.05597015 0.040443696 -0.0804311 0.056458406 -0.041879643 -0.0070642233
00000000: 4cb9 53bd ddd7 493c b996 4abd 1ac2 063d
00000010: c251 8bbc 72b0 f2bb 6522 843d 745c cbbc
00000020: a528 29bd 6da5 793d e67b a63d 693e 9abc
00000030: 3346 34bd 355d b7bd ccab a13d b6ed 2ebd
00000040: 2a86 71bd a073 0dbd 651d 25bc 7c11 94bc
00000050: bb1a e0bc bf10 c5bd 81cb afbd 507d 233d
00000060: 1e5b 06bd 6228 903d c01e cc3c bb3a 9bbd
00000070: dd58 853c ad69 463d d973 f23c 7e86 3a3d
00000080: 9208 52bc 9d65 283d 9d60 303d fb2f 7cbc
00000090: 8af1 4d3d ebed 473d ae81 2d3d 6e2e f6bd
000000a0: e8cd ab3c ed28 32bd 0352 af3d 5bd3 383c
000000b0: c1b5 7e3d 1a29 75bd 2502 503c 5fec 993c
000000c0: f203 4b3d 52b0 aabd ba8c e7bc 0256 843d
000000d0: a6d8 bfbc 6f9e 39bd 9fe1 693d f621 393d
000000e0: f403 f8bb edf5 123d f540 65bd 4aa8 253d
000000f0: 10b9 a4bd ee40 673d fd89 2bbd 007b e7bb

weight f4 [64, 64]
0.076575875 0.047633126 -0.07575909 0.037603077 -0.076675616 -0.0002815096 -0.12741962 -0.03332209
0.04698309 0.0892504 0.013792326 0.0634611 0.18430743 -0.12855567 -0.13847452 -0.20239037
-0.11731717 0.072268374 0.044071604 -0.04673473 0.11132769 -0.0762299 -0.051190156 0.014049952
-0.022684561 0.20075063 0.1067316 0.00062884693 0.048174143 -0.16327947 -0.06970575 -0.021765683
-0.040131193 -0.0024567323 -0.1598312 0.09002648 0.10023951 0.074874945 0.06500389 0.10760888
0.021867754 -0.0124671515 0.016528832 0.025650324 0.04957642 0.010631549 0.06968888 -0.014907817
-0.08547076 -0.0731951 0.1711941 0.13926084 -0.10631285 0.028688824 0.02879995 -0.042964622
-0.048864454 0.14038804 0.03293481 -0.12039421 -0.052585933 -0.06350421 0.1494377 0.11623842
0.1325463 0.071645916 -0.1514583 0.07265972 -0.1957371 -0.013594824 0.06188419 0.050219633
0.10367838 -0.015194322 0.080740556 0.080298804 0.31667653 -0.051306915 0.07732111 -0.039029792
-0.16061875 -0.02952983 0.10662031 0.018594516 0.25900993 0.033797946 0.1525939 -0.06763428
-0.10541167 0.21360643 -0.052318156 -0.15061547 0.059401207 -0.08380814 -0.1598178 0.051574588
-0.10993778 -0.08405509 0.0020596206 0.24414997 0.19886322 -0.0013319169 -0.0061703515 -0.1081293
-0.04109131 0.0146793835 0.05427033 -0.036409657 0.05415876 -0.025665678 -0.10545095 -0.11682112
-0.160322 0.09795631 -0.0069052926 0.019205172 -0.17859998 0.110874325 0.0062165684 0.06858034
-0.13469097 0.07558312 0.03505612 -0.03959421 0.15709719 -0.0015523176 0.060683794 -0.037151434
0.20684722 0.25931773 0.12558466 -0.037562594 0.3278348 0.06850898 0.12635037 0.057509564
-0.1146746 -0.105307996 -0.10113151 -0.054145787 -0.05547362 -0.15556969 -0.094433054 0.019492207
0.018731456 0.03417184 0.13223566 -0.059220184 -0.2262766 -0.028960373 -0.07515309 0.101282135
0.019352367 -0.105564184 0.007970779 -0.08671158 0.07457588 0.01455391 0.052795492 -0.12867607
0.038833138 0.081392564 -0.2816056 -0.24946493 0.012069445 -0.17155261 -0.079754315 0.31025958
-0.21759214 0.13068289 -0.09877785 -0.29265693 -0.01913962 -0.044620536 -0.031459827 0.021685502
0.035381556 -0.0036001902 0.06366342 -0.09031237 -0.08470151 -0.11622869 0.06180325 0.055107683
0.09322279 -0.09715528 0.07375994 -0.033522557 -0.05040146 0.009192007 0.006789594 0.06610088
-0.060803484 0.11264362 -0.03237731 0.05259176 -0.1494495 -0.12621261 0.03574535 0.00328719
-0.15205382 0.050684307 0.31274304 0.055092763 0.21999145 0.06210943 -0.15468927 -0.11268076
-0.12576802 0.034406863 0.16622767 0.07904266 0.12362733 -0.04057803 -0.13855554 0.007840001
0.10093713 0.00065179565 0.16505772 0.030497272 -0.059091106 -0.027942449 -0.06413337 0.1363897
-0.21772656 0.038468942 0.09096971 0.1975084 0.26937947 -0.031444844 -0.012160271 0.039347813
-0.29011524 0.04827262 -0.1329435 0.038411967 -0.22399038 -5.7182973e-05 0.009334059 0.08251644
-0.252227 0.1402672 0.17275022 -0.075545385 -0.08323245 -0.14583156 0.07747293 0.0809876
-0.10418239 0.12348671 -0.048284642 -0.06862698 0.14857772 -0.19459169 -0.08905252 0.026401427
00000000: d0d3 9c3d f41a 433d 9527 9bbd af05 1a3d
00000010: 1b08 9dbd 9497 93b9 4a7a 02be be7c 08bd
00000020: 5771 403d eac8 b63d 35f9 613c e5f7 813d
00000030: 16bb 3c3e 19a4 03be 44cc 0dbe 6c3f 4fbe
00000040: fc43 f0bd 7101 943d 6d84 343d eb6c 3fbd
00000050: c6ff e33d 6c1e 9cbd c5ac 51bd c531 663c
00000060: f9d4 b9bc 9391 4d3e 1996 da3d 34d9 243a
00000070: 4052 453d bc32 27be e3c1 8ebd f24d b2bc
00000080: 9b60 24bd 2101 21bb caaa 23be ce5f b83d
00000090: 5f4a cd3d 0958 993d c220 853d 0b62 dc3d
000000a0: 0124 b33c 0643 4cbc 7967 873c a120 d23c
000000b0: a510 4b3d f32f 2e3c 0bb9 8e3d eb3f 74bc
000000c0: 4b0b afbd 50e7 95bd 824d 2f3e 659a 0e3e
000000d0: 8dba d9bd d304 eb3c dfed eb3c acfb 2fbd
000000e0: 1826 48bd e2c1 0f3e a7e6 063d 3d91 f6bd
000000f0: 5964 57bd 7f0e 82bd 3206 193e 690e ee3d
00000100: 38ba 073e 18bb 923d e217 1bbe 9fce 943d
00000110: 4e6f 48be d3bc 5ebc 477a 7d3d 1ab3 4d3d
00000120: 5555 d43d 9bf1 78bc 4e5b a53d b373 a43d
00000130: 6d23 a23e 3327 52bd 885a 9e3d b4dd 1fbd
00000140: 3e79 24be 8be8 f1bc c05b da3d 8753 983c
00000150: f39c 843e b76f 0a3d 9341 1c3e d783 8abd
00000160: 13e2 d7bd a5bb 5a3e 904b 56bd f13a 1abe
00000170: ae4e 733d 9aa3 abbd 47a7 23be e03f 533d
00000180: 0f27 e1bd 1325 acbd b3fa 063b 7302 7a3e
00000190: cda2 4b3e b793 aeba a930 cabb e572 ddbd
000001a0: 5d4f 28bd cc81 703c 914a 5e3d 4b22 15bd
000001b0: 93d5 5d3d d440 d2bc abf6 d7bd e93f efbd
000001c0: 732b 24be 519d c83d cb45 e2bb 2a54 9d3c
000001d0: eae2 36be 1412 e33d 5bb4 cb3b d973 8c3d
000001e0: 6eec 09be 53cb 9a3d 0297 0f3d 8a2d 22bd
000001f0: 16de 203e 2377 cbba 928f 783d 1a2c 18bd
00000200: c2cf 533e 4bc5 843e 4499 003e 3cdb 19bd
00000210: f7d9 a73e 704e 8c3d fe61 013e 268f 6b3d
00000220: 84da eabd b8ab d7bd 0a1e cfbd f9c7 5dbd
00000230: 4e38 63bd a94d 1fbe 1e66 c1bd 1fae 9f3c
00000240: b672 993c c5f7 0b3d c968 073e dd90 72bd
00000250: 0eb5 67be 4e3e edbc dde9 99bd 026d cf3d
00000260: db88 9e3c 0932 d8bd df97 023c d795 b1bd
00000270: 3dbb 983d 8673 6e3c 1640 583d a9c3 03be
00000280: 7f0f 1f3d 25b1 a63d 9c2e 90be bc73 7fbe
00000290: ecbe 453c 7dab 2fbe 3b56 a3bd 58da 9e3e
000002a0: 79d0 5ebe bcd1 053e 0b4c cabd 21d7 95be
000002b0: b1ca 9cbc 06c4 36bd 05dc 00bd cba5 b13c
000002c0: 40ec 103d 2bf1 6bbb f861 823d b1f5 b8bd
000002d0: fc77 adbd 4f09 eebd 6825 7d3d 98b8 613d
000002e0: 97eb be3d 59f9 c6bd 740f 973d f34e 09bd
000002f0: c371 4ebd 129a 163c 3e7b de3b e65f 873d
00000300: 130d 79bd b3b1 e63d 129e 04bd 756a 573d
00000310: 4a09 19be e13d 01be b769 123d e66d 573b
00000320: ffb3 1bbe 599a 4f3d db1f a03e f3a8 613d
00000330: 7045 613e 7566 7e3d dd66 1ebe 2cc5 e6bd
00000340: 55c9 00be 36ee 0c3d 9637 2a3e 1ee1 a13d
00000350: 5330 fd3d 2635 26bd 81e1 0dbe 5973 003c
00000360: 20b8 ce3d 44dd 2a3a e404 293e 6ad5 f93c
00000370: 8409 72bd 90e7 e4bc 5b58 83bd bea9 0b3e
00000380: b6f3 5ebe 9c91 1d3d 544e ba3d a43f 4a3e
00000390: 1bec 893e 4fcc 00bd e03b 47bc 2c2b 213d
000003a0: fc89 94be 83b9 453d 5722 08be de55 1d3d
000003b0: bc5d 65be c0d7 6fb8 e2ed 183c 61fe a83d
000003c0: e623 81be 34a2 0f3e 6fe5 303e 8ab7 9abd
000003d0: c675 aabd de54 15be 21aa 9e3d d4dc a53d
000003e0: 945d d5bd 9ae6 fc3d 1ec6 45bd 4d8c 8cbd
000003f0: c224 183e 0b43 47be 2b61 b6bd ce47 d83c

weight f4 [64, 64]
-0.057625692 -0.034802333 0.0062574446 -0.0934925 0.11940059 0.03700001 -0.021952715 -0.12768176
0.10285827 -0.1454259 0.05461535 0.17792968 -0.111680105 -0.16896786 -0.10177816 -0.11441806
0.104623586 -0.20026898 0.057278663 0.12602396 0.032167297 -0.02407813 -0.07027362 -0.10771651
-0.069939405 -0.14591953 -0.047385704 -0.1483221 -0.11767108 0.07396282 0.16742286 -0.0838293
0.07159437 0.074935034 -0.0067053577 -0.042828433 -0.06469448 0.1473837 0.12193377 -0.05401008
0.081003204 0.022850934 -0.026389947 0.027554642 -0.03741617 -0.022402115 0.0040565915 0.021611366
-0.06686475 -0.022413546 -0.050795607 -0.12242411 0.03760946 0.034970816 -0.0013064629 0.006800622
0.2639403 -0.05258936 -0.017490998 0.068089075 0.16724183 -0.08505648 0.03344945 0.16613178
0.08465618 -0.06646921 0.21518742 0.08183284 -0.036421794 -0.11698963 -0.060628098 0.10324557
-0.12326744 0.09219402 0.11212178 0.0187719 -0.12549727 -0.098884605 -0.1817472 -0.14831828
0.12959912 -0.18850313 0.008037224 0.067464955 -0.041371536 -0.12109638 -0.04258361 -0.1646967
0.062160958 -0.14847878 -0.079624675 0.1911734 -0.03341527 -0.15232454 0.23660722 -0.1482814
-0.034039635 0.06618477 -0.06487293 -0.2267855 0.018728958 0.08224615 0.06902313 0.045852453
0.14053173 -0.010375443 -0.0024917135 -0.031582016 -0.1419993 -0.033697244 0.012464573 0.07396713
0.017274335 -0.1857254 0.19895956 -0.06780335 0.0477344 -0.2153559 -0.03352161 0.085695416
0.13434418 0.11640897 0.07133183 0.13261019 -0.15457319 -0.043199316 0.2924285 0.28194928
-0.2259762 -0.10699008 0.11871939 -0.19905595 -0.064282544 0.0896335 0.09912052 0.012253532
-0.02391642 -0.08908254 -0.14017482 0.039205156 0.118331164 0.21917906 0.12713842 -0.13781004
0.026119385 -0.100795954 0.05604522 -0.037373483 0.0006622702 -0.07886272 0.016084792 -0.07204202
-0.0018052361 -0.20222458 -0.059469134 -0.10089665 -0.0865012 0.30525303 -0.011442825 0.17496508
0.27026978 0.051889036 0.1808396 0.06754944 -0.045062773 0.07881167 0.028086977 0.15919967
0.018265815 -0.021643434 0.017874079 -0.102225885 -0.015764657 0.15609653 0.0932692 -0.16356578
-0.15228175 0.071237415 0.024452811 0.080424964 -0.10555337 0.098295756 0.045986366 0.058056824
-0.1779847 0.17372644 -0.034220852 -0.17156522 0.024229126 -0.10092574 -0.29382044 0.059451528
-0.12211512 0.04356144 0.2212475 -0.052898463 0.23055564 -0.048616838 0.038236406 0.23061277
-0.15221554 -0.16094942 0.019570233 -0.108809166 -0.08283268 0.08919918 -0.08064018 -0.074111655
0.151095 -0.09525638 0.104738735 0.015460787 -0.07424538 0.2229498 -0.086447455 0.08897898
0.14220057 -0.16710111 0.053461466 -0.19123851 -0.14159326 -0.08886546 -0.06019664 -0.05812161
0.03596577 0.050745014 -0.056094307 -0.17401944 -0.072338246 -0.07524465 0.16110364 0.05049956
0.028066285 -0.058279634 -0.05619648 -0.103712544 -0.108866476 -0.03601013 0.023338487 0.023070868
0.07908273 -0.09602011 0.16282856 -0.086353876 0.011132999 0.14741977 0.14822383 0.12051964
0.24352397 0.17979552 0.02625468 0.13185588 -0.013752592 0.13219076 0.09734789 0.00954088
00000000: eb08 6cbd e48c 0ebd 400b cd3b ff78 bfbd
00000010: 4c88 f43d 538d 173d 2ed6 b3bc 02bf 02be
00000020: 5ba7 d23d 87ea 14be 58b4 5f3d 3333 363e
00000030: 8ab8 e4bd e905 2dbe 1171 d0bd 0454 eabd
00000040: e444 d63d 5013 4dbe 089d 6a3d 6d0c 013e
00000050: dbc1 033d 803f c5bc 9eeb 8fbd 799a dcbd
00000060: 643c 8fbd ee6b 15be 8317 42bd c0e1 17be
00000070: 89fd f0bd d279 973d e670 2b3e b2ae abbd
00000080: 12a0 923d 8a77 993d 9eb8 dbbb de6c 2fbd
00000090: 8a7e 84bd c1eb 163e 6ab8 f93d ac39 5dbd
000000a0: 02e5 a53d e231 bb3c bb2f d8bc 46ba e13c
000000b0: b341 19bd a484 b7bc 28ed 843b 520a b13c
000000c0: 63f0 88bd 9d9c b7bc 0e0f 50bd 7eb9 fabd
000000d0: 610c 1a3d 8f3d 0f3d 9f3d abba c1d7 de3b
000000e0: 2f23 873e f167 57bd 4849 8fbc 4972 8b3d
000000f0: 7141 2b3e 1732 aebd 4a02 093d 731e 2a3e
00000100: 3860 ad3d 0221 88bd 175a 5c3e fa97 a73d
00000110: 052f 15bd 4298 efbd 2b55 78bd 6a72 d33d
00000120: a473 fcbd 38d0 bc3d 1ba0 e53d 87c7 993c
00000130: 5b82 00be 0384 cabd f01b 3abe bfe0 17be
00000140: a2b5 043e f706 41be 90ae 033c 112b 8a3d
00000150: 3375 29bd 6101 f8bd 276c 2ebd 40a6 28be
00000160: 7d9c 7e3d d20a 18be 4312 a3bd f6c2 433e
00000170: 73de 08bd f7fa 1bbe 2a49 723e 14d7 17be
00000180: 256d 0bbd e18b 873d 19dc 84bd 753a 68be
00000190: 796d 993c ab70 a83d 005c 8d3d c8cf 3b3d
000001a0: 8de7 0f3e c3fd 29bc 044c 23bb 255c 01bd
000001b0: 4468 11be 1f06 0abd 3538 4c3c 147c 973d
000001c0: e882 8d3c cd2e 3ebe 0ebc 4b3e 7cdc 8abd
000001d0: 2585 433d 4286 5cbe f54d 09bd 1481 af3d
000001e0: 8591 093e d367 ee3d 6c16 923d f7ca 073e
000001f0: 6f48 1ebe c4f1 30bd 30b9 953e a85b 903e
00000200: 4e66 67be 9d1d dbbd 2723 f33d 53d5 4bbe
00000210: 91a6 83bd c591 b73d b3ff ca3d 0ac3 483c
00000220: 5eec c3bc e870 b6bd fd89 0fbe 9695 203d
00000230: 9c57 f23d 7a70 603e 9330 023e 131e 0dbe
00000240: 52f8 d53c 1c6e cebd ac8f 653d f014 19bd
00000250: 339c 2d3a c782 a1bd 41c4 833c c48a 93bd
00000260: ac9d ecba f613 4fbe e895 73bd e7a2 cebd
00000270: 8b27 b1bd 204a 9c3e b07a 3bbc 0c2a 333e
00000280: cd60 8a3e 9989 543d 042e 393e 5c57 8a3d
00000290: be93 38bd 0368 a13d a916 e63c 3d05 233e
000002a0: 31a2 953c 924d b1bc a96c 923c ce5b d1bd
000002b0: e224 81bc c5d7 1f3e ec03 bf3d ca7d 27be
000002c0: bfef 1bbe ece4 913d 4351 c83c d8b5 a43d
000002d0: 5e2c d8bd 494f c93d 335c 3c3d fecc 6d3d
000002e0: 9f41 36be 58e5 313e 2a2b 0cbd cbae 2fbe
000002f0: 297c c63c 28b2 cebd a26f 96be 7283 733d
00000300: 7e17 fabd 7b6d 323d b48e 623e 0fac 58bd
00000310: c716 6c3e 7322 47bd c79d 1c3d c125 6c3e
00000320: 64de 1bbe edcf 24be c151 a03c 57d7 debd
00000330: 2ea4 a9bd 0fae b63d ae26 a5bd dac7 97bd
00000340: a6b8 1a3e c715 c3bd 4381 d63d 3e4f 7d3c
00000350: f60d 98bd f44c 643e 5d0b b1bd 9d3a b63d
00000360: 079d 113e 8e1c 2bbe 69fa 5a3d 07d4 43be
00000370: d3fd 10be 18ff b5bd c190 76bd ed10 6ebd
00000380: d850 133d 01da 4f3d 25c3 65bd 2732 32be
00000390: 1326 94bd de19 9abd 5af8 243e a0d8 4e3d
000003a0: 44eb e53c a0b6 6ebd 482e 66bd 3e67 d4bd
000003b0: 63f5 debd 5c7f 13bd 5b30 bf3c 1eff bc3c
000003c0: 20f6 a13d 31a6 c4bd 88bc 263e 4dda b0bd
000003d0: 2f67 363c 35f5 163e fdc7 173e 00d3 f63d
000003e0: 595e 793e 511c 383e 0e14 d73c 3a05 073e
000003f0: 8d52 61bc 045d 073e 555e c73d 5a51 1c3c

weight f4 [64, 64]
0.0116612045 -0.036680985 0.082588434 0.12594537 0.05500133 0.1330248 -0.07386461 -0.05198343
0.07442654 -0.11282939 -0.09082254 -0.0648438 -0.0008130784 -0.07580981 0.1695371 0.09909645
-0.21375081 0.066102795 0.016693223 -0.0884504 0.08113307 -0.072084196 -0.14291292 0.13914993
0.04143824 0.036279522 0.005725499 0.1250402 -0.05484965 0.066950984 -0.06403462 0.15747263
0.073030934 0.035278488 0.024148876 -0.05357203 -0.038713813 -0.07199335 -0.11239205 -0.105796516
0.10833573 -0.02753773 -0.05992898 0.0661722 0.020304201 0.1525526 -0.06964167 -0.06496142
0.06928429 0.007931128 -0.08789517 -0.08124844 0.08453206 -0.12460314 0.042304832 0.0038775622
-0.020945702 0.07111614 -0.114071205 0.16690345 -0.0031113646 0.02767603 0.031798273 -0.14404674
-0.0852158 -0.10542001 -0.06150068 -0.19398464 0.005296344 0.030859893 -0.077176996 0.06938978
-0.08796808 -0.035681218 0.18151857 0.047662288 -0.016704159 0.033733487 -0.02336491 0.09635064
-0.059933826 -0.07880891 -0.021851232 0.08202461 0.17069899 0.05662059 -0.0029971462 0.010598212
-0.092131756 0.07682367 0.082202695 0.030288454 -0.089281596 0.059392735 -0.061113704 -0.02964298
-0.027518796 -0.07053212 0.021573374 -0.12756984 0.003376698 -0.091598436 -0.024509152 -0.10258872
-0.0023738248 0.072370514 -0.11616482 0.015733523 -0.02288138 0.07663447 0.142585 -0.057779353
0.08204333 -0.16568993 0.0077794134 0.084360816 0.09295693 -0.13465548 0.06894797 0.020850083
0.09724225 -0.057190463 0.12988946 -0.049587034 0.024768146 0.008104947 -0.14287844 -0.10771286
0.1275281 -0.026916772 -0.006824084 -0.023191608 0.027272854 -0.059917696 -0.13550954 -0.06432096
-0.020470716 0.15454581 0.015578375 0.24820551 -0.061434444 -0.062268727 -0.017281312 -0.039645825
0.053669207 -0.057410568 -0.0028681466 0.22466634 0.10117504 0.06355347 0.010925526 -0.021241575
0.14712845 -0.00047523665 -0.006767936 -0.12395503 -0.14449547 0.019335693 -0.11527589 -0.010417251
0.13037293 -0.10500993 0.013261446 0.024809191 -0.036310907 0.1171242 0.114390574 -0.012201024
0.017778633 0.06653317 -0.19067188 0.11093729 -0.015540823 0.0113921 -0.13805391 -0.070914865
-0.09954977 0.06811164 0.07362373 0.04725893 0.039715488 -0.09761612 0.1158408 -0.0046068635
0.20222288 0.017793411 -0.024409939 -0.19172078 -0.04843577 0.043338634 0.0074536204 -0.09811852
-0.14908858 0.06912304 0.09805073 -0.039557584 0.005919886 0.038682494 -0.038938213 0.097447045
0.047324114 0.01554389 -0.042511106 -0.004692019 -0.0666617 -0.06458475 0.178043 0.24905007
-0.03749651 0.029054822 0.033510342 0.06261116 0.02430053 -0.19522166 -0.036894705 0.01879555
-0.037904825 0.07233552 0.0070511573 0.14148891 0.15231133 -0.0019664185 0.04472516 0.027293392
-0.03790416 -0.08227973 0.1162188 0.21731725 -0.1411298 -0.05909085 -0.103637 -0.05924741
0.038396325 -0.03390494 0.005698345 -0.1344422 0.13186672 -0.051288072 -0.052409347 0.027340246
-0.013461735 -0.023213407 -0.11345435 -0.12094887 -0.06824088 0.1745455 0.033964064 0.2077774
-0.0758576 -0.004756455 -0.08750731 0.07172702 -0.070908666 -0.021881565 -0.07434327 -0.014501744
00000000: a30e 3f3c cd3e 16bd 2024 a93d d3f7 003e
00000010: 1349 613d a737 083e 5446 97bd 94ec 54bd
00000020: f16c 983d 1813 e7bd 2b01 babd d4cc 84bd
00000030: c524 55ba 2c42 9bbd 229b 2d3e 14f3 ca3d
00000040: 7ee1 5abe e760 873d 3ac0 883c 7c25 b5bd
00000050: 1829 a63d e1a0 93bd c457 12be 527d 0e3e
00000060: 25bb 293d d699 143d f79c bb3b 8a0a 003e
00000070: 07aa 60bd 991d 893d 9524 83bd 8140 213e
00000080: 3e91 953d 2d80 103d ddd3 c53c 586e 5bbd
00000090: 6092 1ebd 4071 93bd ce2d e6bd d8ab d8bd
000000a0: 20df dd3d ce96 e1bc 1778 75bd 4a85 873d
000000b0: ff54 a63c c036 1c3e 4ba0 8ebd 7e0a 85bd
000000c0: ece4 8d3d 90f1 013c 6202 b4bd 9565 a6bd
000000d0: 251f ad3d ee2f ffbd d547 2d3d b31e 7e3b
000000e0: 5296 abbc 57a5 913d 2a9e e9bd bde8 2a3e
000000f0: 09e8 4bbb d7b8 e23c e83e 023d fd80 13be
00000100: 9f85 aebd 72e6 d7bd 23e8 7bbd e9a3 46be
00000110: f48c ad3b e3cd fc3c f90e 9ebd 3b1c 8e3d
00000120: 9c28 b4bd 7826 12bd 01e0 393e 8839 433d
00000130: 29d7 88bc 202c 0a3d c567 bfbc 7c53 c53d
00000140: 2c7d 75bd 9166 a1bd 5b01 b3bc 85fc a73d
00000150: b7cb 2e3e feea 673d c56b 44bb 1fa4 2d3c
00000160: 93af bcbd ba55 9d3d e359 a83d 7e1f f83c
00000170: 45d9 b6bd cc45 733d 5d52 7abd d6d5 f2bc
00000180: 196f e1bc 2573 90bd a5ba b03c aba1 02be
00000190: 974b 5d3b f697 bbbd 6bc7 c8bc 091a d2bd
000001a0: 2c92 1bbb fe36 943d d2e7 edbd 97e3 803c
000001b0: bb71 bbbc 88f2 9c3d cd01 123e 0baa 6cbd
000001c0: 5506 a83d 9faa 29be 73ea fe3b 5dc5 ac3d
000001d0: 3460 be3d 20e3 09be 9834 8d3d cbcd aa3c
000001e0: f226 c73d 8c40 6abd be01 053e c61b 4bbd
000001f0: 91e6 ca3c 9dca 043c ba4e 12be 8f98 dcbd
00000200: ba96 023e 9080 dcbc 919c dfbb 54fc bdbc
00000210: 526b df3c 426c 75bd 03c3 0abe b5ba 83bd
00000220: 34b2 a7bc 4241 1e3e 713c 7f3c 9629 7e3e
00000230: afa2 7bbd 7e0d 7fbd 8a91 8dbc a963 22bd
00000240: 3ed4 5b3d 5827 6bbd 84f7 3bbb ef0e 663e
00000250: dc34 cf3d 5228 823d fa00 333c d002 aebc
00000260: d7a8 163e 2f29 f9b9 90c5 ddbb 23dc fdbd
00000270: 9ff6 13be e365 9e3c c415 ecbd 1ead 2abc
00000280: 7b80 053e 720f d7bd 8946 593c a53c cb3c
00000290: bfba 14bd d0de ef3d 9b45 ea3d cee6 47bc
000002a0: 7fa4 913c 8b42 883d 7d3f 43be 1733 e33d
000002b0: f09e 7ebc eea5 3a3c 015e 0dbe d03b 91bd
000002c0: c0e0 cbbd 1e7e 8b3d 0ac8 963d 9492 413d
000002d0: b5ac 223d f6ea c7bd f13d ed3d 2cf5 96bb
000002e0: 8413 4f3e 7dc3 913c 5af7 c7bc 7452 44be
000002f0: 9664 46bd da83 313d 803d f43b 5df2 c8bd
00000300: adaa 18be 6190 8d3d d2ce c83d 2207 22bd
00000310: 9afb c13b 8971 1e3d ad7d 1fbd 5192 c73d
00000320: eed6 413d cdab 7e3c 2020 2ebd 82bf 99bb
00000330: ee85 88bd 0245 84bd e750 363e fb06 7f3e
00000340: f195 19bd 6104 ee3c 2442 093d 483a 803d
00000350: e811 c73c 30e8 47be e71e 17bd 20f9 993c
00000360: 1742 1bbd a524 943d 650d e73b 78e2 103e
00000370: 80f7 1b3e 07df 00bb bb31 373d 6496 df3c
00000380: 6441 1bbd 4682 a8bd 1f04 ee3d 6a88 5e3e
00000390: 5584 10be 3f09 72bd a33f d4bd 6aad 72bd
000003a0: 7745 1d3d e8df 0abd 2fb9 ba3b 37ab 09be
000003b0: 1208 073e 7113 52bd 2fab 56bd a7f8 df3c
000003c0: 9c8e 5cbc 0b2a bebc c15a e8bd 0bb4 f7bd
000003d0: e0c1 8bbd 0ebc 323e e71d 0b3d 99c3 543e
000003e0: 3b5b 9bbd 09dc 9bbb 0837 b3bd 9ee5 923d
000003f0: 9038 91bd f840 b3bc 4941 98bd b998 6dbc

weight f4 [64]
1.0149845 0.9828216 1.0010655 0.9585375 0.97857225 1.009692 1.0490232 1.0189012
0.91875064 1.0363063 1.0419636 1.0765438 1.0298095 1.0431728 1.1440059 1.1128582
1.0684516 0.9727511 0.9054985 1.1350147 1.0532812 1.0243644 0.93966806 0.9505203
0.9582264 1.0593432 1.0558003 0.93867725 1.0013624 1.0628263 0.9538476 0.95619434
1.0746958 0.9917029 1.0030742 1.1077468 0.98664683 1.0981544 0.87895685 0.9999479
1.0425881 0.9038733 1.0325621 1.0027418 0.8977048 0.96062964 0.9149647 0.92786103
1.0519656 0.99110955 1.0702876 1.0184722 1.0359652 1.0558976 0.93710625 1.0673077
1.0689863 1.0447671 1.0481725 1.1337565 0.987827 1.012169 1.0308199 0.972551
00000000: 03eb 813f 329a 7b3f ea22 803f b762 753f
00000010: b683 7a3f 963d 813f 6446 863f 5b6b 823f
00000020: 3e33 6b3f afa5 843f 105f 853f 30cc 893f
00000030: ccd0 833f b086 853f c96e 923f 2372 8e3f
00000040: 06c3 883f 3706 793f c0ce 673f 2948 913f
00000050: ebd1 863f 5f1e 833f 168e 703f 4c55 733f
00000060: 534e 753f 8f98 873f 7724 873f 274d 703f
00000070: a52c 803f b10a 883f 5b2f 743f 27c9 743f
00000080: a28f 893f 3ee0 7d3f bc64 803f a6ca 8d3f
00000090: e394 7c3f 5390 8c3f 5103 613f 96fc 7f3f
000000a0: 8773 853f 3e64 673f ff2a 843f d859 803f
000000b0: fbcf 653f d3eb 753f 203b 6a3f 4d88 6d3f
000000c0: cfa6 863f 5bb9 7d3f 2fff 883f 4c5d 823f
000000d0: 829a 843f a727 873f 32e6 6f3f 8a9d 883f
000000e0: 8bd4 883f eeba 853f 842a 863f ef1e 913f
000000f0: 3be2 7c3f c18e 813f e8f1 833f 1af9 783f

bias f4 [64]
-0.023782386 0.0693649 0.06817959 0.051145058 0.0028366644 -0.036794893 0.06626339 0.03243217
-0.0046037654 0.031904534 -0.05978977 -0.038307797 0.0435241 -0.041223872 -0.049145523 -0.036907453
0.04340465 0.035184726 -0.02035346 0.0042163534 -0.08207863 -0.034107093 0.014672024 -0.03326643
0.0062690354 0.006698137 -0.04758223 -0.05320777 0.01705959 -0.087560214 0.030228406 0.009471199
0.001563743 -0.11269537 -0.08056569 0.077214085 0.034263887 0.10605334 0.06466982 -0.051722422
0.039822515 -0.01307135 -0.021738095 -0.020153169 0.049579065 -0.041879013 -0.0528483 0.01133171
0.04218015 -0.0699853 0.04040813 -0.040299658 0.015478109 0.057962995 -0.003200856 0.020699618
0.06912643 0.033185408 -0.02327243 -0.031686895 0.02320128 0.029977957 0.027365392 0.0807102
00000000: 47d3 c2bc 2f0f 8e3d bea1 8b3d 7b7d 513d
00000010: 55e7 393b 3eb6 16bd 1ab5 873d 98d7 043d
00000020: 2fdb 96bb 54ae 023d 1ee6 74bd a3e8 1cbd
00000030: 5446 323d 5dda 28bd d14c 49bd 452c 17bd
00000040: 13c9 313d dc1d 103d 4dbc a6bc 5629 8a3b
00000050: d718 a8bd e1b3 0bbd ee62 703c 6142 08bd
00000060: 7b6c cd3b 0c7c db3b 96e5 42bd 64f0 59bd
00000070: 8ec0 8b3c c552 b3bd 90a1 f73c 162d 1b3c
00000080: 82f6 cc3a d5cc e6bd a0ff a4bd 6b22 9e3d
00000090: 4a58 0c3d 7e32 d93d 9c71 843d e4da 53bd
000000a0: ef1c 233d 3729 56bc 1714 b2bc 4218 a5bc
000000b0: 6b13 4b3d 5489 2bbd 7677 58bd a3a8 393c
000000c0: 18c5 2c3d 7454 8fbd ff82 253d 4111 25bd
000000d0: e597 7d3c 9b6a 6d3d 74c5 51bb 3f92 a93c
000000e0: 2892 8d3d 6ced 073d d3a5 bebc 1eca 01bd
000000f0: 9c10 be3c 5594 f53c 632d e03c 644b a53d
